mlflow/mlartifacts/917714700599549108/a6cca298bd1f498c81e2540b4b4a9041/artifacts/model/data/model.pth (torch, 887400 bytes, 8 tensors)

weight f4 [32, 1, 3, 3]
00000000: 71c5 f13d ea32 57be c6c0 a23e c2e1 403e
00000010: d9f9 ccbc 901e a43e 1560 4d3e 21b5 c53e
00000020: 3675 9f3c 1c34 a3bc 0e05 ec3d 5629 33be
00000030: 71b5 fa3e c569 4c3e ad8d 18bf f3d3 cb3e
00000040: 058e 0bbe 1b4a c8be bb94 3e3e 97ab 773d
00000050: f341 703e 3249 113d d780 06be 0ba6 a13e
00000060: 9978 9c3e bb2a f53e 0c76 bb3e 5e55 b83e
00000070: 778c a83e b159 093d 0e73 753e 8152 2ebd
00000080: 4001 893e 7c6a fe3d 28cc d33e 9aa5 a53e
00000090: 0565 ce3b 9e85 413e b316 d2bd 1ab5 fdbc
000000a0: cf5b f63e 55ea 033f d177 8c3e 4d3e b2be
000000b0: 8417 32be c4c9 da3c 9557 a0bd 4acd 08be
000000c0: b563 f3bd fa52 e03d 4f3e 623e 38ab 563d
000000d0: 2e9b 61be 703c 9fbe 0c4c be3e 0530 58bd
000000e0: 3bb3 acbe 4ed6 003f 36ee 3cbe 6bb7 b7be
000000f0: 6512 ca3e 32e6 4abe 6923 0c3e 4e9d 86be
00000100: 9ed0 02bf c0d3 7bbe 6c8d 023f f99b da3c
00000110: 1095 b43e b431 f23d 029c 7c3e 3555 d3bd
00000120: 6eea 8b3e 34c3 d2be cb4f d4bd ba62 e83e
00000130: 3b0a 7cbe 4451 debe a1e1 963e bff2 1bbc
00000140: 7c57 683c 47bc cd3c 46b2 b13e 2c63 58be
00000150: 56ad 1abf 7d5d 1abf 27fe abbe 7a13 6abe
00000160: 6b68 a13d 6368 e5bc ffde 973e 2d3e 61be
00000170: 01c6 8e3d f8a9 aa3e f529 943c 02e0 a53e
00000180: f69e a4bd 04ce aebd a907 8d3e e38a 0b3e
00000190: 0c64 643e 1dfc 14bc b100 713d 5fce eb3d
000001a0: fdc5 8f3e baa1 c1be 3501 6d3e b61e 833e
000001b0: efdd 97be 1ee9 c03e d18a a93e a0cc 943d
000001c0: 6bbb 6fbd 3173 8dbd 9fe4 593d 24e3 483e
000001d0: 2910 bf3c 7453 203e e41b dd3e fc43 a7be
000001e0: c700 dc3d bba2 1fbe 365c a23d 5d5b 07bf
000001f0: 8067 de3d b5fe 6a3e 331d febe ab82 e5bd
00000200: fcfc 00bf 0420 29be f7e5 64be 8c3d a53e
00000210: 3f34 b53e 1d1b 903e 0425 833c 023d 843d
00000220: f5f4 80bd c984 333c 51f3 f7be 3dac 84be
00000230: ede5 de3e fe38 b7be f679 843e d1bc c83e
00000240: 781d 093f 0f55 b63e 617f c83e 786f 83bd
00000250: d286 03be 8a7b 753e 47db 11bf 94c2 c2be
00000260: 5e44 0bbf d796 d03d d94d 54be 7d6d 963e
00000270: 8853 99be d68c 60be 3ce4 2f3e 0c66 43bd
00000280: 30b6 3e3d 666d e83e e208 c5be d5e0 813d
00000290: e05c 943e dcc0 19bf 35c8 bf3e abb0 d33d
000002a0: 9a8e aabe 30b1 423e 622a f83d 98a3 fa3d
000002b0: 0c91 8ebd 12f8 ddbd a2f9 b83e 30c0 313d
000002c0: c545 1f3e 5643 74be be95 de3e e0ea 053f
000002d0: 76bb 96be 3856 cf3d 6733 923e 76f9 d23e
000002e0: 9af0 903e 08bf fa3e 4a32 b13d 620e 86be
000002f0: a9f6 733d e802 43be 261d 8b3e e014 143f
00000300: 4bbc 27bf 8fa3 9cbb 09b0 8fbc a8cc 18bf
00000310: b034 2ebe b1ed 883e e577 983c 28cc 03bf
00000320: a07e d7be eba4 dd3e b14c d93e b064 2abe
00000330: 47f7 253e 17fe cc3e e77d 6d3e ef31 ab3d
00000340: cb90 1d3e 26b7 7d3e f54c f63e 7d0b a33e
00000350: 5996 f23c b887 5f3e a443 04be 0b25 10bf
00000360: 138e 9c3e e62f 8c3e 70cb 273e 8bb4 e0bd
00000370: c10e 333e a13e 36bb aa27 0bbf 7e27 c4be
00000380: 7d5c ad3e 3f9e 813e 26e8 d33e 5243 da3e
00000390: 5111 38be 0e88 b93d 8551 e43d e9bf 14be
000003a0: fe7e 25bf a88c 05bf b6b2 b03e 2456 0b3e
000003b0: 0c63 883d 2b28 49bd 34cd c33e 0e56 0b3d
000003c0: 34e1 bb3e c24c 673e 178c 7ebe 3bbc 4b3e
000003d0: 85d0 f93d 9b0d ae3e 9a7f 1e3d 4aac 63bd
000003e0: b6f0 e83e 7ade 443d 3fae 133c ec65 333e
000003f0: 3569 863d 4dfd d9bd c7fd d7be 70c9 163f
0.11805237 -0.21015516 0.317877 0.1883612 -0.02502148 0.32054567 0.20056184 0.38614753
0.01946507 -0.019922309 0.115244016 -0.17496237 0.48966554 0.19962223 -0.5959118 0.39810142
-0.13628395 -0.39119038 0.18611424 0.060466375 0.23462658 0.035470195 -0.13135086 0.31571993
0.3056076 0.47884163 0.366135 0.3600263 0.32919666 0.033532802 0.23969671 -0.04255915
0.26758766 0.12422654 0.41366696 0.32352906 0.0062986636 0.18898627 -0.10258236 -0.030970145
0.4811692 0.5152944 0.27435163 -0.34813157 -0.17391783 0.026707537 -0.07829205 -0.13359562
-0.11884252 0.109533265 0.22094081 0.05240938 -0.22031853 -0.31100798 0.37167394 -0.05278017
-0.33730492 0.50327003 -0.18450245 -0.35882124 0.3946716 -0.19814375 0.13685383 -0.2629189
-0.51099575 -0.24592495 0.5099704 0.026685702 0.35269976 0.11825886 0.24668887 -0.10318986
0.27327293 -0.41164553 -0.10366782 0.45387822 -0.24613278 -0.43421376 0.29469016 -0.009518324
0.014181014 0.025114192 0.34706324 -0.21131581 -0.6042074 -0.602989 -0.3359234 -0.22858992
0.07881244 -0.028003877 0.2966232 -0.21996374 0.0697136 0.333328 0.018086413 0.32397467
-0.08038132 -0.08535388 0.27544907 0.136272 0.2230379 -0.009093312 0.05883855 0.115139715
0.2808074 -0.378187 0.23144992 0.25609368 -0.2966151 0.37677854 0.3311372 0.072655916
-0.058528345 -0.06906737 0.053196546 0.19617897 0.023323135 0.15656835 0.4318534 -0.32669055
0.10742336 -0.1558942 0.07927744 -0.52873784 0.10859585 0.22948726 -0.49631652 -0.112065636
-0.50386024 -0.16516119 -0.2235335 0.3227352 0.35391423 0.28145686 0.016008861 0.06456949
-0.06296722 0.010956951 -0.48427823 -0.25912657 0.43534794 -0.3578567 0.258743 0.39206555
0.5356059 0.3561177 0.39159682 -0.06417745 -0.12844399 0.23972908 -0.56975216 -0.38039076
-0.54401195 0.101850204 -0.20732822 0.29380408 -0.29946542 -0.21928725 0.17176908 -0.04770474
0.046560466 0.45395964 -0.3848334 0.063417114 0.28977108 -0.60059905 0.37457433 0.10336431
-0.3331192 0.19012904 0.12117459 0.12238234 -0.06961259 -0.10838331 0.36127955 0.043396175
0.15553959 -0.23853812 0.4347362 0.52311516 -0.29439896 0.10123867 0.28554842 0.4120595
0.28308564 0.4897387 0.0865217 -0.26182848 0.059561405 -0.19044077 0.27170676 0.5784435
-0.6552169 -0.00478024 -0.017539995 -0.5968728 -0.17012286 0.26743844 0.018611858 -0.5148339
-0.42088795 0.43289885 0.42441323 -0.16639972 0.1620761 0.40037605 0.23192559 0.083591335
0.15387265 0.24776897 0.4810559 0.31844702 0.029612707 0.21829116 -0.12916428 -0.56306523
0.30577144 0.27380294 0.16386199 -0.10971936 0.17486097 -0.0027808326 -0.543574 -0.3831138
0.33859625 0.25316045 0.41388053 0.42629486 -0.17975356 0.090591535 0.11148361 -0.14526333
-0.646469 -0.5216775 0.34511346 0.13607079 0.06659517 -0.049110573 0.38242495 0.034017615
0.36695254 0.22587875 -0.24858128 0.19896023 0.12197975 0.33994755 0.03869591 -0.05558423
0.45496148 0.048063733 0.0090137115 0.17519349 0.065630354 -0.106440164 -0.42185804 0.5890112

bias f4 [32]
00000000: 5783 5cbd f3b8 203e b853 62be 2892 19be
00000010: 5a7d f0bd cad1 95be 2a75 f4bd 8210 c3ba
00000020: 76a9 2a3e e1ed aa3e c397 0bbd 7d18 803d
00000030: 9446 32bd e9a2 94bb fac8 783e 989f 97bb
00000040: 2cba 283e 58d3 2fbd b8b6 003e 74cf 13be
00000050: 95eb d6bc 885f aa3e 6065 70bd 93b7 85bc
00000060: 0a81 14bc e80c 353e 0b49 1b3e 6400 f5bd
00000070: c12b 19bb c4c8 03bd 7970 d93e 2bc9 a0be
-0.053836193 0.15695553 -0.22102249 -0.1499716 -0.11742659 -0.2926162 -0.1193641 -0.0014882239
0.16666207 0.33384612 -0.034080278 0.06254671 -0.04352434 -0.004536022 0.24295416 -0.0046271794
0.16477269 -0.042926162 0.12569702 -0.14434606 -0.026235381 0.3327601 -0.05869043 -0.016322887
-0.009063968 0.17680705 0.15164582 -0.11962965 -0.0023372027 -0.032173887 0.42468622 -0.3140348

weight f4 [64, 32, 3, 3]
00000000: de32 31be cd1f 26be 879c 58be 912d 00be
00000010: 42e5 64bc e007 df3d 2aaf 0d3e 5444 013e
00000020: 95fb e33d 3b70 c9bd 39a5 c1bd 8c70 8dbd
00000030: c4f3 d2bd f986 14bd 9a1e 83be ef22 bc3d
00000040: e39b 333c 4012 86bc 72dd 95be 928d 43be
00000050: 1340 3bbe 585a dabd 9e63 9a3d a533 bc3d
00000060: 052c 8a3d 5ecc c03d 2365 a03d ed2c 0dbe
00000070: fcb3 42be cb66 15be 6f41 0fbe 26da 8a3c
00000080: 3a91 043e a4c6 9f3c b2eb 8a3d fdb3 a13d
00000090: 1d08 bebd 6121 0abe 7bf1 88be 09b0 94bd
000000a0: 3ffd 573d cb9a 1b3d d48f 803d 3274 913d
000000b0: 3c0a e23d b484 5d3d bb1e 143d 3f5e c13c
000000c0: 2403 b0bb ba00 033d 75ae ec3c 82a2 01bd
000000d0: 1304 32bd 3cef 4ebd 1ac2 83be 8b85 a3be
000000e0: 730d 01bf acae a8be c8c4 48be 0ab9 91be
000000f0: 59c9 293c 190d 7f3c f2e5 f7bd f374 77bd
00000100: aca9 eabd 4efc 73be 31c2 a6bd 0211 913d
00000110: a313 743e df8d 173e 0a30 0f3d 5488 013e
00000120: aa1f cbbd 7fd9 65bd 3c7f 4ebd 82be 94bd
00000130: 0bb8 bfbd b9e9 d8bc fd93 f9ba 8060 2dbc
00000140: 1635 97bd 4aa8 3c3d 51cd a43d 1151 993d
00000150: b234 b83d 3eff 46bc a34b 4f3d 8573 d33c
00000160: 6caa 98bd 26b0 34bd ecc6 0abe fa2d 35be
00000170: fb6d 90bd 4c24 03be afb4 7abc b89e 1ebc
00000180: 1e28 8d3b 48d6 f73c 5631 f13d c803 47bd
00000190: 0322 edbd 7512 06be 5c65 e9bd 02d9 7c3d
000001a0: eaff 9e3b e66e b9bc aee5 f33d 698d e63d
000001b0: 8ef9 50bd 4549 c1bc 2864 02be 0076 b4bd
000001c0: 0755 2d3d 8750 7b3d 3cad a93d 34b6 dd3d
000001d0: 006b 1d3e ca70 cebd fc06 59bd bf10 48bd
000001e0: ed8c a6bd ee27 633c d9cd 04bd 746b 11bc
000001f0: 27a7 293d 2445 5e3c 0265 9b3c 16ac 5dbc
00000200: 1c7b 74bc 44d0 80bc d0f4 813d 3aed 1f3e
00000210: 8a6f ac3d 3b55 213d a91c 81bd 7b19 bcbd
00000220: 912f 2bbe a710 29be 13fd 273e 2193 103d
00000230: 95b0 953d 6dfd 1c3e bd92 273e 8730 8fbd
00000240: 5133 9d3d 258b ed3d 5b13 703e 6c5e dfbd
00000250: 575e bfbd 9acd 43be 5323 0bbe f590 c7bc
00000260: cf02 f13d 2aac f3bd e312 5bbe d184 05be
00000270: 264d 4bbd a655 2e3d 3572 85bc 98ee eb3d
00000280: 2ea8 ee3d 9592 763d 9c7b 043d 10aa 07bd
00000290: 6f3f 1ebe db18 7439 5d79 d13c 5044 0d3b
000002a0: 5842 dd3d a834 883d 59a7 e5bb 240a 86be
000002b0: 704f 73be 2ef7 c3bd 28ad 01be 2a9e b43d
000002c0: 6580 063e 0eef 033c 5919 0a3e 73cf ea3d
000002d0: 6708 fbbd 2a6e 04be 0214 56be d90d a9bd
000002e0: fef1 24bb 7ca5 b23d b2cd 0d3e 1834 2c3e
000002f0: 75da 153e 5b9e f43d e328 04bc d4ec cf39
00000300: be55 b7bc 1beb 31bd fc7c 8abd cd29 18bd
00000310: 32a2 d9bd 2f6f b8bc fec7 52be 12a4 05be
00000320: f269 47be 5c98 aebd 95cf 823c f156 313e
00000330: a1b3 223b 759f 9b3d b0e5 9f3d 62ce 18be
00000340: 9098 ee3c d124 28be d623 2abe ad1e 98bd
00000350: 7e95 2cbd 2782 473d 8697 0b3e 57a6 473e
00000360: cafe 953c 5b1f 90bd 9ca9 03bd 8234 4abe
00000370: 3c9a 25bd 571b 98bd 64c5 1bbe be01 9fbd
00000380: 98dd ae3a 068a 983d c33f b23d cfad de3d
00000390: c831 f4bd 41e1 32bd 725e fabd fdfd 37be
000003a0: ae1b 4dbd ae96 c93d 40fc 14be 6431 02be
000003b0: c363 31be e5e8 30bd 41f4 38bd 4ca0 33bd
000003c0: 9f8b b43d 3a7c 913d f0b0 d33d 1b7e f2bd
000003d0: 635a 43be 6155 63be 1303 34be d5f5 dabd
000003e0: 7302 9bbc f0de b33d 8886 073e 2aa0 123e
000003f0: 28c2 5dbe d1c6 e0bd 5ad8 51be ed41 2bbe
-0.1730456 -0.16223069 -0.2115346 -0.12517382 -0.013970675 0.10890174 0.13836351 0.12623721
0.1113197 -0.098358594 -0.09455342 -0.06906232 -0.10300401 -0.036261532 -0.25609285 0.091863506
0.010962459 -0.016366124 -0.29270512 -0.19096974 -0.18286161 -0.10661763 0.07538532 0.09189538
0.06746677 0.0941398 0.0783179 -0.13786669 -0.19013971 -0.14589994 -0.13989805 0.016949724
0.12946025 0.019503899 0.067832366 0.07895658 -0.09278891 -0.13489296 -0.26746735 -0.072601385
0.05273175 0.03798942 0.06277433 0.071022406 0.11037108 0.054081634 0.03616212 0.02360451
-0.005371468 0.031983115 0.028891781 -0.03164912 -0.043460917 -0.05052112 -0.25734025 -0.31937823
-0.50411147 -0.32945764 -0.19606316 -0.28461486 0.010362946 0.015567088 -0.121044055 -0.060414266
-0.114581436 -0.23826715 -0.08142508 0.07083322 0.23835616 0.14800213 0.034957923 0.12649661
-0.09918149 -0.056115624 -0.05041431 -0.07262899 -0.09361275 -0.026478635 -0.0019041296 -0.010582089
-0.07383172 0.04605893 0.080469735 0.07486165 0.08994426 -0.012145815 0.050609242 0.02581192
-0.074543804 -0.0441133 -0.13552445 -0.1769332 -0.07052227 -0.12806815 -0.015301867 -0.009681396
0.004307761 0.030253544 0.11776988 -0.04858759 -0.11578753 -0.13092978 -0.11396286 0.061730392
0.0048522847 -0.022635888 0.11909042 0.112574406 -0.051019244 -0.023594508 -0.12733519 -0.08811569
0.042317417 0.061356094 0.08284995 0.10825768 0.15372849 -0.100801066 -0.052985176 -0.048844095
-0.08132348 0.0138645 -0.032422874 -0.0088757165 0.041419175 0.013566289 0.018969063 -0.013529798
-0.01492193 -0.015724309 0.063455224 0.15617839 0.08419712 0.039387923 -0.063042946 -0.091845475
-0.16717364 -0.16510259 0.16405134 0.035296563 0.07309071 0.1533105 0.1636457 -0.06991678
0.076758035 0.11598805 0.23444884 -0.109066814 -0.09344166 -0.191214 -0.13587694 -0.024361113
0.11768114 -0.11898072 -0.21393923 -0.13038947 -0.04963412 0.04256215 -0.01628981 0.115201175
0.116531715 0.060198385 0.032344446 -0.03312117 -0.15453885 0.00023278913 0.025570566 0.002155561
0.1080367 0.066506684 -0.007008475 -0.26179612 -0.23760772 -0.0956863 -0.1266371 0.0881923
0.13134916 0.008052601 0.13486232 0.11465349 -0.12257462 -0.12932649 -0.2090607 -0.08254594
-0.0025168653 0.0872297 0.13847998 0.16816747 0.14634116 0.119442664 -0.008066389 0.00039658567
-0.022379752 -0.043437105 -0.0676212 -0.03714924 -0.106266394 -0.022513954 -0.20584103 -0.13050869
-0.19474009 -0.08525154 0.015968123 0.17318322 0.0024826305 0.075987734 0.07807481 -0.14922479
0.029125482 -0.16420294 -0.16615233 -0.07427726 -0.042134754 0.048708107 0.1363202 0.19497047
0.01830997 -0.070372306 -0.032144174 -0.19746593 -0.040430292 -0.0742709 -0.15212017 -0.07764004
0.0013341187 0.07448201 0.08703568 0.10872995 -0.119235575 -0.04367185 -0.12225045 -0.17967983
-0.050075226 0.09843193 -0.1454935 -0.12714154 -0.17323212 -0.043190856 -0.045154814 -0.043854043
0.08815693 0.071037725 0.103364825 -0.11840459 -0.19077449 -0.22200538 -0.17579298 -0.1069142
-0.018922066 0.08782756 0.13234913 0.1431891 -0.21656096 -0.10975421 -0.20492688 -0.16724367

bias f4 [64]
00000000: f2f2 63bd 1db9 1b3d b350 8dbd dde2 54bd
00000010: 548c d13a c614 6abd 9378 1b3d 6fcd 28bd
00000020: 7656 ed3c a550 27bd 7905 a1bc 4426 b4bc
00000030: ca44 e73c bcff edbc 8973 203c 7d02 21bd
00000040: 2486 2abd f327 e23c edfa ddbc edb9 b3bd
00000050: f693 df3c 7584 b0bd b40c dbbd 9c33 b5bb
00000060: b159 44bd eb20 5b3d c3ad d9bd 9f65 c0bc
00000070: fe86 4cbc b75d 09bb f502 b7ba 7297 8abd
00000080: cdbe 09bd e300 bcbd 3a54 423d 554a dbbd
00000090: 6150 8c3c 6d35 45bd c2b5 21bb 51f1 90bd
000000a0: 8a26 26bd 8392 04bd 26a1 853c 76dd 95bc
000000b0: e687 f238 2174 1dbd 484d fa3c dfc6 1cbd
000000c0: 6d4b a9bd 454e 8bbc a0e2 f4bc 235b 83bd
000000d0: c907 94bc 3e02 42bd 5954 c5bd 540c 98bd
000000e0: 30af 253d 5e71 bebc 0e24 463c 61d1 493d
000000f0: 03d9 c83a 3d80 0ebd 465e 0f3c 4134 3a3c
-0.055651613 0.038018335 -0.06900158 -0.051974166 0.0015987256 -0.057148717 0.037956785 -0.04121154
0.028971892 -0.040848393 -0.01965593 -0.021990903 0.028231043 -0.029052608 0.009793171 -0.039309014
-0.041631833 0.02760694 -0.02709719 -0.08775697 0.027292233 -0.08619014 -0.10695782 -0.005529834
-0.0479371 0.05349819 -0.106288455 -0.023485957 -0.0124833565 -0.00209604 -0.0013962673 -0.06767167
-0.033629227 -0.09179857 0.047443606 -0.10707537 0.017128171 -0.048146654 -0.0024674986 -0.070772775
-0.040564097 -0.032366287 0.016312193 -0.018294077 0.00011564772 -0.038440827 0.030554429 -0.038275596
-0.082663395 -0.017005095 -0.02989322 -0.06413867 -0.018070119 -0.04736542 -0.09635229 -0.074242264
0.040450275 -0.023247417 0.012093557 0.049271945 0.0015323464 -0.034790266 0.008750504 0.011364997

weight f4 [64, 3136]
00000000: 4807 46bd abc5 dfbc 259a 88bc ada4 1abb
00000010: 2303 6fbb 7545 8b3d 78b9 ab3c de75 5b3d
00000020: e0ef 833b 8c63 0f3d 9d75 f039 2208 3939
00000030: 72b2 4a3c 002a c5bc 13a7 743d f35d 5f3d
00000040: 969b 45bc fb2d 6bbe d86f 03be 7c77 edbd
00000050: ca3c 9dbc d8bb 903b 02ba 643c 83d5 b8bb
00000060: fd70 49bc c748 00bd f309 76bd 5f21 c93c
00000070: 6f7f 913c 2f38 133e 2f76 2b3d 60a9 4e3c
00000080: 58f3 0dbd c256 653c 2894 e6bc 876a 963d
00000090: 17dc 773d 8478 68bd b54e c8bd 7d8c bebd
000000a0: ae33 5c3d 2f6e 743c 5e0d e03d a48a a6bb
000000b0: a20c 5cbd 95c9 92be 1b3c cabd f4c8 8b3c
000000c0: c2a4 333c f85a 05bc acd5 7bbd 49b3 debd
000000d0: dd38 0ebd dcdf a9bd cbfb f2bc a984 503c
000000e0: d224 0cbd 1e31 04bd 087c 67bd 45c6 8ebc
000000f0: af27 50bd 4643 82bd 681b ccbc 1a0d d63c
00000100: 55b7 3a3d b260 80bc c52f 31bc 0644 87bc
00000110: b469 ae3c 031b 0f3c ff18 ba3d 5d6f 393b
00000120: 8daf 04bd 29ea 32bd 0997 2e3d 8b83 dfbb
00000130: 2489 79bc 4f04 8bb9 3044 4e3d 5326 4d3d
00000140: d4a5 7d3b ac40 6e3c 5215 9e3c 8f30 8d3c
00000150: 225f 17bd 0d62 8d3c 8f47 a6bc 1b7f 9c3c
00000160: 205f 78bd 6653 4bbd 2da6 46bc fe5e 063d
00000170: cfb3 e9bc 8fcc 403d 148b f13b d82a 313c
00000180: d2e6 bebb f3c2 753c c265 63bd 26aa b2bc
00000190: a53d 073c c530 423d 9054 2bbd 75ec 16bd
000001a0: ce8f 6c3c 45c4 5a3d 1dc0 bbba 4e4c c13c
000001b0: 7056 563d 22db eb3c 7367 043e 2fc0 6e3d
000001c0: e27f 2d3d 8ae1 2a3c a734 043d 23c4 8e3b
000001d0: eba4 ca3c f423 e6ba 510a 83bd 7035 593d
000001e0: b783 e9bb bb7b 3d3d adc3 1d3c f7ea 0bbd
000001f0: f65a 5ebd e399 18bc 595d 803b 908c cb3b
00000200: fcb9 5cbc 9c29 693d 563e 6bbc de99 333d
00000210: 2724 b0bd 4f00 fcbc 1867 803c 16eb b2bd
00000220: 8bf8 5ebb bcd6 8a3d 76cb b03d 9882 80bc
00000230: 41e4 803d 952d 093d 9445 cabc 831b 45bc
00000240: 656f eebb 4c98 033c 9bed 0c3d 4767 97bc
00000250: ea8e d03c c36e 1abd 0deb 383c 3ea7 3abc
00000260: 4b63 223d 9af4 91bb ce93 483d c85c 1ebc
00000270: 61c5 0abd ee2f a0bc 0618 383d 9db7 753d
00000280: c76b 393d ae4f 463c c8b0 61bb e308 dc3b
00000290: 0e66 863c 2694 ed3c 2165 6f3d be8a 1cbd
000002a0: 4594 5cbb 60e2 d13c 063b 953d 15b6 863d
000002b0: e1cd bf3c f01f 2abd 3943 c43b ba3d 07bc
000002c0: 67c3 e53c 7e2c 6abd aa66 2cbb af32 09bc
000002d0: 2935 5e3c 2056 58bd 912a c2b9 8143 81bc
000002e0: 37aa a2bd bb05 1abd 003a 173c 5f72 883d
000002f0: 8b91 dcb7 f2a2 8abc 6de7 a23c 0bd6 92bc
00000300: 558f 8bbc 6432 523d b7a9 33bd a211 8cbc
00000310: ecd4 093b 12d6 c53c fc4f 0d3d 104f 073d
00000320: 4419 17bc 8686 d73b 98e5 193c 0144 993d
00000330: 899e cabc dcc5 2f3b f261 6d3a 6296 12bb
00000340: f25b 233b 7b8a f2ba 35a5 e2b9 86c6 66bc
00000350: 8236 1ebc 4fe6 d3bc 0b68 c2bc 4036 223c
00000360: 26a5 b3bc 94af c23d 2b0b 803c 70f5 df3c
00000370: 2597 793d 2300 023d 839f ab3b 6dea cabc
00000380: c93c dabb 1126 0dbd c14b ce3c 21f8 b63c
00000390: a06d a037 9bf4 ad3c 9c1a 84bd ce23 9dbb
000003a0: 61c5 a1bb 8393 cbbc 11a1 4ebd e1cc 9bbc
000003b0: 8b8b 20bd 9102 14bd f262 da3d 2593 a23d
000003c0: 8b2e 9e3c efa3 793b 8bfd 6b3d 2867 52bd
000003d0: 975d 9dba 046a 74bc f71b 98bb c121 d73b
000003e0: 5f5e 203d c5ec e2bc a97f 203c 3de1 673b
000003f0: 311e 173d 4d2d fcbb 05b3 8cbc d1c6 a3bc
-0.048346788 -0.027315935 -0.016675064 -0.002359669 -0.0036470375 0.06800357 0.020962462 0.053579204
0.004026398 0.035007045 0.00045863996 0.00017646005 0.012371646 -0.024067879 0.059729647 0.054532956
-0.01206102 -0.22966759 -0.12835634 -0.115950555 -0.019194026 0.004416924 0.013960363 -0.005640687
-0.012295005 -0.031319406 -0.060068082 0.024552045 0.01776096 0.14376901 0.041860756 0.012613624
-0.0346559 0.013997735 -0.028146818 0.07344537 0.06051263 -0.056755558 -0.09780637 -0.0930414
0.053760223 0.014918848 0.109400496 -0.005082445 -0.053722985 -0.2866942 -0.098747455 0.017063595
0.010964574 -0.008139364 -0.06148307 -0.1087404 -0.034722198 -0.08294651 -0.02966108 0.012726941
-0.034214802 -0.032273404 -0.05651477 -0.017428527 -0.050819095 -0.06360488 -0.024915412 0.026129294
0.045584995 -0.015671108 -0.010814612 -0.016511928 0.021290638 0.008734467 0.09086799 0.0028295137
-0.03239398 -0.043680344 0.042624507 -0.006821101 -0.015230451 -0.00026515356 0.050357997 0.050085377
0.0038703578 0.014541786 0.019297276 0.017235069 -0.03695596 0.017258668 -0.020297794 0.019103577
-0.060637593 -0.04964008 -0.01212458 0.032805435 -0.028528122 0.047070082 0.0073713157 0.010813437
-0.005825856 0.015000093 -0.055516966 -0.021809649 0.008254443 0.04740979 -0.041828692 -0.036846597
0.014438583 0.053409833 -0.0014324222 0.023595955 0.052328527 0.028791014 0.12930088 0.05828875
0.042358287 0.010429749 0.032276776 0.0043568774 0.024736842 -0.0017558322 -0.06398452 0.053029478
-0.0071262973 0.046260577 0.009629172 -0.034159627 -0.054285966 -0.009314033 0.003917378 0.0062118247
-0.0134720765 0.056924447 -0.014358124 0.04384791 -0.086006455 -0.030761866 0.015674159 -0.08736245
-0.0034022655 0.067792386 0.08632557 -0.015687272 0.06293536 0.033490736 -0.02469138 -0.012030485
-0.007276463 0.008031916 0.034406286 -0.018481864 0.025458772 -0.037703287 0.011286509 -0.011392413
0.039645474 -0.0044542076 0.048969083 -0.009665675 -0.03387964 -0.019554105 0.044944786 0.05998956
0.0452688 0.012103958 -0.0034437645 0.0067149266 0.016406085 0.029001307 0.058446053 -0.038218252
-0.0033657711 0.02562064 0.072866485 0.06577698 0.0234136 -0.041534364 0.005989459 -0.008254463
0.028047277 -0.057171337 -0.002630631 -0.0083739 0.013562479 -0.05281651 -0.00037034278 -0.015779259
-0.07942622 -0.03760312 0.009230137 0.066624396 -2.6293817e-05 -0.016923402 0.019885743 -0.01792433
-0.01703612 0.051317587 -0.043863025 -0.017098252 0.0021031452 0.024149928 0.034500107 0.033034384
-0.009222332 0.0065773157 0.009393118 0.07483674 -0.024733799 0.0026820814 0.00090554275 -0.0022367467
0.002492663 -0.0018504405 -0.00043229168 -0.014085418 -0.00965655 -0.025866656 -0.023731252 0.0099006295
-0.021929335 0.09506145 0.015630325 0.027338713 0.06093516 0.03173841 0.005237521 -0.024769986
-0.006660078 -0.03446013 0.025182607 0.022335114 1.9124534e-05 0.021234801 -0.06450388 -0.004795528
-0.0049368595 -0.024850613 -0.050446574 -0.019018592 -0.03919558 -0.03613526 0.106634036 0.07938222
0.019309303 0.0038092097 0.057614844 -0.05136791 -0.0012006041 -0.014917854 -0.0046420055 0.006565303
0.0391525 -0.027700791 0.009796062 0.0035382055 0.036894027 -0.00769583 -0.017175207 -0.019992264

bias f4 [64]
00000000: 6e27 fdbc d4f1 813b b1e0 c73b 328a a0ba
00000010: c221 ac3c 31dc 4cbc 9825 9fbc b4bf a7bb
00000020: 6697 143d a14c 00bd d31b 513c db8c d73c
00000030: e9c3 80bc d0c4 27bd 2887 b737 2d52 ec39
00000040: cc74 4fbc e617 dd3c 0139 c93c 4399 8d3c
00000050: dc1d c3b8 6c7d 2d3c 58ba 84ba a59c d7ba
00000060: 838b 023d 0e5a f1bc 62ba 9cbb e27b 483c
00000070: 1ae7 c93c 96a5 89ba 6e86 7ebb 9d4a 473b
00000080: 7a11 3cbb 12cb a5bc 62f0 97bc 75d3 073d
00000090: 86b0 42bb 57ab c13c e775 21bc 5a25 8739
000000a0: e444 313d dcfe 303c ae06 d83b bbbd bbbc
000000b0: 9dcc 0cbc 6971 9fbc c237 e1bc 5461 c83b
000000c0: 9a0c 66bc 0aa7 73bc 9ebb b1bb bb26 6f3b
000000d0: 7e4f aabc 9a79 09bb bbb4 ebbc fa65 183c
000000e0: 228c 95bc 91af fdbc 24ed 47bc aefe 243c
000000f0: fb45 adbb 02d4 fa3c a756 713c 2760 e83c
-0.03090259 0.0039655957 0.0060997833 -0.0012248217 0.02101219 -0.01250367 -0.019427106 -0.0051192883
0.036277197 -0.03132308 0.0127629815 0.026312282 -0.015718417 -0.04095918 2.1878237e-05 0.00045074653
-0.012662124 0.026988935 0.024563314 0.017284995 -9.303886e-05 0.010588985 -0.0010126336 -0.0016449882
0.03187133 -0.029461887 -0.0047829608 0.012236567 0.02464633 -0.0010501619 -0.003883745 0.0030409463
-0.002869694 -0.020238433 -0.01854724 0.033160646 -0.0029707267 0.023641272 -0.00985477 0.00025777036
0.04327859 0.010802951 0.006592593 -0.022917619 -0.0085937055 -0.019463258 -0.027492408 0.006115118
-0.01404109 -0.014871368 -0.005423977 0.003649159 -0.020789858 -0.0020977021 -0.028772702 0.009301657
-0.018255297 -0.030967506 -0.012202535 0.010070486 -0.0052878833 0.030618671 0.014730132 0.028366162

weight f4 [10, 64]
00000000: 081b 37be 344b 9a3d afeb ecbd e2de 9bbe
00000010: 5ae5 0b3e c910 08bd 05dc 80bd 5012 efbd
00000020: df65 493d de6d 223d 92b8 9dbe 836b 143e
00000030: 3f82 debd d01c 2ebd cd70 17be aab2 843d
00000040: 6db2 5bbe df0a cb3d c3f7 793d d469 cabc
00000050: 8722 353c cefd ecbd 45ac 703d 6af2 b9bd
00000060: 4b40 2e3c 5a8d 463d 45b6 be3d 2302 61bd
00000070: c7cb 1f3d 5689 863c 6e42 d23d c9f0 2dbe
00000080: 1b75 4fbd 3b8f 1d3d 02f6 9bbd 047b 16be
00000090: 8957 9c3c 092b 4bbd c281 63bd c0ff 1d3d
000000a0: 347e 55be d1e6 20bd b02e 4a3d 14f0 10bd
000000b0: 25aa 003d 62ba 413d b869 073d 4af4 ecbc
000000c0: efa8 1cbd 6706 013d c88e c33d 50a0 a93d
000000d0: bbdf 6abd 7d55 703d cb2f e53d 4cf4 c03d
000000e0: e012 4e3c cae6 023e ca87 61bd 57fa a1bc
000000f0: bfb3 e4bd 88aa c83c 60eb 3e3e 1f9a 993d
00000100: ba95 10be 2abe 893c fa8c 6ebc d9a7 adbd
00000110: 2b18 79bd 2c40 febd 87ef ee3d 0c4a ecbc
00000120: 6c47 913d 2082 c8bc 7c47 033d 7aa9 45be
00000130: 92cf 08bd 3cf9 3abe 56d8 993d 8811 31be
00000140: c7c4 013e d3fc 64bd 90b6 bf3d 5742 09be
00000150: b11b ecbd 54f3 c53b 0892 043e 936e d33d
00000160: c2a4 2abe 86fa 9dbd 3a88 5bbe 061c cabd
00000170: 056e 4d3e 77df 1bbc 6cf3 e53c 845f cd3d
00000180: 2f67 a53d 83fb 353d c73b e53d 5ffa ae3d
00000190: ec85 413d e371 f53d 7c4a d0bd d2dc 12be
000001a0: 9bc9 243e 050c d8bc 3df4 d9bd 97ef aabd
000001b0: 6daa 92bb 41b6 8bbd ccd7 4a3d 2bd4 b0bd
000001c0: 89a5 6dbd 9746 da3d 4432 d83c 28ae f5bd
000001d0: 88d7 0ebd 6f81 b7bd df8e ba3d 7780 ba3d
000001e0: 7216 d83d 91f5 213d 606d 4b3d 9bea 873d
000001f0: 9796 38be b0ca 073e c6ad 023e 7f6f c5bb
00000200: 055f f53c 3cbe b2bd 24df 31be 91a8 92be
00000210: e593 98bd b9ec adbd 6e34 c33d 1dd1 47bd
00000220: b4ef 2e3d ef5e d2bd 5928 243c d7c4 7a3c
00000230: 2a7d 29bd 53d2 99bd 6ef0 673c b869 20bd
00000240: b762 14bc 3ac8 c0bd 09fa 723d fefe b23d
00000250: 2990 963c c11f 623e 794f 2c3e 0979 95bc
00000260: aa5a 173e 1c47 243d 6b7a 053d 2b0d a2bd
00000270: 3568 4bbe 8fc5 f83c 99ad 613b 6f7e 40be
00000280: 6d8e e73c b311 133e 7b54 ffbd 7c86 24be
00000290: 1d2c 44bc cc56 3c3d 9c54 193d 9da0 183e
000002a0: ae6a 293d ef1c d0bd 818e c7bd 2302 433d
000002b0: 1390 f33d ef2a 6fbd 1246 a9bd 85dd d6bc
000002c0: 7cf4 2ebd 8f7b cd3d f4b8 3abd 9eb3 86bc
000002d0: 9afa b13d 4e14 873d 4e7e 3bbd 7bc6 80bc
000002e0: 7fb9 c4bd 1a2f 21bc 2f72 d23d 7f79 863d
000002f0: 645b 3bbe efe2 5f3d c851 4ebd 938d a9bd
00000300: 0a00 063d bc2a dbbd c89a 6a3d 6e0d 8e3d
00000310: 5520 943d 5b13 2dbd 6baa bdbd 9812 adbd
00000320: 1fa0 86be bf96 243d 67d2 c93d bd54 b83c
00000330: e065 ea3d 6b3d 013e 7d82 dc3d ad9c 37be
00000340: 5336 fb3c 6230 333d 3506 013e dd19 d8bd
00000350: 126d b2bd 3102 3cbe 0706 54be 9ead b8bd
00000360: d980 2dbd 0c04 53bd dc03 0c3e 1ca8 933d
00000370: ec46 2cbe 6bc4 e7bd 27f2 81be 88a1 a8bd
00000380: 8a25 393e c219 163e 5643 2c3d f92b 623d
00000390: be52 2ebd 40b0 023e a7a0 96bd 6c17 603d
000003a0: f523 61bc 563f cabc 74e4 1bbd a090 403d
000003b0: cd35 1ebd a907 0cbd da4e 9b3d 54f6 d83d
000003c0: 3bec 743d ab41 693d aea5 ca3d ea03 fc3d
000003d0: 2db4 6fbd 9a7c 713d 6089 3b3b fc0f 0cbe
000003e0: c262 dc3d 4a7d 703d 0898 21be a62e d93d
000003f0: ff17 c8bd 7f1b 42bb 6675 41bd cc3f ecbd
-0.17881405 0.07533875 -0.115683906 -0.30443484 0.1366171 -0.033219133 -0.062919654 -0.11673415
0.049169417 0.03965556 -0.30804878 0.14494137 -0.10864686 -0.042507946 -0.14789124 0.0647939
-0.21454783 0.09914183 0.0610273 -0.024708666 0.011055595 -0.11571847 0.05875804 -0.0907944
0.010635446 0.048474647 0.09312109 -0.05493368 0.039012697 0.016422909 0.10266577 -0.16986383
-0.05064879 0.038466673 -0.07615282 -0.14695364 0.019084709 -0.04960159 -0.05554367 0.03857398
-0.20848924 -0.039282624 0.04936093 -0.035385206 0.031412262 0.04729689 0.033059806 -0.02892508
-0.038247045 0.031500246 0.09548718 0.0828253 -0.057342272 0.058675278 0.111907564 0.09421596
0.012577742 0.12783352 -0.05506114 -0.019772692 -0.11167096 0.024495378 0.18644476 0.075000994
-0.14119616 0.01681431 -0.014559979 -0.0847928 -0.060814064 -0.124145836 0.1166678 -0.028843902
0.07093701 -0.024476111 0.032050595 -0.19302931 -0.03340108 -0.18259138 0.07511966 -0.17291844
0.12672721 -0.055905174 0.09360993 -0.13404213 -0.11528719 0.00604097 0.12946332 0.10323825
-0.16664413 -0.07713799 -0.21438685 -0.09868626 0.200615 -0.009513727 0.028070174 0.10027984
0.08076321 0.044429313 0.11193042 0.08543848 0.04724686 0.11984613 -0.10170457 -0.14342049
0.16092531 -0.026372919 -0.10642288 -0.083464794 -0.0044758827 -0.068218715 0.049522206 -0.08634218
-0.058019195 0.10657995 0.026391156 -0.11996108 -0.034873515 -0.089602344 0.09109282 0.09106534
0.10551156 0.03954083 0.049664855 0.06636544 -0.18026195 0.13260913 0.12761602 -0.0060252543
0.029952535 -0.087276906 -0.17370278 -0.2864423 -0.07450084 -0.08492417 0.095314845 -0.04878341
0.042709067 -0.102720134 0.010019385 0.015305719 -0.04137913 -0.07510819 0.014156444 -0.03916332
-0.009056739 -0.0941319 0.059320483 0.08740042 0.018379288 0.22082426 0.16827191 -0.01824619
0.1478068 0.040106878 0.03258745 -0.07912668 -0.1986397 0.03036764 0.0034435748 -0.1879823
0.028266156 0.1436222 -0.12467285 -0.16066927 -0.011973408 0.045981213 0.037434205 0.14905019
0.041361503 -0.10161769 -0.09743977 0.04760946 0.11892714 -0.058390554 -0.08265318 -0.026228676
-0.042713627 0.100333326 -0.04558654 -0.01644307 0.086903766 0.0659567 -0.04577475 -0.015719643
-0.09605693 -0.00983789 0.10275685 0.06566142 -0.18296582 0.05465978 -0.05037096 -0.08278956
0.03271488 -0.1070151 0.057276517 0.06936155 0.07232729 -0.042254787 -0.0926102 -0.08450812
-0.26294038 0.040182825 0.09854584 0.022501344 0.11445212 0.12621085 0.10767076 -0.17930861
0.030665552 0.043747313 0.12600024 -0.10551808 -0.0871221 -0.18360211 -0.20705424 -0.0901749
-0.042359207 -0.05151753 0.13673347 0.07209799 -0.1682393 -0.11316761 -0.2538006 -0.08233935
0.18080726 0.14658263 0.042056404 0.055217717 -0.042559378 0.12762547 -0.07354861 0.054709837
-0.013741483 -0.024688404 -0.038059667 0.047012925 -0.038625527 -0.034186993 0.07583399 0.10593858
0.0597956 0.05694739 0.09894882 0.12305434 -0.05852144 0.05895672 0.0028615817 -0.13677973
0.10761024 0.058713235 -0.15780652 0.106046006 -0.09770202 -0.002961844 -0.0472311 -0.11535606

bias f4 [10]
00000000: bcab c53d cebb 9a3d 6445 a8bd 7e7f e33c
00000010: f8a4 00be 3d89 223e 8ef0 ed3c d8d3 01be
00000020: da0d b9bd 953d 293d
0.09651896 0.07555352 -0.0821636 0.027770754 -0.1256293 0.15872665 0.02904537 -0.12678468
-0.09035845 0.041318495
