mlflow/mlartifacts/917714700599549108/4faf36d8ab8a48d1967075966a7bb631/artifacts/model/data/model.pth (torch, 887400 bytes, 8 tensors)

weight f4 [32, 1, 3, 3]
000000 32 b8 c4 be 33 b1 08 3e c1 56 ce ba 68 a9 04 bf
       -0.3842178 0.13348846 -0.0015742407 -0.51820993
000010 af fc 1d bf 05 13 cb be 12 f5 d2 3d ec 84 a1 bd
       -0.6171369 -0.39662948 0.1030065 -0.07886681
000020 a8 75 b6 be 6d 10 48 3e 6d 55 c4 3d b4 7a 00 be
       -0.3563664 0.19537516 0.09586606 -0.12546808
000030 03 54 80 3e 2e f9 76 bd 7d fc 98 be 62 a9 43 bd
       0.25064096 -0.06029623 -0.29880133 -0.047768958
000040 bf 3a 33 3d 0e c3 b2 3d 19 46 b8 3d 1e dc 87 be
       0.043757197 0.0872861 0.08997745 -0.26535124
000050 93 98 97 3d 23 9d 93 3d 7a 12 9c 3e b0 3b a4 bd
       0.07402148 0.07207706 0.30482846 -0.08019197
000060 c1 41 4a 3e d9 98 9d be b2 1e dd 3d d2 f3 aa 3e
       0.19751646 -0.30780676 0.1079687 0.33389145
000070 2f 65 e9 bd af 2e b8 be 7d 13 12 3d f0 51 43 bf
       -0.11396252 -0.35973117 0.035663117 -0.762969
000080 c1 ac 92 bd 08 07 2e bf d4 c4 16 be 56 3d 04 3f
       -0.071618564 -0.6797948 -0.14723521 0.5165609
000090 ca 6d 76 3d bf 20 e5 3d 12 9e 12 3d 3e 8b 86 3c
       0.060163297 0.111878864 0.03579528 0.016423818
0000a0 91 ec 78 3e fb e5 40 bd a0 33 b0 bd d0 0a b6 3e
       0.24308993 -0.047094326 -0.08603597 0.35555124
0000b0 78 1c 60 3e 3d 01 89 bd ca eb 26 3e a9 2d 80 3e
       0.2188586 -0.06689689 0.16300884 0.25034836
0000c0 e9 cc b1 bd 4f 7b 7a be c9 f8 cf be cd 32 e8 3d
       -0.08681662 -0.24461101 -0.40619496 0.113378145
0000d0 1b 45 2b 3d d2 db 8a 3d b2 c2 f6 3e be c6 c0 3e
       0.04181395 0.06780209 0.48195416 0.37651628
0000e0 a8 14 cc 3d 85 9e 9a be 18 55 aa 3e a2 e4 91 3e
       0.09964877 -0.30199066 0.33268046 0.28494745
0000f0 ae 61 df be a7 33 07 bf e6 38 bc be ea 0b 38 3c
       -0.4362921 -0.5281319 -0.3676216 0.011233309
000100 a5 ea d2 3e 81 84 9f 3e c0 96 fe bd 33 07 5d bd
       0.41194645 0.3115578 -0.12431097 -0.053961944
000110 fc 38 82 3e 2a 83 3e be 42 ec 17 bf f6 5b 91 be
       0.254341 -0.18604723 -0.59344876 -0.28390473
000120 05 72 7c 3e 8b e7 d4 3d 79 2c 5d 3e 16 8f d2 bd
       0.2465287 0.10395726 0.21598996 -0.10281198
000130 7e a5 fb 3d 35 16 65 3e aa 80 55 3d 9f a2 c5 3e
       0.122874245 0.22371753 0.052124657 0.38600633
000140 94 2b 39 3e c9 63 6b be 28 70 d0 be 44 dc c3 be
       0.1808303 -0.22987284 -0.40710568 -0.38253987
000150 f1 ac dc bd b5 5c 1e 3d ed 20 ac bd 57 69 19 3f
       -0.107751735 0.03866263 -0.084047176 0.5992636
000160 90 8f 51 3d 3f 88 02 3f 88 3d 35 3e 40 c1 c0 3e
       0.051162302 0.50989145 0.17699254 0.37647438
000170 da ce 8a 3d b5 a8 3a 3e be a1 1b 3e 75 48 e6 3e
       0.06777735 0.18228419 0.15198418 0.44977155
000180 43 62 0c bf 0c 60 86 be ca 09 32 3e 61 6f 92 bd
       -0.54837435 -0.26245153 0.17386547 -0.0715015
000190 8c 65 22 bf ee db a5 be 20 21 ea 3e 08 21 45 be
       -0.634362 -0.32394356 0.45728397 -0.19250882
0001a0 1c a4 5b bd 98 a5 e6 3d a7 98 aa 3e 04 04 35 3e
       -0.053623304 0.11262053 0.3331959 0.17677313
0001b0 cc 3b 95 3e 08 47 d2 3e 56 d5 62 3e 03 a7 a4 be
       0.29147184 0.41069818 0.22151694 -0.3215867
0001c0 b9 ba 52 bd 1b f7 a6 be 7b ba 36 3e 1c 4b f9 be
       -0.051447604 -0.32610402 0.17844574 -0.48690116
0001d0 68 63 2a bc 4c ba b0 bd 81 b8 9e 3e 9f 36 58 3d
       -0.010399677 -0.08629283 0.3100014 0.052786466
0001e0 bc 57 89 be 8e 35 b0 3e 47 6a 8a 3d a5 56 6a be
       -0.2682475 0.3441586 0.06758552 -0.22884615
0001f0 e7 59 a2 3e ad fd 68 3e f6 80 b5 be 03 be 31 3e
       0.31709215 0.2275302 -0.35449952 0.1735764
000200 d1 4c 95 3e 19 52 9d be 78 e6 df 3e bd 2e 59 3e
       0.2916017 -0.30726698 0.4373052 0.21209235
000210 51 29 eb 3d 1b 11 fc 3e 87 8d f2 bc c6 db 7f 3e
       0.1148249 0.492318 -0.029608501 0.2498618
000220 66 c8 ce be 85 f4 f1 be 42 66 0f 3e e0 ec bb 3e
       -0.40387267 -0.47256866 0.14003852 0.3670416
000230 00 3b 38 3e 1a bd 80 3d 83 bc eb 3d 88 71 95 3e
       0.17991257 0.06286068 0.11510565 0.2918818
000240 65 2b ff 3c d8 94 6f 3e 2f 7f c2 be 14 49 32 be
       0.031148622 0.23396623 -0.37987658 -0.1741069
000250 b3 71 72 3e 6e cf 62 3e 20 58 74 be 23 b7 cd 3d
       0.23676185 0.2214944 -0.23861742 0.10044696
000260 6b 15 0a be 9e f4 7d 3e f9 aa 5f be 89 1a 26 bf
       -0.13484733 0.24800345 -0.21842565 -0.6488424
000270 71 3e a7 3e 92 6d bb 3d 11 ef f3 be 1a 12 66 3e
       0.32664827 0.09151758 -0.4764333 0.22467843
000280 8b 22 25 3e fb 12 41 3d 42 28 b4 3c c5 40 af 3e
       0.16126458 0.04713724 0.021991853 0.34229103
000290 54 9d be bd 44 be d3 be 8c 2e 36 3d f8 b5 bf 3e
       -0.09307352 -0.413561 0.044477984 0.3744352
0002a0 82 bf 73 be 4c 2f 94 3e dd 34 e3 bd 35 35 1f 3f
       -0.23803523 0.28942335 -0.11094067 0.6219056
0002b0 00 ee e9 3e 1d 0c 73 3d 28 f1 32 3e 97 06 5e be
       0.45689392 0.059337724 0.17474806 -0.21682201
0002c0 59 71 78 be c0 cf f6 be 91 fb b3 bd 11 36 09 bf
       -0.24261989 -0.48205376 -0.08788217 -0.53598124
0002d0 cc 3b a3 3e b1 a9 6d 3e 38 03 77 3d 96 dd cd 3e
       0.3188156 0.23209263 0.060305804 0.4020812
0002e0 f2 e9 dd 3d 84 70 a3 be 64 05 34 3e 30 8a d6 be
       0.10835637 -0.3192178 0.17580181 -0.41902304
0002f0 2c 33 68 be 74 f7 01 3f 13 a4 01 bd 0d 95 e6 be
       -0.2267577 0.5076821 -0.031650614 -0.45035592
000300 d1 29 96 3e c7 56 2a be 08 4b e0 be 4d ac 8b be
       0.29328778 -0.16634665 -0.43807244 -0.27279893
000310 2f 69 d0 bd 38 ff 88 be 73 2f 6d 3e 51 33 8d 3d
       -0.10176312 -0.26757216 0.23162632 0.068945535
000320 0a 5c ec be aa b2 24 3e cd b0 f3 bd a1 ba ca be
       -0.4616397 0.1608378 -0.118989564 -0.39595512
000330 90 47 d8 3e c7 0f db 3e d7 07 05 be 3e 00 bf 3e
       0.42242098 0.42785475 -0.12991272 0.37304872
000340 43 a9 82 3e 69 e0 f3 3e bf 4a 7a 3e e6 f1 e5 3e
       0.2551976 0.4763215 0.24442576 0.44911116
000350 be a4 86 be 77 f7 bb bd d5 62 2d be bf a4 e8 be
       -0.26297563 -0.091780595 -0.16932233 -0.4543819
000360 bd ff 96 3d cc 75 02 bf ae e3 13 be 4d ec aa be
       0.07372997 -0.50960994 -0.14442322 -0.33383408
000370 b4 eb 0c be 0d 75 81 bd 00 3b 03 3f 38 0e b5 3e
       -0.13761789 -0.06321154 0.512619 0.3536241
000380 2e 80 8b 3e dd a2 61 3e 99 95 b3 be 38 56 ff be
       0.2724623 0.22034784 -0.3507507 -0.49870467
000390 1f 47 c3 bb a7 7c e8 3d 14 a9 54 be 8f db ef 3d
       -0.005959406 0.113519005 -0.20767623 0.11711799
0003a0 1a 9e 0f 3f e7 d1 21 bc e5 ca aa 3e e1 ad de 3e
       0.5610062 -0.009876705 0.3335792 0.43492034
0003b0 38 15 c5 3e d1 28 82 bd fc 77 c8 be 20 c1 2e be
       0.3849275 -0.06355441 -0.3915404 -0.17065859
0003c0 2f 23 e1 3d 82 8a e6 be 8b 74 9c be ff c0 d4 be
       0.10993039 -0.45027548 -0.30557665 -0.41553494
0003d0 f4 53 6a be 80 3e 0b bd 6e ba 38 bd 98 fb ae 3e
       -0.22883588 -0.03399515 -0.04509967 0.34176326
0003e0 80 1f d9 3e 4d 34 c8 3e 90 49 4c be 0d 56 71 bb
       0.42406845 0.39102402 -0.19949937 -0.0036824972
0003f0 63 84 34 be 5b 8d 17 be 2a 9b a7 be 23 c6 26 be
       -0.17628627 -0.14800017 -0.32735568 -0.1628652

bias f4 [32]
000000 20 36 f1 3e cf 07 37 bd 6a 6f e6 bd 51 18 55 3e
       0.47111607 -0.04468518 -0.11251719 0.20810057
000010 79 50 2f bd e2 68 10 3d 4d 11 b7 3b a2 56 36 3d
       -0.042801354 0.035256274 0.005586779 0.044516213
000020 30 d5 39 be 46 d5 e8 bb 13 4d 37 be bb fc 20 3e
       -0.18147731 -0.0071055023 -0.17900495 0.15721409
000030 93 ec 2d 3b 10 f4 39 be b2 43 25 be 5a fa 82 be
       0.0026538714 -0.18159509 -0.16139105 -0.25581628
000040 8f 0c ac bb e9 67 15 3e 16 13 56 bd 5a e1 5d 3d
       -0.0052505205 0.1459042 -0.052264296 0.05416999
000050 d9 5e 60 bc 9c c5 32 bb b1 71 18 bc a7 b9 c0 bd
       -0.013694488 -0.002727843 -0.00930445 -0.094104104
000060 2c 41 0e 3d 54 2e 41 bc f6 16 fa 3c 91 20 c9 bd
       0.03473012 -0.011790831 0.030528527 -0.09820665
000070 f3 bd 81 be 5e 28 01 3c 76 2c 60 bd a0 2f 37 be
       -0.25340232 0.007883159 -0.0547299 -0.17889261

weight f4 [64, 32, 3, 3]
000000 4c a9 da bb ec 5e 88 3c f8 43 8d 3c e4 13 de 3b
       -0.006673014 0.016646825 0.017244324 0.0067772735
000010 c6 a2 7e 39 d8 19 dc bc 0a cf 43 3d 5c bb 5c bc
       0.00024283965 -0.026867792 0.04780487 -0.013472404
000020 22 37 b6 3c eb 88 77 bb 89 b4 d4 3c 56 06 85 3c
       0.022243086 -0.0037770818 0.025964992 0.016238373
000030 ba d8 3c bd 2e 6d 26 bd a6 d4 e3 bb 86 ea 71 bd
       -0.046105124 -0.040631466 -0.00695284 -0.05906155
000040 69 9d 75 bd 8c 4f 15 bd 38 88 b7 39 7c ef bb 3c
       -0.05996457 -0.036452815 0.0003500597 0.022941343
000050 37 ab 69 bc 51 9a f1 3c a8 8d 23 bc 0a f7 e5 bc
       -0.014262012 0.02949253 -0.009982504 -0.028071899
000060 8e a2 a8 bc d6 eb dd bc 62 7c d8 bc c9 99 73 bd
       -0.020585325 -0.027089994 -0.026426498 -0.059472833
000070 ef 29 5c bd e4 e6 ae 3b 18 91 a0 bc b9 11 53 bd
       -0.05375093 0.005337583 -0.019600436 -0.051530574
000080 f1 23 f7 3c b6 04 96 3b 4c 21 0e bd 08 6d 56 bd
       0.030168505 0.0045781983 -0.034699723 -0.052350074
000090 c0 e5 3f 3d 1f fa 80 bd 10 b6 10 bd c7 e2 44 bc
       0.046849966 -0.06297707 -0.03532988 -0.012016959
0000a0 ae 82 3d 3d e6 ec 6c bc 56 15 2c bd 59 61 88 bd
       0.046267204 -0.014460778 -0.042012535 -0.066591926
0000b0 0e 16 0a 3d fa c1 8b bd 3c 56 6f 3a 81 7d f7 bc
       0.03371244 -0.068241075 0.00091299764 -0.030211212
0000c0 d8 03 8b bd c6 f2 49 bc 24 0f ca bc d2 65 47 3d
       -0.067878425 -0.012325948 -0.024665423 0.048681088
0000d0 b2 e2 b2 bb 72 b8 e5 3b d8 77 f9 bc fe d6 38 bd
       -0.005459153 0.007010513 -0.030452654 -0.045126908
0000e0 5d c2 a2 bb 61 8d 6c bd 33 86 da bc 85 40 8a 3b
       -0.0049670176 -0.057752017 -0.02667532 0.004219117
0000f0 cc 6c 07 bd 04 37 ec 3c 56 32 84 bc 5e b5 90 ba
       -0.03306274 0.028834827 -0.016137283 -0.001104038
000100 27 33 0a bc d2 24 ef 3b fc f9 66 bd 3e d4 4e 3d
       -0.008435047 0.0072980905 -0.056390747 0.05049538
000110 27 d2 35 bb 88 76 b6 bc d7 8d 65 3d de cf 32 bd
       -0.0027743669 -0.022273317 0.056043472 -0.04365527
000120 ae 9b 7f bc cc 67 8b bc f6 9d c2 bc f8 2b fa bb
       -0.015601082 -0.017017268 -0.023756962 -0.007634636
000130 71 00 0e 3c 82 da 1b bd 1f 91 13 3c b4 d6 15 3d
       0.008667097 -0.038050182 0.0090067675 0.03658171
000140 26 ba 89 3b 76 ff 50 bd 4e 36 b4 bc 95 80 fc bc
       0.004203099 -0.051024877 -0.02199855 -0.030823031
000150 07 7d c4 3c 75 a1 b5 b9 4f 29 34 bc d9 3c ab 37
       0.023985399 -0.00034643305 -0.010996177 2.0413123e-05
000160 e4 9d 07 bd da f3 41 bd fe 53 0a 3d b3 52 61 bc
       -0.03310956 -0.047351696 0.033771507 -0.013752627
000170 cc 42 13 bd 66 86 24 3d 00 f9 1f 3d 79 42 34 bd
       -0.035952374 0.040167235 0.039055824 -0.044008706
000180 4c e2 62 bc 1e cf 13 3d 1a bf 38 bd a7 95 22 3d
       -0.013847899 0.036086194 -0.045104124 0.0396935
000190 2e 53 41 3c 9a c8 c2 bc 84 cf 37 bd ed 3f 6b bd
       0.011799617 -0.023777295 -0.044875637 -0.05743401
0001a0 43 63 bc bc 0a 75 2b bd 7e 23 81 bd 15 60 04 bd
       -0.02299655 -0.041859664 -0.06305598 -0.032318193
0001b0 41 76 80 bd 6d d7 5c bd af f8 b4 3c 97 2e 61 bd
       -0.06272555 -0.053916384 0.022091238 -0.054976072
0001c0 be b6 db 3c 81 7e 86 bc 62 6e a3 3c 2b 95 34 3d
       0.026820537 -0.016417744 0.019950096 0.04408757
0001d0 64 9d 33 3d 11 75 c9 bb b7 8c b8 3c 21 eb 2f bd
       0.04385127 -0.0061479886 0.022528036 -0.042948846
0001e0 f8 0c ca bc 72 91 c5 bc 32 f8 39 bd db 7b 62 bd
       -0.024664387 -0.024117205 -0.045402713 -0.0552939
0001f0 64 11 4e 3d 1f 60 2e 3c a6 e3 35 bb e3 c7 c8 bc
       0.050309554 0.010643034 -0.0027754097 -0.024509376
000200 02 e2 a0 3c fd 27 48 bd de a3 5a bd 69 53 40 bc
       0.019639019 -0.04886626 -0.053378932 -0.0117386365
000210 ed 12 c1 bc de 7a cc bb e9 59 45 bd 3a 4e 59 3d
       -0.023568595 -0.006240233 -0.048181448 0.05305312
000220 12 10 92 bd 74 e7 9c 3c 4a dd 67 bd 07 14 9b 3b
       -0.071319714 0.019153334 -0.056607522 0.004732612
000230 cc 12 1c bd ae 67 6c 3d 4d 87 55 bc 0d 76 2b bd
       -0.038103864 0.057716064 -0.0130327465 -0.04186063
000240 3f 6e d8 bb bf f9 8a bc 1b c1 f5 3c e0 87 4b bd
       -0.0066049392 -0.016964791 0.029999306 -0.049690127
000250 dd c2 30 bd 67 7a 0c 3d 9c ff 30 bd af 70 4b bd
       -0.043154586 0.03429642 -0.043212518 -0.04966801
000260 4e 86 f0 bb 52 07 7f 3c aa 6a 04 3d 18 23 7a bd
       -0.007340229 0.01556571 0.032328285 -0.061068624
000270 e8 b6 1b bd 4f 6c e5 3c eb fa 9e bc fc be e3 bc
       -0.03801623 0.028005747 -0.019406756 -0.02780103
000280 80 0e d9 bc 12 f4 16 bd ff f7 c7 3c b8 95 24 bd
       -0.026496172 -0.036853857 0.024410246 -0.040181845
000290 dd 9c 3f 3c 70 2c 19 3d d4 4a b8 3c c1 1b 65 bd
       0.011695114 0.037395895 0.022496618 -0.05593467
0002a0 53 46 06 bd 2e dc cc bb f6 a9 6c 3d d0 dd 88 bd
       -0.03278191 -0.0062518334 0.057779275 -0.066829324
0002b0 20 e4 b1 3c e6 0c 2d 3d 2a cc e3 3c 70 05 5f 3d
       0.021715224 0.04224863 0.027807314 0.054448545
0002c0 33 17 16 bd 7b ee b3 bc e5 83 88 bd 4d e5 46 bd
       -0.03664322 -0.021964302 -0.06665782 -0.048558522
0002d0 2e 3e 18 bd 33 47 64 3c 4e 76 bc 3c 18 9f 6a bd
       -0.037168674 0.013932991 0.02300563 -0.05728063
0002e0 22 ba 16 bb e2 ae 32 3d 6b 78 48 bd 5e 8f 36 bb
       -0.0022999127 0.043623812 -0.048942965 -0.002785645
0002f0 e8 04 af bc 35 ac 49 3d 89 85 86 3d f5 51 af 3c
       -0.021364644 0.049236495 0.065684386 0.021401385
000300 1d cc 82 3c 80 39 47 3c 8b bc 41 3c c1 f2 f2 bc
       0.01596647 0.012159705 0.011824737 -0.02965677
000310 09 69 1a 3b 88 97 d9 bb 62 43 df bc a7 86 8f 3c
       0.002356114 -0.0066403784 -0.02725381 0.017520262
000320 6a c0 7a 3d 5c cb 70 3c 3c b6 40 bc 36 99 9e 3c
       0.061218657 0.014696922 -0.011762198 0.019360166
000330 f5 fa 08 bb 3e de 26 bd 32 1c 04 3d 28 0b 83 bd
       -0.0020901535 -0.04073929 0.03225345 -0.06398612
000340 64 47 4a bd 86 f5 18 bc d0 1b 4d 3c 4a 4b 91 3c
       -0.04938449 -0.009335881 0.012518838 0.017736096
000350 78 83 84 3d c8 92 4c bd fc 70 80 3c ce 30 31 bd
       0.06470388 -0.04994467 0.015678875 -0.043259434
000360 37 39 83 bd 6b 1e 39 bd 9c fe fe bc d6 14 4d bd
       -0.06407397 -0.045195024 -0.031127267 -0.0500687
000370 ef 0b 8a bd ff 33 88 bd c3 7d 3c bd 3f 11 80 bd
       -0.067405574 -0.066505425 -0.046018373 -0.062532894
000380 1d ae 44 3c ea 31 6e bd 70 3a 1f 3d 46 29 72 bd
       0.0120044025 -0.05815307 0.03887409 -0.059121393
000390 76 de 8d bc 88 5a 0e 3b ff c5 21 bd 50 33 f4 bb
       -0.017317992 0.0021721441 -0.039495464 -0.007452406
0003a0 1a a9 a0 3a 43 86 51 3d 17 ff 3c bd f4 b7 d3 b9
       0.0012257427 0.051153433 -0.04614171 -0.00040382112
0003b0 f6 a1 4c bb 4b 44 20 bd b3 d4 e1 3c 08 db 0b bd
       -0.0031224466 -0.03912763 0.027567243 -0.03414443
0003c0 46 b3 d6 bc db 17 21 bd 7f ae dd 3b 82 35 9e 3c
       -0.026208531 -0.03932939 0.0067651863 0.019312624
0003d0 74 39 be 3c 03 71 35 bd 94 ea 45 3c 69 62 8e bd
       0.023220755 -0.04429723 0.012079854 -0.06952364
0003e0 62 cd 3d 3d b8 6a 0e bd 61 2f 5d bd 59 d0 e7 bc
       0.046338446 -0.034769744 -0.054000262 -0.02829759
0003f0 6d 55 0b bd 2e f5 fd bc a1 0c 30 bb 0a a2 b1 3c
       -0.034017015 -0.0310007 -0.0026862996 0.021683712

bias f4 [64]
000000 ef a1 5b 3c 47 a5 4b bd f8 87 10 bd b5 d9 a9 3c
       0.013405307 -0.049718168 -0.03528592 0.020733694
000010 f4 f4 52 bd a3 af e2 bd 2c a9 92 bd b8 03 82 bd
       -0.051503137 -0.11068656 -0.07161173 -0.063483655
000020 ad 78 ed bc 9c 58 31 bd 6a d2 0e 3d 73 8c de bd
       -0.028988207 -0.043297395 0.034868635 -0.10866632
000030 ec 6d 89 ba 7f 74 00 bd 91 f9 a2 bb bc 36 38 3d
       -0.001048503 -0.0313611 -0.0049735983 0.044974074
000040 19 8d 55 bd 66 e5 2f bd 40 e5 4e bd 0d 2d df bc
       -0.052136514 -0.04294338 -0.0505116 -0.027243162
000050 70 31 b6 bc 56 dc 9b bc 56 8a 94 3c 86 9e 76 bd
       -0.02224037 -0.019025963 0.01813237 -0.060209773
000060 64 16 fa bc fe 1e 9b bd 03 bb cb bd 7b 48 90 3c
       -0.030528255 -0.07574271 -0.09947779 0.017612686
000070 4d a8 e9 3c f8 e6 7c bc 5b 16 98 bb e4 33 0e 3c
       0.028522635 -0.015435927 -0.004641337 0.008679364
000080 74 fa d8 bc dd c0 80 3c b4 0a 13 be 22 94 c1 bc
       -0.026486613 0.015716964 -0.14359552 -0.023630206
000090 1d 1d 39 3c 49 03 ae bc a3 82 33 bd a4 7a 8c ba
       0.011298445 -0.0212418 -0.043825757 -0.0010717702
0000a0 77 aa fd bc 50 88 03 bd 7a 0c 84 bc 81 e5 6a bd
       -0.030965073 -0.03211242 -0.01611923 -0.05734778
0000b0 a0 30 5b ba e9 dc d3 bd cc c4 9c bd c6 26 1f bd
       -0.00083614327 -0.1034487 -0.076547235 -0.038855337
0000c0 80 f1 93 bd 05 3c df bd 9e 4b 8d bd 8d cf 84 bc
       -0.07223797 -0.1090012 -0.068991885 -0.01621225
0000d0 80 40 1f 3c c2 8d c5 bc eb 4b 94 bc 1d 4a a9 3b
       0.009719968 -0.024115447 -0.018102607 0.0051663057
0000e0 a2 0d 07 bc 1e 39 e9 3c 1b 5e 6c 3b 9b 44 49 bc
       -0.008242996 0.028469618 0.0036066833 -0.012284423
0000f0 13 cb 1b bd 5a 11 08 bd 16 b0 52 bd f7 1f 46 bd
       -0.038035464 -0.033219673 -0.05143746 -0.048370328

weight f4 [64, 3136]
000000 b7 4e 0b 3b 53 f6 fe bb 71 ef 36 3c 0e ff 29 bc
       0.0021256634 -0.007780829 0.011165486 -0.010375751
000010 23 f0 13 bc ae b6 34 bc d5 c3 28 bc dc 3c 7d 3a
       -0.009029421 -0.011029882 -0.010300596 0.0009660253
000020 33 f8 89 bb 0e 32 6d 3c dc dd 1e 3c 87 b0 45 bc
       -0.004210496 0.014477266 0.00969645 -0.012066013
000030 b2 a4 80 bc 4e 71 66 3c c5 98 06 3c b7 7a c4 3a
       -0.015703533 0.0140651 0.008215134 0.0014990185
000040 aa 79 ea 3b ca d4 21 3b 20 6f 90 bb 8a df 17 3c
       0.007155617 0.0024693483 -0.0044077784 0.009269604
000050 6e 4c 0d bb 77 f3 15 bb 80 5c 93 3b e3 86 6b bc
       -0.0021560448 -0.0022880712 0.004497111 -0.014375421
000060 ee c0 a3 ba 3e ac 3c bc 65 c6 38 3b 8a 75 5f 3b
       -0.0012493411 -0.011515675 0.0028194424 0.0034097158
000070 dc 29 9a ba 70 7a 0e bc 1e 14 92 bc a0 94 13 3c
       -0.0011761743 -0.008696184 -0.017831858 0.009007603
000080 fc 4d 06 3c 95 a3 8b 3c de 3a 6a bc da 9d 75 3c
       0.008197304 0.017045775 -0.014296262 0.014991248
000090 4e 4f 00 bc 6e 45 7f bc 3e 6f 7d 3c 7e ef 1c bc
       -0.007831408 -0.015580518 0.015468417 -0.009578584
0000a0 4e 9d cd 3b 6e 98 18 3a 0c 8a 1d 3c 93 40 8d 3b
       0.0062748557 0.00058210536 0.0096154325 0.0043106764
0000b0 3c d7 57 bc 01 8f 45 3c 5c ec 78 bb f8 4f 0a ba
       -0.0131738745 0.012058021 -0.0037982678 -0.00052761985
0000c0 73 ff 6d 3c 53 54 44 bc ed c5 ab 3d 1a 3b 35 bc
       0.014526236 -0.011982995 0.08387361 -0.011061454
0000d0 8b 57 58 bd fb 2c 7b bc d3 0c 20 be 70 2d 5e 3b
       -0.052817862 -0.015330548 -0.15629892 0.0033901595
0000e0 5b dc 5e 3d 84 be 86 3d 01 f9 89 ba 54 15 90 3c
       0.054409366 0.06579307 -0.001052648 0.017588295
0000f0 f8 ce bf bd b4 f5 60 be 18 23 ac bc 3e 90 a1 bc
       -0.09365648 -0.21968728 -0.021012828 -0.0197221
000100 dc f6 99 bd c8 33 02 be d9 b1 40 3d fb a4 b9 3c
       -0.07517788 -0.12715065 0.04704461 0.022661677
000110 d0 4e f7 bd a5 e2 cf 3d 5f de ba bd ff 50 32 be
       -0.12075579 0.10150651 -0.09124445 -0.1741371
000120 fe 80 dd bc fe 52 f0 3d 76 66 46 bd 6e 2c 21 be
       -0.027039047 0.117345795 -0.048437558 -0.15739605
000130 d2 b9 5c 3e 55 a9 cc bb ba a8 01 bd 3c 4d 32 bc
       0.2155526 -0.006245772 -0.03165505 -0.010882672
000140 5b da 8e bc c4 23 fc bc 22 c8 64 3d 32 c3 82 3d
       -0.017438104 -0.030778773 0.055854924 0.06384887
000150 d6 5c 1c 3d 53 39 b9 3d 67 b9 14 3d 19 12 08 3e
       0.038174473 0.09044137 0.036309626 0.13288154
000160 d5 84 41 3d ef 98 43 3e 76 38 ba bc 0c 98 cd bd
       0.04724582 0.19101308 -0.022732 -0.10038766
000170 2f 33 a1 3b 9c 7d 19 3d 68 ec 4c 3c 73 33 91 3d
       0.0049194316 0.037473306 0.0125075355 0.07089891
000180 5d b3 ec 3d c7 9e cc bc df 2c 91 3c 31 89 60 bc
       0.11557648 -0.024978055 0.017721592 -0.013704584
000190 20 79 8d 3b f3 cf 35 3c ee a3 2f 3c 40 3a 2a 3b
       0.0043174177 0.011096942 0.010720236 0.002597466
0001a0 f0 5e 1a bc f5 c0 21 3c 1e d6 09 3c 77 fe cf 3b
       -0.009422049 0.009872665 0.008412866 0.0063474732
0001b0 5c f5 3e 3b fc 5a 91 3b e7 23 8a 3c 7a fa 16 bc
       0.0029137945 0.004435895 0.016862823 -0.009214992
0001c0 0c 8b 63 3c ce 29 8b 3b cc 31 bf 3b b3 a7 03 bc
       0.013888132 0.004246927 0.0058347937 -0.008035588
0001d0 81 93 d2 3b 3e 7a 44 3c 9c d5 79 3b a5 a9 92 ba
       0.0064262752 0.011992035 0.0038121706 -0.0011189474
0001e0 38 8e b8 bb 36 41 ab 3b f0 11 27 3c 01 0c f3 bb
       -0.005632188 0.0052262796 0.010197148 -0.0074172025
0001f0 25 f2 64 3a 65 6d ff 3b b3 98 a6 3b 6e 59 fe 39
       0.0008733592 0.0077950233 0.005084121 0.00048513286
000200 8d b6 62 bc 8e 9f 27 3c ad 97 90 3c 81 15 2d bb
       -0.013837469 0.010230912 0.01765045 -0.0026410522
000210 0a 78 e0 3b 13 19 57 bc f7 8f 32 3c b2 6a 84 bc
       0.0068502473 -0.013128537 0.010898582 -0.016164158
000220 f7 ac a3 bb 11 93 36 3c 6e 55 0f 3b be ec 82 bc
       -0.0049949843 0.011143462 0.0021870988 -0.015982028
000230 3f d2 86 3c 43 0a 13 3c fd d9 06 bd c3 e2 b2 bc
       0.016457675 0.008974615 -0.032922734 -0.021836644
000240 70 b3 22 ba fc 5c af 3c 0e 59 5a 3c 29 66 e5 3c
       -0.0006206548 0.021406643 0.013326896 0.028002815
000250 30 54 33 3c 07 07 89 3d 8a 93 a3 bc 38 41 d2 3d
       0.010945365 0.066907935 -0.019967813 0.10266346
000260 78 ec a3 bd 3b 76 9f 3d a3 c4 79 3c ab 56 cd 3d
       -0.08004087 0.077862225 0.015244636 0.10026296
000270 88 4c ef 3b e9 9a f3 bc d8 9f e0 bd 19 58 fa bd
       0.0073028244 -0.029736953 -0.10967988 -0.122238345
000280 42 1c 51 bc 05 6e 87 b8 c9 9a af bd d9 25 39 be
       -0.012763085 -6.4577944e-05 -0.08574445 -0.18080844
000290 14 8f be bd 5c e9 2d 3d e7 b1 b7 bd f5 51 fe 3d
       -0.09304634 0.042458877 -0.08969479 0.12417976
0002a0 d7 5e 24 3b ea c9 22 be a3 40 2a bd f2 53 51 3d
       0.0025080943 -0.15897337 -0.04156555 0.051105447
0002b0 8c ee 73 bd db ff 80 bd c6 1c 61 3e 80 35 72 bc
       -0.059553668 -0.062988006 0.21983632 -0.014783263
0002c0 1c 64 8d bd 04 a1 25 bd 8b fb a4 3d 9b f7 e9 3b
       -0.0690386 -0.04043676 0.080557905 0.0071401126
0002d0 fc 0e 34 3e d1 21 2b 3e 82 05 d3 3d 00 36 89 3b
       0.17583841 0.16712119 0.10303785 0.0041873455
0002e0 2c 56 b5 3c 13 6c 14 3e 5e 90 a9 3c 5b 92 3e 3e
       0.022135817 0.14494352 0.020698722 0.18610518
0002f0 37 d0 ce bc bd f3 c0 bd 50 e1 fb bc e2 e3 1b 3d
       -0.025245769 -0.094214894 -0.030747086 0.038059123
000300 df 48 ae 3d 93 43 e8 3d 2e f8 e6 3d 1e 46 be bb
       0.08509993 0.11341014 0.11277805 -0.0058066985
000310 97 43 e2 bc ec 75 7d bd 95 98 17 3c ee e5 17 3e
       -0.02762012 -0.061880037 0.009252687 0.14833805
000320 c7 5a 65 3e cb 21 8f bb 7e b6 79 3b 5a ae 0c bd
       0.2239791 -0.004368042 0.0038103159 -0.034345962
000330 0a 3f 94 bd 19 e2 d9 bd 6a 40 11 3c 90 42 4d bc
       -0.07238586 -0.10638828 0.008865455 -0.012528077
000340 bd 18 04 bd 35 c0 41 3d b0 a9 9b bb 40 ea 57 3d
       -0.032250155 0.047302444 -0.004750453 0.052713633
000350 2d 0c 68 3d b5 08 31 3c af 1d 47 bd 82 34 b3 bd
       0.056652237 0.010805299 -0.048612293 -0.087502494
000360 1a ab 02 bd 72 34 6e 3d e2 9c 2a 3e 19 d7 28 3e
       -0.031901456 0.058155484 0.16661409 0.16488303
000370 24 ec 43 3d 94 fd 41 3c 89 3e 20 3c 9c 2d 28 3e
       0.047832623 0.011840243 0.009780535 0.16423649
000380 0b 97 48 3d b4 5b 88 3d 65 bd 0b 3c 80 12 b9 3c
       0.04897217 0.06658116 0.008529042 0.02259183
000390 62 f3 3d 3d ef f7 1d 3e 5f ea e9 3d ef d9 db 3c
       0.046374686 0.1542661 0.11421656 0.026837317
0003a0 9e 50 d9 3d 1e 8d 55 3d 47 fc 0e 3d 96 3b 8e 3d
       0.1061108 0.052136533 0.03490856 0.06944959
0003b0 38 89 95 3d f5 b4 8c 3d c6 13 38 3d e4 e1 52 3c
       0.07301563 0.06870452 0.044940732 0.012871239
0003c0 af 5d ff 3b dc 30 47 bc 2f fe 89 3c ba 9a 1d 3d
       0.0077931504 -0.012157645 0.016844837 0.038477637
0003d0 c2 92 be 3b 3d 9a ce 3d f0 14 90 bc 51 7d 72 3e
       0.0058158347 0.10088012 -0.017588109 0.23680617
0003e0 b1 d9 c2 bc 9b 0d 63 3d ba f7 d1 bd a3 e0 df bd
       -0.023785444 0.055432897 -0.10252328 -0.10931518
0003f0 25 dc c8 bd 31 3c 37 be 7a 0e 0e bd 1a 5c 90 3d
       -0.09807614 -0.17894055 -0.034681775 0.07048817

bias f4 [64]
000000 b3 40 6f 3d dc b0 5f 3c 53 e7 b9 3b 59 9a 79 3c
       0.05841131 0.013653006 0.005673328 0.015234553
000010 f0 76 89 bc 01 f3 07 3d f3 2b b4 bb bc 29 80 3b
       -0.016780347 0.03319073 -0.005498403 0.003911225
000020 f9 cd 68 3c db 43 9a bc 1f 11 87 3c 4c 0a 5d 3c
       0.014209264 -0.018831184 0.016487656 0.0134912245
000030 eb fb 04 bd bd 81 89 bc bb 95 46 3c f1 ed d6 3b
       -0.03246681 -0.016785497 0.012120659 0.0065591265
000040 40 19 8c bb 39 11 86 bc b8 fb 74 bc e9 93 0d bd
       -0.004275471 -0.016365634 -0.014952593 -0.034564886
000050 dc af d9 bc 99 00 85 bb 85 e8 01 bb ae 57 52 bc
       -0.026573114 -0.004058909 -0.001982243 -0.012838287
000060 af 3a 87 3c 1c d6 b6 3b 88 0f 50 bc e0 52 a6 bb
       0.016507475 0.005579723 -0.012699015 -0.0050757974
000070 72 67 8e bb a2 23 40 bb 67 2a d3 bc f4 66 aa 3c
       -0.0043458277 -0.0029318114 -0.025777055 0.020801045
000080 6e 69 9e 3b 9f ed 00 bc a8 93 b0 3b 98 f7 a0 bb
       0.0048343455 -0.007869153 0.0053886957 -0.004912328
000090 57 1d a0 bc a0 58 42 3a 2c ee 15 bc 2a 08 b7 bc
       -0.01954524 0.0007413719 -0.009151023 -0.02234276
0000a0 92 98 a3 bc 24 08 20 3d 78 58 c2 bc 44 65 52 bc
       -0.019970212 0.039070264 -0.023723826 -0.012841526
0000b0 f6 5e 27 3d 52 32 18 3d 3a e3 14 3c f0 c2 d5 ba
       0.040862046 0.037157364 0.009087378 -0.0016308706
0000c0 f1 de 68 3d ff 8c aa bc 06 22 f3 3c dc cd 8f bc
       0.05685324 -0.020819185 0.02967931 -0.017554216
0000d0 47 26 e5 3c 28 2d 8c bc 36 e6 86 bc 53 b5 20 3d
       0.027972354 -0.017111376 -0.016467195 0.039235424
0000e0 92 6d 8c bc 26 60 9f bc a2 26 e9 bb 96 f2 01 bd
       -0.017142091 -0.019455027 -0.007115201 -0.03172549
0000f0 c3 78 23 3d 96 c8 a3 3a 5c de 07 3d b8 b9 7f bb
       0.03991009 0.0012495692 0.033171043 -0.003902061

weight f4 [10, 64]
000000 40 c3 91 be 81 32 a1 be fd 30 1c 3d 6b 47 d8 3d
       -0.28469276 -0.31483844 0.038132656 0.10560497
000010 0a f2 36 3d 61 8d 73 3d 10 d1 50 bd 24 bb aa bd
       0.04466442 0.059461 -0.050980628 -0.083364755
000020 eb 5e c8 bd 6f 93 e1 bd da 41 0e bd 0b e2 df 3d
       -0.09783729 -0.11014449 -0.03473077 0.10931786
000030 12 9a ff bc a3 ee d7 3d 72 e5 19 3e ae 04 38 be
       -0.031201396 0.10543563 0.15028933 -0.17970535
000040 8b 38 cb bc 63 95 a9 bd 43 7f b9 bd c6 d9 c3 3d
       -0.024807235 -0.082804464 -0.09057476 0.09563021
000050 2c ad 8d bd 1e 70 c8 3b 25 3e 8b bc 1d 45 10 bd
       -0.069177955 0.006116881 -0.016997406 -0.03522216
000060 8c 95 00 3d e9 bb 03 be 46 f0 c7 be c0 52 82 3d
       0.03139262 -0.12864651 -0.39050502 0.063634396
000070 cf ff 90 3d 8b da f0 bd e7 39 0d bd c0 00 97 3d
       0.070800416 -0.11760434 -0.034479048 0.0737319
000080 74 03 ab bd 24 30 47 bd 2c 97 f1 bd a6 c2 ba bd
       -0.08350268 -0.048629895 -0.11796412 -0.091191575
000090 f6 13 c4 bd a0 68 e0 bc 82 f7 bd 3d c4 22 2e bd
       -0.0957412 -0.02739364 0.09275724 -0.042513624
0000a0 a8 e5 9b bd bd ac 1e bc 80 47 d1 bc 1b a1 d7 bd
       -0.07612163 -0.009684739 -0.02554679 -0.10528775
0000b0 06 17 d3 3d 72 02 30 3e 70 99 5b bd 4a 87 9a bc
       0.10307126 0.17188433 -0.053613126 -0.018863339
0000c0 c9 77 3a 3d d1 2a 89 bd b4 28 45 3e fa 04 a3 3d
       0.045524392 -0.0669762 0.19253808 0.079599336
0000d0 e8 b3 fa 3d b1 53 0f 3d 94 54 8c 3d 41 81 2c 3e
       0.12241346 0.034991924 0.068520695 0.16846181
0000e0 55 2f 93 3d 66 bf cd 3d e2 db 9b bd b0 07 5d be
       0.07186762 0.10046272 -0.07610299 -0.21584964
0000f0 7d d3 e3 3d 79 25 a7 bd 9d 1b fc 3d a0 6f 8c 3d
       0.111243226 -0.08161444 0.12309954 0.06857228
000100 6a d8 17 3e 54 81 49 3e 58 92 b6 3d 54 52 ad 3c
       0.14828649 0.19678241 0.089146316 0.021157421
000110 ae 7f a8 bd 91 d1 b4 3d e0 2f 41 3c c1 af 91 3d
       -0.08227478 0.08829034 0.011791199 0.071136005
000120 c0 69 94 3d 6b cb 59 be b6 2d c7 3b 00 30 a2 be
       0.07246733 -0.21269004 0.006078447 -0.31677246
000130 7b da 76 be 21 c3 ce bd 85 4f 59 be ca 00 6f bb
       -0.24106781 -0.10095812 -0.2122174 -0.0036468976
000140 55 da 47 3d e0 16 00 bd 25 76 df bd a8 7a 1a be
       0.048792202 -0.031271815 -0.10911206 -0.15085852
000150 fa f8 92 3c a7 a2 f6 bd 25 36 25 bd 68 ab 01 be
       0.017940987 -0.12042742 -0.04033484 -0.12663043
000160 f2 d6 ff 3b a0 ae 90 3d 47 85 4a 3d 24 09 f1 bc
       0.007807606 0.07064557 0.04944351 -0.029423304
000170 43 2b 89 bd 5b 1b 3a 3e 3f a4 bc bc 4e b2 0e 3e
       -0.06697705 0.18174498 -0.023027537 0.13935205
000180 3a e1 af 3d 7a 83 0a bd ed fe fa bd ea a0 bd 3d
       0.085878804 -0.033816792 -0.122556545 0.092592075
000190 2b 51 4a bc 23 04 2e bd 4f dc 06 be a0 7a da bc
       -0.0123484535 -0.042484414 -0.13169979 -0.0266698
0001a0 da 52 9e be 1d 71 0d 3e ba a7 46 3d c9 b1 98 bd
       -0.30922586 0.1381268 0.0484998 -0.07455785
0001b0 e2 06 3c 3b 51 c1 8f 3d 0e 9f 31 3c 12 1d ab 3c
       0.0028690626 0.07019294 0.010841144 0.020887885
0001c0 8b bf 19 3c b0 2f a1 bb bc 59 a6 bc b9 eb 0f bd
       0.009384046 -0.004919015 -0.02030646 -0.035136912
0001d0 c3 b6 5e 3e 2c 7a e1 3c 97 6e 09 3d d9 07 d5 3c
       0.21749406 0.027524076 0.033552732 0.026004719
0001e0 87 24 3f bc c0 e7 4f bc 34 d4 34 3d fb 11 78 be
       -0.011666424 -0.012689531 0.044147685 -0.24225609
0001f0 57 a2 d9 3d cd 1a 7b be 4a b4 59 be 6a 13 f0 bd
       0.10626667 -0.24521942 -0.21260181 -0.11722453
000200 de 02 12 3e 0a 1a cb bd 25 7b 80 3e f0 69 2c bb
       0.14258906 -0.09917076 0.25093952 -0.002630826
000210 54 d3 5e bc 68 b2 8d 3d 83 ad 16 3c 08 df 50 bc
       -0.013600189 0.06918794 0.009196642 -0.012748487
000220 a0 a6 82 39 52 fe fa bd 8b 90 77 3d 5f d3 2f 3c
       0.00024919678 -0.12255539 0.06044058 0.010731547
000230 4d ee c0 bd 23 65 2a bd 50 fc fb 3b ff 73 43 3e
       -0.09420452 -0.041600358 0.00768999 0.19087218
000240 f2 9a 95 bc 13 ef 30 bd f8 dd ba 3c 06 51 eb bd
       -0.01826236 -0.04319675 0.022810921 -0.11490063
000250 85 f6 ce bd 86 a2 08 3d d8 41 f4 3d 2a bb 35 3e
       -0.101056136 0.03335812 0.11926621 0.17747179
000260 9a 65 15 bd 7d 22 4e bd 3d 1a 02 be 20 33 48 bd
       -0.036473848 -0.05032586 -0.12705322 -0.04887688
000270 e5 47 1e bd f4 55 f7 bd e2 8f c1 bb 5f 1c b7 be
       -0.038642783 -0.12076941 -0.0059070447 -0.35763833
000280 b4 42 7c be 31 ff 7e 3d 20 5f 09 bc f6 db 7e 3d
       -0.2463482 0.06225509 -0.008384496 0.06222149
000290 0c 44 43 3d 5d 3e 63 3d 9e 4e d7 bd eb 47 25 3d
       0.047672316 0.055479396 -0.10513042 0.04035179
0002a0 87 52 10 be 15 df 42 3e 7e a9 48 bd 28 68 9b 3d
       -0.14093982 0.19030412 -0.048989765 0.075882256
0002b0 66 80 c8 3d 91 44 82 bd da 90 51 3d 26 88 93 3d
       0.09790115 -0.06360734 0.05116353 0.07203703
0002c0 d6 4c 4f be 6a 52 ac 3d e2 57 8a 3d ee fe 27 bd
       -0.20244154 0.08414157 0.067550436 -0.041014604
0002d0 81 ca 1b bc 7e 2d aa bc d4 63 87 3d 00 b6 b9 3d
       -0.00950873 -0.020773645 0.066108376 0.09067917
0002e0 5d 70 cd bd d8 ef 5e bd 82 77 b5 be a1 52 42 bd
       -0.10031197 -0.05442795 -0.3544274 -0.047442082
0002f0 36 f0 f2 3c f9 47 1d 3e 0e fc 87 be 55 a7 c4 bd
       0.029655557 0.15359487 -0.2655949 -0.096022286
000300 1d 7a 24 3e b8 03 d2 ba 01 9f c9 bd 0b a1 3f 3d
       0.16062208 -0.0016022837 -0.09844781 0.046784442
000310 cf 0b 9a bd 4b b8 d4 bc 77 27 c1 bd 7c b5 45 bd
       -0.075217836 -0.025966784 -0.094313554 -0.04826878
000320 94 76 91 3d d1 42 79 3e 07 a5 8b 3d 08 98 68 be
       0.07102695 0.24341895 0.06818586 -0.22714245
000330 8c f0 2b be 38 0c 60 bc e9 57 04 be 53 c5 b4 bd
       -0.1679098 -0.013674788 -0.1292416 -0.08826699
000340 d3 3e cc 3b 49 cf ca 3c 94 46 84 3d 43 be 32 bd
       0.006233075 0.024757044 0.06458774 -0.04363848
000350 20 bd 3f 3d 08 48 98 bd d8 18 4f 3d 14 07 5a be
       0.046811223 -0.07435614 0.050560802 -0.21291763
000360 47 8f 27 3d 38 c2 79 bd c3 c1 3b bc 94 6a f2 3d
       0.040908124 -0.060976237 -0.011459771 0.118367344
000370 cc fa fc 3c 09 aa 23 3d e2 33 d6 3b 87 00 c1 be
       0.030881308 0.03995708 0.0065369466 -0.37695715
000380 36 68 0d be bb 47 77 3d 3c fe d3 3d 8a 08 bb bd
       -0.13809285 0.060371142 0.10351226 -0.09132488
000390 00 59 ec bb 76 e2 ca bd af 14 92 bd fa 6c aa 3c
       -0.007212758 -0.09906475 -0.07132851 0.020803917
0003a0 00 5a 10 3d 15 65 ce bd e4 1c a2 bd a4 74 bc bd
       0.03524208 -0.100778736 -0.07915667 -0.09201935
0003b0 03 3c e0 3d ff 0c b6 bc 87 c7 af 3d 00 b6 b2 3d
       0.10948946 -0.022222994 0.08582979 0.0872612
0003c0 37 70 e9 bd 86 c1 b4 bd 00 dd 5b be 09 78 ef bd
       -0.113983564 -0.08825974 -0.21471024 -0.11692817
0003d0 0b d0 49 3d c3 9d d1 bd 50 fd d7 bd c7 7d ea bd
       0.04927067 -0.10235169 -0.105463624 -0.114497714
0003e0 5e 40 b3 3d eb f3 a8 3d 5b cd f7 bd 77 6d 1b be
       0.087525114 0.08249649 -0.12099715 -0.15178476
0003f0 d4 d9 1d 3e 00 ac b3 3d 07 bf 2d 3e d0 0a 39 bd
       0.15415126 0.08773041 0.16967402 -0.045176327

bias f4 [10]
000000 c8 3c b1 bd fc 6d f7 3c 3c 6b 89 3c c7 7b a0 bd
       -0.08654171 0.030203812 0.016774766 -0.07836109
000010 0d 46 a5 bc 2f 1a 3a bd de 6b b7 bc 21 e3 b5 3c
       -0.020175004 -0.045435127 -0.022390302 0.02220303
000020 2e c5 57 bd 1b 0d 88 bd
       -0.05267828 -0.06643125
