mlflow/mlartifacts/917714700599549108/de5928e6c71d455e9548c3d4a4b46864/artifacts/model/data/model.pth (torch, 887400 bytes, 8 tensors)

weight f4 [32, 1, 3, 3]
000000 d4 52 51 3d b2 15 ba 3e ae 32 ad 3e da ce 08 be
       0.05110438 0.36344677 0.33827728 -0.13360158
000010 97 b2 17 be 3a 25 80 3e b7 e8 7d 3e 4b a0 fc 3e
       -0.1481422 0.25028402 0.24795805 0.49341044
000020 47 81 3a 3e f5 e5 4d 3e ed 3f d4 3d 35 74 91 bd
       0.18213378 0.20107253 0.103637554 -0.07102243
000030 41 b2 19 3e df d1 52 be 26 ac 4c be 08 4a 5c 3e
       0.15009405 -0.20587872 -0.19987544 0.21512616
000040 54 9b a1 3e 5c 0f b7 bd 6b 96 67 3e fb 03 d6 3e
       0.31563818 -0.089384764 0.22615974 0.41799912
000050 c9 f1 81 3e 10 4a 54 3e 3a ff 0f 3e 97 ef 32 3e
       0.2537978 0.20731378 0.14062205 0.17474209
000060 b5 60 91 3e c0 16 c1 bd ed b5 20 be 4b e2 8e 3e
       0.28394094 -0.09428167 -0.15694399 0.27907023
000070 33 b0 3e 3c 77 4d e4 3d 83 e3 2a be 6e 59 ac 3d
       0.011638689 0.11147588 -0.16688351 0.08415495
000080 c8 ca 02 be 0c da ae bd 9f 80 41 3e 8c dd 03 be
       -0.12772667 -0.08537683 0.18896721 -0.12877482
000090 c6 ac 9d 3e 27 41 3d 3e 46 38 95 3d 63 eb 6e 3e
       0.30795878 0.18481885 0.07286124 0.2333198
0000a0 f9 d4 12 be 5e 3d 54 3e 7f ad 8f be 76 b3 e2 bd
       -0.14339055 0.20726535 -0.28062055 -0.11069386
0000b0 34 f5 e6 3d 86 fe 05 3e 0c 88 67 be b4 6e 98 bd
       0.112772375 0.13085374 -0.22610492 -0.0744299
0000c0 9d 7e 3a 3d 4f f7 22 3e 9e bf 91 3d 31 e6 ba bc
       0.045530904 0.15914653 0.07116626 -0.022814842
0000d0 0e 7d 8e bd 40 bf 75 3e 9e 18 be 3e e3 b2 fc bd
       -0.06957446 0.23998737 0.37128156 -0.123388074
0000e0 47 fd 82 be 0e d6 bd bd 3c 13 ab bc fe c6 ae be
       -0.2558386 -0.09269343 -0.020883195 -0.34136194
0000f0 1e b2 8b 3e 3b b4 de 3c b9 64 6a bc 20 8c e8 bd
       0.2728433 0.02718555 -0.014306241 -0.11354852
000100 86 35 87 be 6d 13 3d be 40 9b 8a bd b5 a8 e9 bd
       -0.26408023 -0.18464442 -0.06767893 -0.114091314
000110 6d 13 9e 3e 20 f0 a3 3e 3b b5 c4 3e 28 7a 07 3c
       0.30874196 0.32019138 0.38419518 0.00826887
000120 6c 1f c5 3e 41 60 96 3e ba 05 93 be 7a 1a fd 3e
       0.38500535 0.2937031 -0.28715307 0.49434263
000130 13 71 f6 3e aa 93 00 3f 94 e5 c5 3e 4a 6e 99 3e
       0.48133144 0.5022532 0.38651717 0.29966956
000140 35 ea ab 3e 88 a8 51 3e cc 4e 35 be cf 3d 0c 3e
       0.33577123 0.20474446 -0.1770584 0.13695453
000150 79 f4 a3 be c8 f9 88 3e 7d 26 a4 bc 48 dc 9c 3c
       -0.32022455 0.26753068 -0.020037884 0.019148007
000160 72 2d 0d be f9 91 ab 3e 5f d9 92 be 94 8d 36 be
       -0.13786867 0.33509806 -0.28681466 -0.17827445
000170 88 75 58 3e 88 ea 7d be 06 c4 90 3e 06 f7 d6 3d
       0.21138585 -0.24796498 0.28274554 0.10496335
000180 f8 e6 4d 3c a9 31 83 be 1e d1 a5 be 5c 98 9d 3e
       0.012567274 -0.25623825 -0.32386106 0.30780303
000190 fe e2 00 3e af 60 a7 be 9a 69 a9 3d 93 66 a5 be
       0.1258659 -0.3269095 0.08272095 -0.3230482
0001a0 5e b5 4d 3e d3 1a 38 be 4b 64 53 be 55 c8 09 3e
       0.20088717 -0.17978983 -0.20643727 0.13455327
0001b0 e1 cc 7a be 12 44 75 3e 08 82 40 be 6c f8 4c be
       -0.24492218 0.23951748 -0.18799603 -0.2001664
0001c0 9d 44 10 be 37 ce b1 3e 4c 78 1e be f5 1e c6 3e
       -0.14088674 0.34727642 -0.15475577 0.38695493
0001d0 52 56 b4 3e ee b9 f0 3e a7 3d cd 3e 84 c9 19 be
       0.35222107 0.47016853 0.400861 -0.15018278
0001e0 85 6c aa 3e 05 99 f1 bd 14 64 9a 3e ed 29 f9 3e
       0.3328592 -0.11796764 0.3015448 0.486648
0001f0 4c c8 75 3e cd d5 31 bc a0 82 94 3e 24 c1 ab 3e
       0.24002188 -0.010854197 0.2900591 0.33545792
000200 b2 08 fd 3e c3 ca b7 bc c6 37 e4 3e ed fe 18 3f
       0.49420696 -0.022435552 0.44573802 0.59763986
000210 ec 7a 42 3c d5 e0 08 3f 8c d4 10 3f 63 6e 2c 3e
       0.011870127 0.53468066 0.5657432 0.16838984
000220 74 c4 85 bd d2 f6 6b 3e 70 55 c3 3d 62 b6 08 3e
       -0.06531611 0.23043373 0.0953778 0.13350824
000230 6d 91 c2 bc bb 75 6d 3e 88 ac 1a 3e f3 a2 55 be
       -0.023750985 0.23189442 0.15104878 -0.20862941
000240 6d ee 86 be 8a 5c 17 3e 05 f4 8a 3e 5b 86 45 be
       -0.2635378 0.14781395 0.27139297 -0.19289534
000250 82 30 56 be 9b 01 7e be 35 cd 90 be af 9c a3 be
       -0.20916942 -0.248053 -0.2828156 -0.31955478
000260 7f 1b 33 3e 29 c0 31 bd 6f 6d 89 3d 36 1d 90 be
       0.17490958 -0.04339615 0.06710326 -0.28147286
000270 52 2a 0c be 8a 23 60 be 21 05 8d 3e 0c 9c 62 be
       -0.13688019 -0.21888557 0.27542976 -0.2212984
000280 01 3e 9f be c4 c9 36 3e 23 35 06 be b3 1f 73 3e
       -0.31101993 0.17850405 -0.13106208 0.23742561
000290 37 28 5a 3e 6f 1b 3c 3e 66 06 1b 3e 45 3b 4d be
       0.21304403 0.1836984 0.1513916 -0.20042141
0002a0 1a bc a7 3d e2 b4 0e 3e 5d 87 e4 bc d8 39 97 3d
       0.081901744 0.13936189 -0.027896577 0.0738408
0002b0 5e 20 f9 3e ad 2d b0 3e 5b 23 f2 3e 0e f2 9f 3d
       0.48657507 0.34409848 0.472926 0.0780984
0002c0 b9 0c cd bd c2 2e 70 3d 5a aa 75 be d9 4b 43 be
       -0.10012192 0.05863834 -0.23990765 -0.19071902
0002d0 f9 1a cd 3e 5b f7 bc 3e 64 2e e8 3e 81 75 10 3f
       0.4005964 0.36907467 0.45347893 0.56429297
0002e0 c5 08 d6 3e 40 f9 ec 3e 4b d3 3c be 02 b5 07 3e
       0.41803566 0.46283913 -0.18439977 0.13252643
0002f0 df 8b 4b be 86 17 45 3d 7a 15 cb b9 cb f4 34 be
       -0.19877575 0.048118137 -0.00038735179 -0.17671506
000300 71 0c 90 3e ac b4 ca bd 7d ca 4e be 12 52 4b be
       0.28134492 -0.09897742 -0.2019443 -0.19855526
000310 35 e0 5f be 4a 33 bd bd 75 74 c5 3c bc f0 90 be
       -0.21862872 -0.09238298 0.024103383 -0.28308666
000320 8f 39 f3 bc 6a af 7a 3d a7 8b 15 3e 67 f5 b7 bd
       -0.029690532 0.061202444 0.14604054 -0.08982354
000330 34 a7 80 be 92 1a 24 be b7 94 a6 3e f6 b3 c3 3e
       -0.25127566 -0.16025761 0.32535335 0.38223237
000340 8b 5b e0 bb 1b bf 00 3e 0e 41 58 3e a2 fe 8d 3e
       -0.0068468503 0.12572901 0.21118566 0.27733332
000350 4e 75 12 bd 5c 54 86 3e e0 2c 7e 3e 16 ae 93 be
       -0.0357564 0.26236236 0.24821806 -0.28843755
000360 84 6d 67 3e 31 9a b7 3e c2 18 7d 3e 23 e9 77 be
       0.2260037 0.35859826 0.24716476 -0.24210028
000370 a8 d9 1b 3e d7 89 38 be 6c 00 a3 bd 8d 57 80 be
       0.15219748 -0.18021332 -0.07959065 -0.25066796
000380 fe 50 73 3e 21 9c 2c 3e 1f 1c b2 be af 0c 5d be
       0.23761365 0.16856433 -0.3478708 -0.2158687
000390 87 c7 ea bc 89 bf 1d 3e 4c 02 b6 3c 4a c1 7f 3e
       -0.028659595 0.15405096 0.022217892 0.24976078
0003a0 4d ff 47 3e 1e 81 b9 3e b4 30 e5 bd 5c 86 1b be
       0.19530983 0.3623132 -0.1119093 -0.15187973
0003b0 b1 01 67 be 5c 73 0c 3e bf 0a 84 3e 8d df 63 3e
       -0.22559239 0.13715881 0.2578945 0.22253247
0003c0 74 3b 09 3e 08 90 b8 3d 8b 49 10 be cc df 91 be
       0.13401586 0.09011847 -0.14090554 -0.28491056
0003d0 86 20 40 be 12 dc c8 3e e7 fc 03 be 3a c8 95 3d
       -0.18762407 0.392304 -0.12889443 0.07313581
0003e0 78 0a 83 bd 51 aa 9a 3e 69 a4 31 3d 40 aa 53 3e
       -0.06398481 0.30208066 0.043369684 0.20670414
0003f0 8e 98 72 3e e2 98 ac bd ea a8 f9 3e 7f 2e 13 be
       0.23691007 -0.084275976 0.48761684 -0.14373206

bias f4 [32]
000000 fd d2 17 bd 56 c2 56 3e e3 31 a1 3d eb ae a3 be
       -0.03706645 0.20972571 0.07870843 -0.3196939
000010 77 9c d5 3c a4 af 0b be 01 a5 86 3e 5c 5e 2a 3c
       0.026075585 -0.1364122 0.26297763 0.010398474
000020 cd ad 12 bd b4 bd 98 3e 94 42 a3 be 6e a6 9b be
       -0.03581028 0.29832232 -0.31886733 -0.30400413
000030 e2 37 f4 3d 06 64 1c 39 8c fd 93 b9 c0 fc 66 bd
       0.11924721 0.00014914581 -0.00028226932 -0.056393385
000040 7a 50 14 3c 27 85 81 bd ca eb 87 3e 5c 96 82 3e
       0.00905239 -0.06324225 0.2654708 0.2550534
000050 d2 8e c9 bc 4b 04 b2 3e fb a4 55 3e 9a 19 a9 3c
       -0.024604235 0.347689 0.20863716 0.02064209
000060 a1 d0 1a 3e 9c 4e 53 ba 1a 13 78 be f3 cf 25 3d
       0.15118648 -0.0008060725 -0.24226037 0.04048152
000070 ef d5 02 3d 87 f9 90 3e 21 47 49 be c9 76 86 3e
       0.031942304 0.28315374 -0.1965604 0.262625

weight f4 [64, 32, 3, 3]
000000 d3 6a f2 bc c7 83 83 3d e2 71 fb bc e0 96 c3 3c
       -0.029591953 0.06421619 -0.030693952 0.023875654
000010 5c b3 2f 3d 0c 23 65 bd f4 08 b5 3c 6a 65 99 3d
       0.04289566 -0.055941626 0.022098996 0.07490046
000020 36 2d 75 bd 13 3d 09 3d 94 0b f6 3a c3 5d 29 bd
       -0.05985757 0.03350551 0.0018771761 -0.041349184
000030 ff d3 05 bd 05 f3 5f 3d 2e 33 5f 3d 60 d3 c0 3c
       -0.03267288 0.05467512 0.054492168 0.023538291
000040 e8 0c d0 3c 34 b6 75 bb 55 3d 3f bd 32 b2 bd bc
       0.02539678 -0.0037492635 -0.04668935 -0.02315626
000050 a0 d8 63 3d 79 41 e7 ba 35 4f 95 3d b0 a1 54 bc
       0.05562651 -0.0017643414 0.07290498 -0.012978002
000060 6f f9 da bc 39 99 30 bb 1a f2 af bc 92 b8 59 bc
       -0.026730267 -0.0026946797 -0.021477748 -0.013288634
000070 41 21 4e 3d 42 74 d8 3b 04 20 c1 bc e5 f8 72 bc
       0.050324682 0.006605656 -0.023574837 -0.014829849
000080 9d 68 14 bd 2d 2d 8b 3c ef af 13 3d 94 fb 0f bd
       -0.03623258 0.016989315 0.036056455 -0.035152033
000090 bc 49 74 3d 04 09 7d ba 0f a5 f1 3c b5 14 b6 bc
       0.05964063 -0.00096525275 0.029497651 -0.02222667
0000a0 4e ac 24 bd 8e fd ab 3c 2f 49 4b bd 70 1c df 3c
       -0.040203385 0.020994928 -0.04963034 0.02723524
0000b0 67 0b f2 3c e8 06 02 3d c0 49 f1 3c 42 3a 27 bd
       0.029546453 0.031744868 0.029454112 -0.040827043
0000c0 59 b8 81 bc 76 18 de 3c f0 58 d6 3b b6 d3 25 3d
       -0.015834974 0.027111273 0.006541364 0.040485106
0000d0 c6 b4 34 3d 76 69 f0 3c 1d ec 59 bd 87 3a c1 bc
       0.04411771 0.029347163 -0.05320369 -0.023587478
0000e0 ee b4 14 3d ff 4d d0 3b 61 ba b6 bc 2b 86 5b 3d
       0.03630536 0.006356954 -0.02230567 0.05359475
0000f0 82 de 0e bc 53 7c cb 3a 5a d4 07 3d 0f 43 80 bd
       -0.008720042 0.0015524722 0.0331615 -0.062627904
000100 1f e8 84 bc 60 3e d7 ba fd 03 1f bd 3a 92 3b 3c
       -0.016223965 -0.0016421787 -0.038822163 0.011448437
000110 6c 01 33 bd 93 9f ca 3a 11 9e 28 bd b3 77 d4 3c
       -0.043702528 0.0015458934 -0.04116637 0.025935983
000120 19 76 b8 3b f3 65 62 3d 20 fd 00 3d e1 a8 2b bd
       0.0056293127 0.055273008 0.0314914 -0.041909102
000130 81 74 6f bc eb 22 3f 3d 97 a9 40 3c 5d 0c a2 3d
       -0.014615179 0.04666416 0.011759183 0.07912514
000140 23 ee 04 3d 2c 31 09 3b f0 2d 69 bb f9 6a 48 bd
       0.032453667 0.002093385 -0.003558036 -0.048930142
000150 ba 74 e1 3c 95 07 35 3c 47 b8 71 bd f1 0e 77 3d
       0.02752148 0.011049171 -0.05901363 0.060316984
000160 12 71 33 3d 47 e8 46 bd b6 4e 47 bd bc 37 da 3c
       0.043809004 -0.04856136 -0.04865905 0.026637904
000170 51 6f 38 3d c8 a7 f4 3c 9b e4 6e 3d bb b9 8f bc
       0.045028035 0.02986516 0.058323484 -0.017544618
000180 e2 45 41 bd 2c 36 17 3d 42 d3 ab bc 90 34 2d 3d
       -0.047185786 0.036916897 -0.020974759 0.042286456
000190 b5 75 78 39 bf 8f 03 bb a2 cc d3 3a 12 29 6d bd
       0.00023694972 -0.0020074693 0.0016159008 -0.057900496
0001a0 4b d1 b3 bb bf 1c 54 bd dd ad 6a bd 3c e3 66 bd
       -0.005487596 -0.051785227 -0.057294715 -0.05636905
0001b0 84 b8 7f 3d b0 3c 70 3d 6c d8 66 bd c6 3e f6 bc
       0.062431827 0.058651626 -0.05635874 -0.03005923
0001c0 8f 43 8f 3d 6e f1 0a 3a a2 03 9f 3d 42 34 f1 bb
       0.06995308 0.0005300258 0.07764365 -0.007360966
0001d0 1d f7 1c 3d 11 1e 40 3d a4 01 3b bc c1 60 38 3d
       0.038321603 0.046903674 -0.011413965 0.045014147
0001e0 0b 35 37 bd a7 8e 69 3d 0f e4 55 3d 34 f5 3c bd
       -0.04472832 0.05702081 0.052219447 -0.04613228
0001f0 81 5b 67 3d df 83 82 3d 26 37 b5 3c d7 8a c5 3d
       0.05648375 0.06372809 0.022121023 0.09645622
000200 25 9d 76 bc 5c f7 1d bc 2b 9c 5f 3d 9b b8 f5 3c
       -0.015052115 -0.009641495 0.054592293 0.029995253
000210 87 a0 b0 3d 4a 2c c9 3d a0 2c 7b bd 0b f9 55 3b
       0.08624368 0.098229006 -0.061321855 0.0032649662
000220 55 7b af bc 7d 82 2b 3d 04 97 c3 3b 3e 0c 20 bc
       -0.021421114 0.04187249 0.00596893 -0.009768544
000230 bb 1f 50 3d 0c cc f4 3c c7 d8 8d 3d 78 2b 4b 3c
       0.05081151 0.029882453 0.069261126 0.0124005005
000240 3a 7c 5e 3d 4a 06 ae 3c 9d cc 27 bd 8a 89 99 bc
       0.05431769 0.021243233 -0.04096662 -0.018742342
000250 65 97 a4 3c cc ec a1 bc da 57 3b bc 70 49 c7 bc
       0.020091722 -0.019766234 -0.01143452 -0.02432701
000260 1e 5a 90 3c ed de 34 3d 76 99 40 3c 34 bb c1 bc
       0.017621096 0.04415791 0.011755338 -0.023648836
000270 b7 fc 4e bd 5f 45 01 bd 07 e1 5e 3d bc ce c8 3c
       -0.050533976 -0.031560298 0.05441382 0.024512641
000280 ce a5 29 3d cf e7 2d 3d 16 c4 22 3d 7b 42 b0 3c
       0.04141789 0.042457398 0.039737783 0.021516075
000290 c2 03 53 bd 68 01 20 3d ae 63 bf bc c6 7f 7a 3d
       -0.051517256 0.03906384 -0.02336296 0.06115701
0002a0 f8 50 56 bd 4d ae 90 3d 95 25 2c bb 7d f3 16 bc
       -0.05232331 0.07064495 -0.0026267518 -0.009213326
0002b0 8c 24 c7 bc be 4f 4c bb 9c 8d 92 bb 90 81 41 bd
       -0.02430942 -0.003117546 -0.0044724476 -0.0472427
0002c0 9e ca 16 3d 26 8c 16 3b 6a cb 91 3c 3e bc d6 3c
       0.036814325 0.0022971719 0.01779719 0.026212808
0002d0 05 aa 7f 3d 19 a0 84 bc 5e ab be b7 6a 37 ca 3c
       0.062418003 -0.016189622 -2.2729564e-05 0.024684627
0002e0 38 b7 40 3c f4 d6 b2 bc e0 d0 e4 3b 32 34 9e bc
       0.011762433 -0.021831013 0.0069829077 -0.019311998
0002f0 bd 7d fe 3c 34 e2 d7 bc 06 6f 2a bd 44 95 73 bd
       0.031065816 -0.02635298 -0.041609786 -0.059468523
000300 a1 82 48 3d 99 35 2f bc d8 df 69 3d f0 8b 3f 3c
       0.048952702 -0.010693931 0.05709824 0.011691079
000310 a5 27 4b 3d ac d0 02 3d 1a 19 71 3d 86 60 8a 3a
       0.049598355 0.031937286 0.05886183 0.0010557331
000320 db fb f4 3c 4f 61 76 3d 1f aa 24 bd 85 c4 0b bd
       0.02990525 0.060151394 -0.040201303 -0.034122963
000330 f6 7e 85 bc b5 41 28 bc da 54 2a 3b 40 45 c8 3c
       -0.016295891 -0.010269572 0.0025990517 0.024447083
000340 da 96 4d bc 2e 49 16 3d 9b 21 db 3b 75 09 90 3d
       -0.012548173 0.036690883 0.0066873557 0.07033054
000350 7f 25 8a bc a7 4d 8e 3c 78 3b af 3d 24 30 03 3c
       -0.016863583 0.017371012 0.08556265 0.008007083
000360 3d b0 1c bc 4f 29 2d bc ff 2f 07 bd 56 dd 69 bd
       -0.009563503 -0.010568931 -0.033004757 -0.057095848
000370 4b d6 1c 3d 5e db a0 bc 22 d3 93 ba e3 c5 1b bd
       0.038290303 -0.019635852 -0.0011278132 -0.038030516
000380 b2 4f 25 bc 6d 38 74 bd 9e 1f 8a 3c f6 e6 00 bd
       -0.010089802 -0.059624124 0.01686078 -0.03147026
000390 2b e7 2a bd 07 d2 d0 bc 2b 0a f6 3c 21 14 41 bd
       -0.041724365 -0.025490774 0.030034145 -0.047138337
0003a0 db a8 2f 3d 55 0a df 3c d9 82 ce bc aa f5 2f 3d
       0.042885642 0.027226606 -0.025208877 0.042958893
0003b0 5b 45 1b 3d 8f 8e 33 bd 6c 16 a3 3c 53 74 4b 3c
       0.03790794 -0.043837126 0.019908153 0.012417871
0003c0 ba c8 39 3d 56 fa 04 3b 32 1d 7a 3c 3f ad 83 bc
       0.045357443 0.0020290813 0.01526575 -0.016073821
0003d0 2c 17 3b 3d 93 1e e4 bc 17 b7 71 bc 87 67 e2 bc
       0.045676395 -0.02784661 -0.014753125 -0.027637256
0003e0 b5 9d b7 3c 59 ea 75 3d 67 a6 15 3d 80 c1 57 3c
       0.022414068 0.060037944 0.036535647 0.013168693
0003f0 70 06 f5 3c 47 68 cc 3d 15 e7 d2 3b fc 75 05 3b
       0.029910296 0.09980827 0.0064362385 0.0020364514

bias f4 [64]
000000 fa 51 2a bd ca 95 a2 bc 95 b8 5e bc 38 f4 18 3d
       -0.041582085 -0.019846816 -0.0135938125 0.03734228
000010 6e ce b3 bb b5 13 da 3b b4 37 95 3c 3c 06 51 bd
       -0.005487255 0.0066551813 0.018215038 -0.051031336
000020 ca 39 32 3d 20 38 2a 3d de 90 68 bb d8 44 01 bd
       0.043512143 0.04155743 -0.0035486738 -0.031559795
000030 80 dd 80 3d ee 20 15 3c 28 0d fa bc 17 a5 31 3c
       0.06292248 0.009102089 -0.030523852 0.010842583
000040 c6 56 96 bd 66 b0 6c 3d eb 56 01 bd 73 3c b1 3c
       -0.073407695 0.057785414 -0.031577032 0.02163527
000050 4b 22 56 bd 2d 3d fe bb 28 6e 1c 3d 79 08 31 bd
       -0.052278798 -0.0077587576 0.03819099 -0.04322097
000060 2f 2d 03 3c c9 12 35 bd 6b 6b 15 bd 4f 62 73 bc
       0.008006378 -0.044207368 -0.036479395 -0.014854982
000070 c5 ee 0a bd e0 0a 28 3d 88 c9 e4 bc c8 4b 24 bd
       -0.033919115 0.041025996 -0.027928129 -0.040111333
000080 72 58 5f bd 0e c3 8f bd f7 92 c7 bc 77 20 e2 3c
       -0.054527707 -0.070196256 -0.02436207 0.027603371
000090 f4 5d db bc 08 93 30 bd 3d 01 c4 bc 40 89 4e 3d
       -0.026778199 -0.04310897 -0.023926372 0.05042386
0000a0 22 1d 37 3d c0 e5 9a bd 27 82 1a 3d d9 f9 86 3d
       0.044705518 -0.075633526 0.03772178 0.065906234
0000b0 0d 60 b8 bc fe ff 57 bd 9a 34 54 3d a6 3a 61 3c
       -0.022506738 -0.052734368 0.051807977 0.013746893
0000c0 bc ea 25 bd e6 de 37 bb a5 c1 58 38 fd 66 2c 3b
       -0.040507063 -0.0028056442 5.167876e-05 0.0026306503
0000d0 db 13 a9 b9 27 ca 16 3b 73 ee 7f bc 29 19 8d 3c
       -0.00032248985 0.0023008676 -0.015620816 0.017223911
0000e0 fe 2f 20 bd 25 ac 2e bd 03 63 29 3d 21 2a 1d bd
       -0.03910827 -0.04264464 0.04135419 -0.038370255
0000f0 fe db 91 ba 91 5c d8 3c 7f 4e 7c 3d d5 d4 6b bb
       -0.0011128185 0.026411327 0.061598297 -0.0035985012

weight f4 [64, 3136]
000000 f4 68 eb 3a 9e 89 11 3b ad 20 4c 38 91 c2 f2 ba
       0.0017960356 0.002220727 4.8667822e-05 -0.001852112
000010 0a df ce 3b ba 80 60 3b a6 d1 4c 3c 77 28 c1 ba
       0.0063132094 0.0034256415 0.012501156 -0.0014736791
000020 f9 6f 55 bc 04 82 a9 3c a9 9e 94 3c e7 60 64 3c
       -0.013027185 0.02069188 0.018142061 0.013939119
000030 1d 1c 03 bb ff 34 d1 bb 98 3a bc ba 05 53 8d bc
       -0.002000577 -0.0063844915 -0.0014360724 -0.0172515
000040 ed bb f8 3c df 8e d4 bb 7c b7 f1 3b b5 8e 4b 3c
       0.030363047 -0.006486758 0.0073766094 0.012424161
000050 8d 6a e0 3b 6e e1 71 bc 0d ce 0a bc a8 f4 08 3d
       0.0068486393 -0.014763219 -0.008471978 0.033436447
000060 e9 4a 83 3c 3a a8 42 bb 60 a9 d6 3c 13 4f f4 ba
       0.01602693 -0.0029702322 0.026203811 -0.0018639289
000070 f8 53 09 bc d7 2c e6 3a 14 44 b5 3c f4 5a 23 3c
       -0.008381836 0.0017560971 0.022127189 0.009970415
000080 24 c2 02 bc f2 9f 84 3b b5 dd 17 3c fd 6a a1 bb
       -0.007980857 0.0040473873 0.009269168 -0.004926084
000090 ab 30 24 bc e9 18 b3 3c f5 d8 ad 3c a3 42 80 bc
       -0.010021369 0.021862464 0.021221617 -0.015656775
0000a0 f3 fc e0 bb 83 d6 8e bc e5 72 d2 bb 9e 15 28 bc
       -0.0068660914 -0.017436272 -0.006422388 -0.01025906
0000b0 8e ae c0 bc 90 a3 47 bb 00 4e fa 3b 48 29 76 3c
       -0.023520734 -0.003046248 0.007638693 0.015024491
0000c0 d7 c0 4f 3c 43 59 7d 3c 70 8e 16 3c 1a 71 4e 3c
       0.012680254 0.015463176 0.009189233 0.012600208
0000d0 bf b5 46 3c 44 ea 61 3c e3 7c 8a bb f1 0a 0c 3c
       0.012128293 0.013788763 -0.0042263134 0.0085475305
0000e0 ef e0 22 bc da 62 d0 bb 7f 48 9b 3c c9 27 8c 3c
       -0.009941324 -0.0063594403 0.018955467 0.017108815
0000f0 a2 68 24 3a dd 0e 54 bc ab 49 d0 bc e0 01 c5 3b
       0.0006271695 -0.012942997 -0.025425753 0.0060121864
000100 1b 50 96 3c 2a 5c 96 3c cd 9e 05 3c ed 85 f4 3b
       0.018348744 0.018354494 0.008155537 0.0074622543
000110 80 7a 31 3c 3f 5a 9d bb b7 7d 0a 3b 57 f5 13 3d
       0.010832429 -0.004802018 0.002113206 0.036122646
000120 bd 2a 94 3c 96 66 26 3c 3e f1 85 3c c4 62 a0 3c
       0.018086785 0.010156294 0.016350385 0.019578345
000130 89 8f ec 3b 64 f6 b3 3b 19 4a f6 bb a4 74 b0 3c
       0.007219259 0.0054920185 -0.0075161573 0.021539994
000140 e5 19 d8 3c 90 87 9f 3c bf 62 80 bc d1 4e 92 bb
       0.026379535 0.01947382 -0.015672086 -0.004464962
000150 17 a1 86 3c a8 7f 14 bc 9a 13 77 3b ea 4f 6f bc
       0.016434235 -0.009063639 0.0037700892 -0.014606455
000160 96 37 6c 3c cd bf 27 bc 81 87 25 bc 4d b9 0b 3c
       0.01441755 -0.0102386 -0.010103107 0.008528066
000170 4f 2f 7d bc 86 d3 f1 3b 95 37 2d bc 10 05 a7 bc
       -0.015453174 0.007379952 -0.010572334 -0.020388156
000180 67 5a 10 3c 19 4c 8f bc 53 fb f9 3b 93 be 91 39
       0.008810616 -0.01749234 0.007628837 0.00027798544
000190 b4 78 b7 bb 69 59 14 3a 8b e4 5c bc 59 35 ba bb
       -0.0055991057 0.0005659075 -0.013482223 -0.005682629
0001a0 4e 7e 7a bc 83 d0 49 3c 63 cc 15 bc 3c 68 b5 3b
       -0.015288902 0.0123177795 -0.009142968 0.0055361073
0001b0 d7 15 8d bc 01 2a 45 3c 4a d5 a3 bb de f3 63 bc
       -0.017222328 0.01203394 -0.0049997913 -0.013913123
0001c0 4a 59 e1 bb b7 51 58 ba 15 d4 4b 3c 93 c7 2a bb
       -0.006877099 -0.00082519226 0.012440701 -0.0026058897
0001d0 00 54 94 ba 86 b1 73 3b fc 1f 41 bc 71 e3 73 bc
       -0.0011316538 0.003718467 -0.011787411 -0.014885769
0001e0 2e 38 67 bb b7 4d 89 bc 55 1a 0b 3c 0a 00 ac bb
       -0.0035281288 -0.01676069 0.008490165 -0.005249028
0001f0 00 5e 95 bb fa ab 18 bc bb 66 84 bc c7 37 32 bc
       -0.004558325 -0.009318346 -0.016162267 -0.010877556
000200 c5 e0 48 3c 93 ea 00 ba f3 7a 64 3c fa 79 8b 3c
       0.0122606205 -0.0004917767 0.013945329 0.017025936
000210 d3 eb 11 bb 25 99 48 38 e1 67 6d 3c 0e ae db 3b
       -0.0022265806 4.7826343e-05 0.014490099 0.0067040985
000220 1c 67 55 3c 3c ce 23 3c 6e 3d 92 3a 25 45 5f ba
       0.0130250715 0.009997901 0.0011157223 -0.0008517078
000230 1c fa 56 3c ee 50 7b 3c 65 21 f6 3b 35 3b 33 bc
       0.013121154 0.015339119 0.007511305 -0.010939409
000240 17 63 d5 3b 8e 34 dd bb 9c ef 8b 3b 34 84 b7 bb
       0.0065120566 -0.00675065 0.004270507 -0.0056004766
000250 af e1 01 bc 75 c6 8f bc f0 94 02 3c 32 5b 3c 3b
       -0.007927342 -0.017550686 0.00797008 0.002874088
000260 d3 55 f9 bb 87 68 60 3c c4 31 04 bc fe 3f 6e 3c
       -0.007609108 0.013696796 -0.008068506 0.014541624
000270 81 89 2b ba d1 b8 77 3c 64 ed 10 bc fc 9a 71 3c
       -0.0006543622 0.015119747 -0.008845661 0.014746424
000280 c4 24 8c bc f3 2c 77 bc 04 1c 84 bc 7c db 54 3b
       -0.017107375 -0.0150864 -0.01612664 0.0032479456
000290 6d 58 15 bc 8e 94 09 bb 45 0d f7 bb ee 4a 8a bb
       -0.009115321 -0.0020993087 -0.0075394236 -0.004220358
0002a0 ee d3 35 bc e3 5e e4 bb 1a 0c ab bb 32 18 4a 3c
       -0.011097891 -0.006969319 -0.0052199485 0.01233487
0002b0 5e 18 58 3b b3 63 46 bc d2 d5 83 bc 85 75 15 bc
       0.0032973508 -0.012108731 -0.016093168 -0.009122257
0002c0 62 a9 73 bb a9 99 f6 3b b9 5d e8 bb 76 a6 1d bc
       -0.0037179817 0.007525642 -0.0070912507 -0.009622207
0002d0 f8 2e 57 3b df 46 8e 3c 9b 0f 61 bc 19 05 4a bc
       0.0032834392 0.017367778 -0.013736631 -0.012330317
0002e0 60 a1 c9 ba 04 31 4e bc 39 3b 08 3b 63 0d 7e 3c
       -0.0015383177 -0.012584928 0.0020787253 0.015506121
0002f0 0e be ef bb 5e 6b 55 bc 4f 8f d8 3b f5 81 c8 3b
       -0.0073163575 -0.013026087 0.0066088806 0.0061190077
000300 22 76 92 bc f0 d6 8c bb a8 45 86 bc d4 22 5f 38
       -0.017878596 -0.0042980835 -0.016390637 5.319978e-05
000310 a7 5d 82 3c e1 b6 bd 3b 6e 92 37 bb 52 ee d9 bb
       0.015913798 0.005789623 -0.0028010863 -0.0066507244
000320 a4 43 99 3c ac b7 9c bb fa 52 b6 bb 4e 77 fe bb
       0.018709011 -0.0047826376 -0.005564091 -0.007765687
000330 28 ad 20 bc ab 53 90 bc b4 fa 94 bc b1 d0 a5 bc
       -0.009806909 -0.017618021 -0.01818595 -0.020241113
000340 5d 33 19 3c a1 70 35 bb 11 ca 08 bb 01 87 da 3b
       0.009350625 -0.002768554 -0.0020872394 0.0066689258
000350 6c 34 95 bb a0 32 5c bc 20 79 a0 bc cb 75 a6 bc
       -0.0045533683 -0.013439804 -0.019589007 -0.02031984
000360 26 2a 3e 3c 2b d5 3e 3b df 6e 1b 3b d6 cc 4a 3c
       0.011606729 0.0029118757 0.0023717207 0.012377938
000370 55 c3 57 3c 4e 37 b5 3c fc c0 22 3c 6a a4 c2 bb
       0.013169129 0.022121098 0.009933706 -0.00594001
000380 cb a1 2e bc 8c f1 d4 3b 09 57 9e bc 05 9c c4 bb
       -0.010658692 0.006498521 -0.019328611 -0.0060000443
000390 e3 bd 36 3c b3 6c be 3c 05 8f 53 3c 71 36 a8 bb
       0.011153671 0.023245191 0.0129125165 -0.005133443
0003a0 39 8a d5 39 fe de 99 39 91 42 4c bc e5 57 58 bc
       0.0004072951 0.00029348576 -0.012467043 -0.013204549
0003b0 6f a5 9b 3b 77 16 1e 3b f2 55 10 bb 75 b2 34 bc
       0.004749946 0.0024122277 -0.0022023884 -0.011028876
0003c0 4c b2 21 3c ef 36 99 bc 56 88 b4 3b 14 0b 7b bc
       0.009869169 -0.018702952 0.0055094166 -0.015322465
0003d0 64 e6 a6 ba aa ef 02 bc 91 f3 51 3c 77 e0 20 3c
       -0.0012733457 -0.007991711 0.012814418 0.009819142
0003e0 c0 10 d5 3b 12 17 7f 3c 03 13 03 bb 8b c0 13 bc
       0.006502241 0.015569465 -0.0020000346 -0.009018074
0003f0 f2 59 89 3c db c0 87 3c a8 80 8f bc 2d b2 c6 bc
       0.016766522 0.016571453 -0.017517403 -0.024254883

bias f4 [64]
000000 c8 de 4c 3c c8 e4 7d bc e1 3d cc 3c 88 93 9d 3c
       0.012504287 -0.01549644 0.02493185 0.019235387
000010 43 8e df 3a 5d e7 0d 3b a9 f6 ff 3b 15 39 5c 3c
       0.0017055947 0.0021652796 0.0078113866 0.013441344
000020 57 70 c2 3c dd 12 1b bc d5 d3 23 3c aa 19 cb bb
       0.023735208 -0.009464947 0.009999235 -0.0061981278
000030 26 b0 02 3a 5b 53 20 bc 6f 33 8b bc cf 73 a8 3b
       0.00049853546 -0.0097854985 -0.016992299 0.0051407586
000040 18 d6 63 bc e2 83 74 bb 49 f7 de 3b b5 56 5e bc
       -0.013906024 -0.0037310054 0.006804381 -0.013570477
000050 e6 a1 83 3c 53 fb 13 bc a3 87 84 bc 46 b0 d3 3b
       0.01606841 -0.009032088 -0.016177958 0.0064602224
000060 80 08 90 3b df 47 96 3b e4 fe 2e 3c 0e 32 c4 bb
       0.0043955445 0.0045862044 0.010680888 -0.0059874123
000070 66 d0 06 3b 0f 7c 49 bc e6 ea a8 b9 05 60 e9 3c
       0.0020570992 -0.012297644 -0.0003221847 0.028488168
000080 ef a5 b9 3b 16 ce 27 3c 35 f7 14 bc 74 1e 85 bb
       0.005665533 0.010242006 -0.009092142 -0.004062468
000090 00 f0 59 3b 8c 9f f5 3c 6d 49 1c 3c b6 2b d1 bb
       0.0033254623 0.029983304 0.00953899 -0.0063833846
0000a0 37 79 bc 3b a7 32 08 3c 3b 83 f8 3b 92 49 75 3b
       0.0057517546 0.008312858 0.0075840033 0.0037427885
0000b0 9c 15 d3 3b 68 09 56 b9 9c ce 2d bb 00 51 a6 bc
       0.006441785 -0.00020412134 -0.0026520854 -0.020302296
0000c0 c1 20 d9 3b c1 b3 e2 3a 5c 21 a5 3c 93 56 7c ba
       0.006626219 0.0017296002 0.020157509 -0.00096259377
0000d0 06 08 19 bc f1 1b 8d 3c 95 c5 c2 3a ef 7f 5a bc
       -0.009340292 0.017225238 0.001485991 -0.013336166
0000e0 14 bd b3 3c e3 80 52 3c 34 7e 0e 3c 45 73 00 ba
       0.021940745 0.012848112 0.008697081 -0.0004899989
0000f0 04 f7 dc 3c ea da af 3c d1 be 65 bc 2c 3f d0 3b
       0.026973255 0.021466691 -0.014022545 0.006355187

weight f4 [10, 64]
000000 8e 01 b0 3d a5 ee 41 bd ac bf 63 3c 20 85 96 3d
       0.085940465 -0.04734673 0.013900679 0.0734961
000010 b6 bc ab 3c 76 74 8a bd f0 95 94 3d 2c 1e 16 bc
       0.020964008 -0.067604944 0.07255161 -0.009162467
000020 01 9c 52 3e 48 4d c3 3d 94 09 b2 3d 3e 35 b7 3d
       0.20567323 0.095362246 0.08693233 0.08945702
000030 2d 54 eb 3d 43 5d 04 3d 4c bd 8d 3d 61 84 cf 3d
       0.11490665 0.032315504 0.06920871 0.10132671
000040 7f ba f3 3d 63 cf 34 be 5d f7 9c 3d 58 bc 1f 3e
       0.11900806 -0.17657237 0.07664368 0.15599191
000050 47 2c e1 bd 93 9a f4 3d 10 a6 7f bd 7c 53 02 bd
       -0.10994773 0.11943545 -0.06241423 -0.0318179
000060 3d 89 46 be 36 97 ad bd 17 f4 b0 bd 4c 9c 03 3e
       -0.1938829 -0.08476107 -0.086403064 0.12852591
000070 bd d8 e2 bd 8f e9 2c bd c1 cc 57 be 07 d7 32 be
       -0.11076496 -0.042214926 -0.21074201 -0.17464839
000080 12 b4 33 3e 7a 01 25 be 12 61 b6 3d e3 fc 04 3e
       0.1754916 -0.16113845 0.089052334 0.12987094
000090 ce 73 59 be 35 f7 ff 3d db 7c 39 be 2b 76 a5 bd
       -0.21235582 0.12498323 -0.18114035 -0.080791794
0000a0 84 b7 90 be 1a 7d ae 3d 2a 81 d3 3c 37 aa b3 bd
       -0.2826501 0.08519955 0.025818426 -0.087727
0000b0 76 65 91 3b b7 a7 74 3d 5c 55 49 be 77 1e 13 3e
       0.004437144 0.059730258 -0.19661468 0.1436709
0000c0 37 b4 64 3d 29 56 d3 3d f1 0d 17 be a0 2d d5 3b
       0.05583593 0.10319168 -0.14751412 0.006505683
0000d0 ba 73 48 3e f6 a2 30 be 9b 27 42 3e 90 e9 40 3d
       0.19575396 -0.17249665 0.18960421 0.047097743
0000e0 7c ab 61 3c aa ef 82 bd 1d f8 d4 3d ff 0c f1 bd
       0.013773795 -0.063933685 0.10398886 -0.11770057
0000f0 b2 15 08 be a7 8a 54 bd 88 4f c9 bd 85 ed f1 3d
       -0.13289526 -0.05189004 -0.098296225 0.118128814
000100 61 bc 41 bb bf d2 9a bd d0 2e 6c bd a4 08 42 3e
       -0.0029561745 -0.07559728 -0.05766183 0.18948609
000110 c6 8a 2b bb 7e c1 1c bd 05 48 ff 3c 27 ca 04 3d
       -0.0026175245 -0.038270466 0.031162271 0.03241935
000120 5d 99 93 be dc 68 0a 3d c4 51 70 be cd e3 c8 3d
       -0.28827944 0.033791408 -0.23468691 0.098090746
000130 2c e6 0d be ef 64 06 be 43 bd 81 be 79 44 a4 3b
       -0.13857335 -0.1312444 -0.25339708 0.0050130454
000140 4a 86 b4 3d d3 f9 01 be bf 5a 39 3e e7 f5 56 be
       0.08814676 -0.12692957 0.18101023 -0.20992242
000150 50 94 46 3e d3 25 13 bd 32 ae 99 3c b6 19 c5 bd
       0.19392514 -0.035924744 0.01875982 -0.096240446
000160 9b 67 9f bd 95 fb 86 bd b7 bf 0f 3d 8d 99 a9 bc
       -0.07783433 -0.06590954 0.035094943 -0.020703102
000170 49 4d 88 3d 30 6b da 3d ea a3 25 bd 0d c0 33 3e
       0.06655366 0.10664976 -0.040439524 0.1755373
000180 53 7c 74 3c 04 40 0c 3d af 79 d8 bd b1 37 bf 3d
       0.014922219 0.034240738 -0.10570084 0.09336794
000190 e9 48 a7 3d b8 4c 2d 3e 81 40 3d 3e 80 9f 46 bc
       0.081682034 0.16923797 0.18481638 -0.012122989
0001a0 3c 46 2c 3e dc 3f 1e bd 59 36 ec bc 0a 85 75 3e
       0.16823667 -0.03863512 -0.028834509 0.23976532
0001b0 51 22 49 3e 09 3c 5b 3d b1 43 4c 3d 87 34 14 be
       0.19641997 0.05352405 0.049869243 -0.14473163
0001c0 60 fa 4b be 3b 09 f0 bd 32 33 60 be 90 76 c4 3d
       -0.19919729 -0.117205106 -0.2189453 0.095929265
0001d0 77 b5 a3 bb d9 bf 9c 3d c9 46 6f bd 1f 65 ed bd
       -0.0049959975 0.076537795 -0.058417115 -0.11591553
0001e0 5e e0 45 3e b4 d8 c3 3b d2 5a 16 be e7 04 8f 3d
       0.1932387 0.0059767608 -0.14683083 0.06983357
0001f0 1a 6e ab bc f8 d1 5e 3d 28 d6 b1 ba e6 49 ab 3d
       -0.020926524 0.05439946 -0.0013567852 0.083637044
000200 0c c7 a3 3d b2 94 b1 bd 26 56 42 3e 3f 83 87 bc
       0.079969496 -0.086709395 0.18978176 -0.016542075
000210 76 89 da bd c1 70 71 be 46 8c a9 bd b1 41 f2 bd
       -0.1067075 -0.23578168 -0.08278708 -0.11828936
000220 09 d3 cb bd bc e9 d5 3d 96 9f f2 bd 4f e8 23 3e
       -0.09952361 0.10444972 -0.11846845 0.16006587
000230 96 3a d1 bd e1 68 67 3d ca c9 4f be af 7c 8f 3a
       -0.102162525 0.056496505 -0.2029182 0.0010947193
000240 80 05 85 3d 4a ff 48 3d d6 48 9d 3d 4d 0c 53 bd
       0.0649519 0.049071588 0.07679908 -0.051525403
000250 46 ef ea 3d 69 54 92 bd 66 2a 6b 3b 8a 2a 27 3c
       0.11471419 -0.07145006 0.0035883426 0.010203013
000260 10 90 85 be a6 06 2b be bf e9 5a bd 32 a9 ed 3d
       -0.26086473 -0.16701755 -0.053445574 0.11604537
000270 d7 eb bd 3c 6e 9c 95 bd 16 8f cd 3d 44 0d d0 bd
       0.023183746 -0.07305227 0.10037057 -0.1015878
000280 98 5b 8c 3e fa 6e ef 3d 46 ea da 3c 1e e8 46 be
       0.2741363 0.11691089 0.026723038 -0.19424483
000290 c4 67 92 3d a6 df 48 be a4 49 eb 3d 49 c9 2d 3d
       0.07148698 -0.19616565 0.11488655 0.04242829
0002a0 44 78 56 3c 80 a6 e8 ba 3b f7 26 bd f5 78 99 bd
       0.013090197 -0.0017749816 -0.04076312 -0.07493774
0002b0 ea 04 56 3e 95 05 8f bd a6 fb 47 3d 99 24 cd 3d
       0.20900312 -0.069834866 0.048823975 0.10016746
0002c0 92 55 7f 3e dc 2a 33 3d 96 18 66 3d f6 f2 9a 3d
       0.24934986 0.043742046 0.05617579 0.07565872
0002d0 0c de a3 be 6d bc 63 be 99 e9 77 3e ec f6 88 bc
       -0.32005346 -0.22239847 0.24210204 -0.016719304
0002e0 06 10 13 3e d3 a5 74 bc 51 42 9c bd 84 81 fc bd
       0.14361581 -0.014932114 -0.07629836 -0.12329391
0002f0 f3 83 66 3e 39 58 c6 bd 32 9e 4e 3e c2 7f d2 bd
       0.22511272 -0.09684796 0.20177534 -0.10278274
000300 96 6a 72 be b4 c9 6e 3d 96 7c 24 be 47 3d 44 be
       -0.23673472 0.058297828 -0.16063151 -0.19164
000310 b7 8e a1 bd 99 22 22 be 00 cc 90 be 5b 44 58 bc
       -0.07888549 -0.1583351 -0.2828064 -0.013199891
000320 5a df f0 bd d0 bb 83 bd 5c 64 1c 3e 2c 11 8d 3d
       -0.11761351 -0.06432307 0.15272659 0.06888041
000330 92 ba 87 3d f5 c9 9f 3d 26 d3 a5 be 6a 2a f9 3d
       0.06627382 0.07802192 -0.32387656 0.12166293
000340 ef 5f 8a 3c f6 8d 47 be 71 55 33 3e ec 13 8a be
       0.016891448 -0.19487748 0.17513062 -0.26968324
000350 2f dd 41 be 62 5c 98 3d ac 74 23 be 02 56 4d ba
       -0.18932031 0.074394956 -0.15962476 -0.00078329456
000360 04 4e 81 3e b5 a2 ef 3c 43 16 c0 bd f3 3a 26 3b
       0.25254834 0.02925239 -0.09379246 0.0025364726
000370 01 20 97 3d fc 21 dc 3d 32 ab 8a 3e df c1 39 be
       0.07379151 0.107486695 0.27083737 -0.18140362
000380 93 fa e0 3d d3 03 ae 3d 79 e5 b9 bd 28 9e 10 be
       0.10985293 0.08496823 -0.090769716 -0.14122832
000390 eb 44 13 3e aa 2d 05 be 5b 0c 61 3a 91 82 c6 bd
       0.14381759 -0.130057 0.000858491 -0.09692872
0003a0 38 f2 92 bc bc fc e0 3d 20 29 97 3d 32 18 2c 3d
       -0.017937765 0.10985705 0.07380891 0.042015262
0003b0 1a b1 8a bc 11 34 d7 bd a3 d9 42 3e d0 62 c4 3d
       -0.016930152 -0.10507978 0.19028334 0.095891595
0003c0 fd 2d 89 3d 93 9c dc 3c 7d 1d c0 3d 20 b7 ab bd
       0.06698225 0.02693013 0.093806244 -0.08384538
0003d0 59 08 28 bd 21 7f 1e 3e 98 d3 51 3e c9 74 02 3d
       -0.041023586 0.15478183 0.20490873 0.031849656
0003e0 a2 ac 32 be 01 8c ea bc 69 4b fc 3d e8 4b 19 3e
       -0.17448667 -0.028631212 0.12319071 0.14970362
0003f0 52 91 ed bd 9b da 98 bd da a2 80 3d 58 11 5d bd
       -0.11599983 -0.07463571 0.062810615 -0.05397162

bias f4 [10]
000000 71 b1 bc bd 32 a4 8e 3d 80 ac 6c 3d 46 54 bd 3d
       -0.09213532 0.069649115 0.057781696 0.092445895
000010 d3 88 18 bc 2c 21 9c bc 48 25 3b 3d 88 02 f4 3d
       -0.009309965 -0.019058786 0.04568985 0.11914545
000020 4d 9d 11 be 36 7d a3 bd
       -0.14220162 -0.079828665
