mlflow/mlartifacts/917714700599549108/ce88e10e2f234ea79e7d4e22f3d63b7b/artifacts/model/data/model.pth (torch, 887400 bytes, 8 tensors)

weight f4 [32, 1, 3, 3]
-0.22563489 0.33272356 0.23994608 0.31289083 -0.2402416 0.0023844852 -0.302248 -0.23958571
-0.15478024 -0.30913836 0.066033505 -0.28197092 -0.2862214 -0.33122897 -0.0072123506 -0.19826159
-0.19185361 -0.28004 0.05726074 0.2826843 0.37398577 0.42826772 0.5730153 0.09301415
-0.14141625 0.30005655 0.37077445 0.5103558 0.00658554 0.15892684 0.15908626 0.46663672
0.06019945 -0.14517711 -0.08229344 -0.06356751 0.0734416 -0.26456282 -0.15162183 0.18934329
0.2406912 -0.18990812 -0.072566174 -0.17396793 0.3140522 0.27834675 -0.1516611 0.31736982
-0.10967475 0.25548416 -0.15446906 -0.17463562 0.07291223 -0.041308966 0.4083652 0.34920192
0.43620253 0.2902597 0.21272892 -0.152571 0.4137233 0.4229295 0.0727711 0.24058183
0.02492274 -0.32744813 0.48199445 0.43050507 0.030486938 0.25627583 0.005496145 -0.093580104
-0.01966169 -0.31504843 0.29412168 -0.13146372 -0.2585246 -0.09629305 -0.049674194 -0.19613405
-0.028378915 0.022017088 0.09398124 -0.257738 0.038016275 -0.020589786 0.24494381 -0.09869517
0.31935573 0.105499476 -0.007529 0.020185474 -0.00015790996 -0.32460022 -0.09157307 -0.32346386
-0.29077515 0.28864115 -0.021338247 -0.0061648386 0.30840766 -0.08642919 -0.053365566 -0.23064555
0.19229335 -0.19855122 -0.17430586 -0.26062736 0.24659173 0.3425084 0.57986504 0.56283766
0.63975596 0.07491337 0.043797005 0.41919908 -0.11312857 -0.29008946 -0.33271018 0.06467128
0.009913446 6.151314e-05 -0.25002325 0.27833965 0.32261977 0.24286726 -0.36549982 -0.2262875
0.33913913 -0.3511522 -0.0333606 0.39462984 0.27621707 0.021171698 -0.0683854 0.32268584
-0.15078384 -0.0780453 -0.09358345 -0.09556283 0.10258951 -0.11281545 -0.22119872 0.05343754
0.6340602 0.51952034 0.42461348 0.6221425 0.4534488 -0.10703616 0.5361005 0.2100626
0.35074762 -0.2772762 0.25413832 -0.1950718 0.21160865 -0.07246033 0.27470073 -0.28365758
0.09846928 -0.24330111 -0.111607425 -0.014608638 0.0167307 -0.30333337 0.20719597 -0.22499005
0.2159562 0.034448627 -0.08948164 0.35745785 -0.010088562 0.29439023 0.16120058 0.3246316
-0.16451067 0.38756946 -0.19204792 -0.030382536 -0.06284831 0.083000414 0.16627598 0.28813323
-0.29835033 -0.27975395 0.036179632 0.26640794 0.12274656 -0.13580039 0.21651745 -0.16181444
0.15375745 0.10074691 -0.04974462 -0.14460124 -0.1445248 0.23109075 0.08540339 -0.19585657
-0.30143055 0.108785294 -0.007124787 -0.3317632 0.17627272 -0.32679594 0.017951436 0.2858874
-0.1177844 0.47482324 0.50235695 0.49533114 0.5872825 0.40231693 0.5917353 -0.11567828
0.022537217 -0.30047727 0.034442335 0.32308817 -0.07510519 0.25658098 0.061746936 0.316851
0.0068653612 -0.2844663 -0.24525218 0.24972515 0.054536317 -0.027294807 -0.17504068 -0.15877435
0.31608686 0.1573852 -0.1972644 -0.26324597 -0.11611854 0.31968588 0.010204585 0.16043645
0.054751895 0.08188355 -0.017578997 0.3252943 -0.09428323 -0.041218985 -0.23991773 0.04880739
0.37404385 0.37754792 0.15433857 0.32361788 0.19353348 0.025342578 0.2174984 0.44993752
00000000: d50c 67be be5a aa3e 6db4 753e 3a33 a03e
00000010: e501 76be 0645 1c3b 40c0 9abe f555 75be
00000020: b67e 1ebe 6247 9ebe 933c 873d 7e5e 90be
00000030: 9d8b 92be d896 a9be 9555 ecbb 1605 4bbe
00000040: 4675 44be 6761 8fbe 3d8a 6a3d ffbb 903e
00000050: 107b bf3e e845 db3e 21b1 123f 347e be3d
00000060: 6ccf 10be 03a1 993e 26d6 bd3e ada6 023f
00000070: 83cb d73b b8bd 223e 82e7 223e 02eb ee3e
00000080: b393 763d 4fa9 14be 7789 a8bd af2f 82bd
00000090: 8d68 963d c774 87be c142 1bbe 35e3 413e
000000a0: c177 763e 4677 42be 939d 94bd a624 32be
000000b0: 73cb a03e 7783 8e3e 0c4d 1bbe 4c7e a23e
000000c0: 289d e0bd d2ce 823e 232d 1ebe aed3 32be
000000d0: 0253 953d 9733 29bd 3e15 d13e 98ca b23e
000000e0: f055 df3e eb9c 943e 9cd5 593e 923b 1cbe
000000f0: 8ad3 d33e 378a d83e 0409 953d 155b 763e
00000100: c62a cc3c 48a7 a7be fac7 f63e 296b dc3e
00000110: bebf f93c 9636 833e 0219 b43b eda6 bfbd
00000120: 8d11 a1bc 074e a1be 1e97 963e 6d9e 06be
00000130: 565d 84be 4a35 c5bd 2b77 4bbd 5dd7 48be
00000140: e67a e8bc 2e5d b43c 3d79 c03d 3cf6 83be
00000150: f4b6 1b3d e9ab a8bc 8dd2 7a3e b120 cabd
00000160: 9882 a33e 1c10 d83d d4b5 f6bb 025c a53c
00000170: a294 25b9 0032 a6be a98a bbbd 0e9d a5be
00000180: 7be0 94be c6c8 933e 8ccd aebc 6a02 cabb
00000190: 9ce7 9d3e ca01 b1bd da95 5abd 592e 6cbe
000001a0: 8ce8 443e 0351 4bbe 3c7d 32be f370 85be
000001b0: 8b82 7c3e 435d af3e 0972 143f 2116 103f
000001c0: 0cc7 233f 2e6c 993d 7d64 333d 43a1 d63e
000001d0: f4af e7bd 9b86 94be fd58 aabe 6072 843d
000001e0: 026c 223c 9e00 8138 0c03 80be 8982 8e3e
000001f0: 6b2e a53e 32b2 783e cb22 bbbe e9b7 67be
00000200: a5a3 ad3e 39ca b3be 20a5 08bd ec0c ca3e
00000210: 536c 8d3e 4570 ad3c a50d 8cbd 1437 a53e
00000220: 1467 1abe 37d6 9fbd aea8 bfbd 72b6 c3bd
00000230: 731a d23d c90b e7bd eb81 62be 52e1 5a3d
00000240: c551 223f 49ff 043f f066 d93e bb44 1f3f
00000250: 712a e83e c635 dbbd e23d 093f a61a 573e
00000260: 3195 b33e 25f7 8dbe 6b1e 823e e7c0 47be
00000270: f0af 583e 1566 94bd 93a5 8c3e 913b 91be
00000280: 43aa c93d ed23 79be 6f92 e4bd 1259 6fbc
00000290: d20e 893c 834e 9bbe 2e2b 543e cb63 66be
000002a0: 9f23 5d3e 011a 0d3d 2642 b7bd b704 b73e
000002b0: 7f4a 25bc 51ba 963e c411 253e 1d36 a63e
000002c0: 7c75 28be 816f c63e 36a8 44be cce4 f8bc
000002d0: 9db6 80bd 1ffc a93d 4044 2a3e 3386 933e
000002e0: 60c1 98be e93b 8fbe 1831 143d 9f66 883e
000002f0: 8c62 fb3d 420f 0bbe c0b6 5d3e afb2 25be
00000300: 9872 1d3e 6554 ce3d 04c1 4bbd 5912 14be
00000310: 4ffe 13be 0ea3 6c3e f9e7 ae3d a08e 48be
00000320: 1b55 9abe d3ca de3d 0c77 e9bb dedc a9be
00000330: d680 343e cc51 a7be e40e 933c d55f 923e
00000340: f338 f1bd 081c f33e 779a 003f 0b9c fd3e
00000350: 2558 163f 7cfc cd3e f77b 173f bce8 ecbd
00000360: f89f b83c 28d8 99be 6813 0d3d d06b a53e
00000370: c0d0 99bd 955e 833e 5bea 7c3d 4b3a a23e
00000380: d3f6 e03b 91a5 91be 6323 7bbe f3b7 7f3e
00000390: 7961 5f3d 5c99 dfbc dd3d 33be be95 22be
000003a0: 23d6 a13e 9629 213e aeff 49be 2dc8 86be
000003b0: 8fcf edbd dead a33e 2231 273c 7449 243e
000003c0: 8643 603d 90b2 a73d d401 90bc f98c a63e
000003d0: 9117 c1bd 3dd5 28bd feac 75be 42ea 473d
000003e0: ad82 bf3e f64d c13e ee0a 1e3e 3eb1 a53e
000003f0: a42d 463e 3d9b cf3c e7b7 5e3e 365e e63e

bias f4 [32]
0.29969233 0.26108396 0.046387043 0.10338859 -0.038234275 0.047421455 0.00018852987 0.042551223
0.15683304 0.06217354 0.112310514 -0.20466334 0.0001309532 0.23014039 0.2454207 -0.26487446
0.0003010335 -0.20551898 -0.12809445 -0.17353463 0.071555965 -0.064902306 -0.22826524 0.00016325571
-0.007088759 -0.1325882 -0.025082093 -0.16173619 -0.043876085 0.25018257 -0.30871102 0.049961813
00000000: 4671 993e ccac 853e 5700 3e3d 66bd d33d
00000010: 8b9b 1cbd 003d 423d 1ab0 4539 314a 2e3d
00000020: d798 203e afa9 7e3d 0e03 e63d 4493 51be
00000030: 7b50 0939 eca9 6b3e 904f 7b3e a09d 87be
00000040: 08d4 9d39 9173 52be 312b 03be 10b3 31be
00000050: ef8b 923d 80eb 84bd 5dbe 69be 9f2f 2b39
00000060: d248 e8bb 33c5 07be f678 cdbc 2c9e 25be
00000070: 69b7 33bd ee17 803e 5f0f 9ebe c2a4 4c3d

weight f4 [64, 32, 3, 3]
0.04683693 0.022564458 -0.03970197 0.061926793 0.071173236 0.028181031 0.0037333316 -0.0035595763
0.020138014 0.016423233 -0.033920255 0.032248788 -0.020271078 -0.0013662252 -0.016937101 -0.025130408
-0.037747648 -0.0059528183 0.05597958 0.061612792 -0.042903844 -0.040606666 -0.005398751 0.012373779
-0.002334019 0.043277904 0.07919918 0.06730134 0.01558883 -0.006078523 0.026767418 -0.042992227
-0.0073948326 -0.02234317 -0.032467816 0.059053693 -0.01651117 0.05594335 -0.033170305 -0.04359628
-0.006778218 0.043276235 0.04170179 0.0012216263 0.028292572 -0.016770555 -0.034355372 -0.036248665
-0.033910032 -0.03686382 0.011749059 -0.003947483 0.011631377 0.0087196715 -0.025539817 0.09768812
0.057158332 0.005136275 0.04548579 0.081337675 -0.07619849 -0.009469371 0.03565153 0.01197421
0.08425956 0.035929333 -0.057307437 -0.034772683 0.037420087 -0.031876866 -0.0612454 0.039914668
-0.0068998933 -0.027781108 -0.056746352 0.043688446 0.035377797 0.02416452 -0.032896537 0.060473073
-0.0009373176 -0.035859354 0.053061992 0.03957395 0.002639476 0.06502095 0.009938284 0.025902197
-0.03673158 0.04044266 0.042092226 0.0009841511 0.011704805 -0.0011284769 -0.054055285 0.045402166
0.031213298 -0.054904934 0.047006216 -0.0028170836 -0.05383983 0.014974315 -0.04064927 0.050480165
0.042365905 0.027002182 -0.016596982 0.02219385 0.08054352 0.0934026 0.014658441 -0.06435053
0.0023266869 0.07633741 -0.04478448 -0.008747942 0.03087224 -0.060404222 -0.051366597 0.066666715
-0.0637514 -0.013370357 0.026565589 0.049712043 -0.02232722 0.009569147 0.02249868 -0.030375633
-0.040917877 -0.011377345 -0.030990213 -0.018903142 0.006621971 0.036657996 0.040056158 -0.015782202
-0.04100725 0.021733396 -0.0044877897 0.04075414 -0.053255826 0.04038294 -0.029162627 -0.033122186
0.01655991 0.076735616 0.07422661 -0.07766428 -0.0008638774 0.100746304 -0.053112626 -0.012656044
0.09481044 -0.035319135 0.03289257 -0.0028094377 0.042372428 0.011450409 0.022771947 0.042309225
0.008866005 -0.036475707 0.03572171 -0.011683865 -0.005049567 0.013584819 0.005585539 0.058424417
-0.012744048 -0.046645783 -0.048115198 0.036325492 0.04210873 -0.029715713 -0.02510102 0.04043094
-0.0015017577 -0.03777409 0.022418045 -0.028443614 -0.0002802776 -0.034615763 0.05351057 0.003537765
0.025436042 -0.0061890087 0.01980863 -0.024326291 0.04477272 0.00327641 -0.027722923 0.038335543
-0.013814609 0.012813071 0.020509312 -0.026413273 -0.053227678 0.056973714 -0.0025047376 0.0020767362
-0.02332248 -0.058157474 0.053900212 0.016265336 0.0073914854 0.014974685 0.008231464 0.045056254
-0.013983628 -0.00023727906 -0.049228318 0.013576805 0.004685281 -0.03345157 0.053608004 0.045587044
-0.019094683 0.06521814 -0.045280278 0.0037501485 -0.05944233 0.044678558 -0.06477888 0.021519333
-0.03183402 -0.01887406 0.046078704 -0.03252365 0.049968302 0.053792443 0.0004641986 -0.047620334
-0.0106853815 -0.011517942 -0.029465038 -0.034867804 0.06194047 -0.06081572 0.03473097 -0.0069666267
-0.050395295 -0.008763438 -0.008042206 0.036739007 0.069628544 0.026232107 0.02584744 0.036758825
0.06747353 0.027015097 -0.006123036 -0.035476465 -1.2880589e-05 0.00326425 -0.032551143 -0.03157999
00000000: 15d8 3f3d 19d9 b83c 889e 22bd f3a6 7d3d
00000010: 46c3 913d e8db e63c e9aa 743b c847 69bb
00000020: 7af8 a43c 048a 863c f7ef 0abd 4e17 043d
00000030: 880f a6bc e912 b3ba adbf 8abc 49de cdbc
00000040: 479d 1abd dc0f c3bb d84a 653d b25d 7c3d
00000050: f1bb 2fbd 2d53 26bd 01e8 b0bb 64bb 4a3c
00000060: 57f6 18bb 2c44 313d 2e33 a23d 49d5 893d
00000070: 4b68 7f3c 592e c7bb 5847 db3c 9e18 30bd
00000080: 5a50 f2bb 0609 b7bc f9fc 04bd 49e2 713d
00000090: 6f42 87bc db24 653d 96dd 07bd 0392 32bd
000000a0: d01b debb 6c42 313d 7fcf 2a3d fa1e a03a
000000b0: d3c5 e73c 6762 89bc 38b8 0cbd 7b79 14bd
000000c0: 3fe5 0abd 84fe 16bd 207f 403c e359 81bb
000000d0: 8891 3e3c f4dc 0e3c e138 d1bc b610 c83d
000000e0: db1e 6a3d 334e a83b 4f4f 3a3d 5e94 a63d
000000f0: f40d 9cbd 6c25 1bbc 5707 123d 7a2f 443c
00000100: 4790 ac3d a32a 133d 34bb 6abd cd6d 0ebd
00000110: ce45 193d 5191 02bd 75dc 7abd 907d 233d
00000120: 8018 e2bb 3595 e3bc dd6e 68bd a8f2 323d
00000130: 4fe8 103d acf4 c53c 85be 06bd 9db2 773d
00000140: 52b6 75ba 42e1 12bd 8857 593d 4b18 223d
00000150: 0ffb 2c3b b429 853d 2fd4 223c d830 d43c
00000160: da73 16bd 34a7 253d e668 2c3d a2fe 803a
00000170: 83c5 3f3c 67e9 93ba 1369 5dbd 9ff7 393d
00000180: 08b3 ff3c ffe3 60bd 9789 403d d29e 38bb
00000190: 2787 5cbd d456 753c d97f 26bd 4ac4 4e3d
000001a0: df87 2d3d ae33 dd3c 65f6 87bc e0cf b53c
000001b0: 00f4 a43d dd49 bf3d f529 703c 36ca 83bd
000001c0: 547b 183b ca56 9c3d ee6f 37bd 8753 0fbc
000001d0: c8e7 fc3c 6b6a 77bd c865 52bd 8f88 883d
000001e0: 1890 82bd 580f 5bbc 14a0 d93c db9e 4b3d
000001f0: 93e7 b6bc e9c7 1c3c 274f b83c 52d6 f8bc
00000200: 8199 27bd 0b68 3abc 30df fdbc c3da 9abc
00000210: 1efd d83b b226 163d ed11 243d ad49 81bc
00000220: 38f7 27bd 3c0a b23c 4f0e 93bb d0ed 263d
00000230: c822 5abd 9568 253d 76e6 eebc 21ab 07bd
00000240: a6a8 873c 9027 9d3d 1f04 983d 730e 9fbd
00000250: d575 62ba 1454 ce3d a08c 59bd 4c5b 4fbc
00000260: fa2b c23d ccaa 10bd 5cba 063d 8b1e 38bb
00000270: b68e 2d3d 7f9a 3b3c 3c8c ba3c 704c 2d3d
00000280: b842 113c 8d67 15bd ee50 123d af6d 3fbc
00000290: d776 a5bb dc92 5e3c e606 b73b 714e 6f3d
000002a0: 69cc 50bc a60f 3fbd 7114 45bd 0aca 143d
000002b0: 347a 2c3d 5e6e f3bc a7a0 cdbc ea9a 253d
000002c0: a0d6 c4ba 01b9 1abd 0ca6 b73c 9502 e9bc
000002d0: 39f2 92b9 42c9 0dbd e62d 5b3d d9d9 673b
000002e0: 3f5f d03c 2bcd cabb b545 a23c ee47 c7bc
000002f0: 9a63 373d 0ab9 563b 2f1b e3bc bb05 1d3d
00000300: ab56 62bc eaed 513c 2503 a83c a660 d8bc
00000310: 4405 5abd 455d 693d 8626 24bb da19 083b
00000320: c90e bfbc 8836 6ebd 78c6 5c3d e23e 853c
00000330: 4634 f23b 6258 753c 43dd 063c e88c 383d
00000340: 961b 65bc 1dce 78b9 a2a3 49bd 3f71 5e3c
00000350: fc86 993b 8304 09bd 1194 5b3d 7bb9 3a3d
00000360: 746c 9cbc 1791 853d d077 39bd 0dc5 753b
00000370: cd79 73bd dd00 373d caaa 84bd 5049 b03c
00000380: 6464 02bd c69d 9abc 06bd 3c3d 8537 05bd
00000390: 90ab 4c3d 7755 5c3d ae5f f339 8a0d 43bd
000003a0: bd11 2fbc c0b5 3cbc aa60 f1bc 8bd1 0ebd
000003b0: 4ab5 7d3d e819 79bd 1042 0e3d 4d48 e4bb
000003c0: 4c6b 4ebd 8694 0fbc 75c3 03bc a47b 163d
000003d0: 6999 8e3d b7e4 d63c 03be d33c 6c90 163d
000003e0: 902f 8a3d c44e dd3c c0a3 c8bb c54f 11bd
000003f0: b519 58b7 07ed 553b 5954 05bd 055a 01bd

bias f4 [64]
-0.050966192 0.06483645 -0.014185331 0.0022492236 -0.009304596 -0.011092015 0.050815172 0.055558305
0.04617764 0.03708856 -0.027686026 -0.04231966 0.007890432 0.050520632 -0.029932164 -0.019356368
0.024144074 0.021015376 -0.006774677 0.025709482 -0.019435009 -0.03562711 0.014389933 -0.05253363
-0.02419809 0.08394441 0.020398593 0.064873785 -0.0337716 0.042440396 0.013335723 -0.009498517
-0.011645871 -0.052768636 0.02802191 0.059641995 -0.020801587 0.054720126 0.04719456 -0.0008203446
0.05278734 -0.03495171 -0.03961009 -0.015336196 -0.00305047 -0.017141895 0.04524723 -0.0016428021
0.00089410756 0.045428466 0.018063888 0.03220639 0.046259854 -0.0114507815 0.04649669 -0.047474273
-0.04065668 0.0389841 -0.010036558 0.009902083 0.013720627 -0.028646225 -0.009235333 -0.062226556
00000000: edc1 50bd f9c8 843d 9769 68bc b667 133b
00000010: 4e72 18bc 48bb 35bc 9223 503d 1b91 633d
00000020: c424 3d3d 2dea 173d cecd e2bc 6157 2dbd
00000030: df46 013c b9ee 4e3d 4c34 f5bc 3f91 9ebc
00000040: cbc9 c53c 7028 ac3c 1cfe ddbb b19c d23c
00000050: 2b36 9fbc bced 11bd c1c3 6b3c 812d 57bd
00000060: 133b c6bc 0ceb ab3d f31a a73c 8cdc 843d
00000070: 1754 0abd fbd5 2d3d 147e 5a3c ab9f 1bbc
00000080: 53ce 3ebc ed23 58bd 348e e53c 2a4b 743d
00000090: 1768 aabc 3622 603d 154f 413d 650c 57ba
000000a0: 8a37 583d 8629 0fbd 313e 22bd ab44 7bbc
000000b0: 65ea 47bb 296d 8cbc 2955 393d 4b53 d7ba
000000c0: 8b62 6a3a 3313 3a3d b8fa 933c d9ea 033d
000000d0: f97a 3d3d 0f9c 3bbc 5073 3e3d 6274 42bd
000000e0: 9e87 26bd cbad 1f3d 6070 24bc 593c 223c
000000f0: 7bcc 603c 7dab eabc cb4f 17bc 46e1 7ebd

weight f4 [64, 3136]
-0.015474395 0.0013594425 0.00091128645 -0.00027157288 -0.00073960115 0.0012623081 -0.008650019 -0.015238582
0.0073981085 -0.013886146 0.0078461 -0.013529945 -0.023441844 -0.013716701 0.011601726 0.008967613
-0.0016154523 0.0139614735 -0.05308107 -0.010901373 -0.010274133 -0.005746608 0.011555003 -0.015535057
-0.0003660247 -0.007545149 0.016390884 0.0032468177 0.014412148 -0.0024086896 -0.007326432 0.0072748116
-0.011078113 -0.012262762 0.0077873548 -0.011761097 0.017186739 -0.005675522 0.021482287 -0.008265782
0.0075738267 0.0021678375 0.00088034046 -0.0117531605 0.005602536 -0.008865214 -0.010012585 -0.0065721767
0.017030213 -0.012954005 0.01185772 -0.0014102918 -0.008171648 0.01977746 -0.0023968904 0.01502268
0.012715707 -0.010368212 -4.562412e-05 0.018612897 0.009943658 0.02211524 -0.008238475 0.013861596
-0.011219742 0.005379687 0.023470921 0.004789434 0.0046009272 0.0061736153 0.014341278 0.014917321
-0.006283432 -0.01025645 0.00013879527 -0.023186456 -0.0058420394 -0.014754488 0.008414381 0.004050841
0.01862752 0.020510841 -0.016237972 -0.009783235 -0.011487618 0.008432728 -0.00639957 0.00089310936
0.0065249912 0.021012263 0.0062740776 -0.013600256 -0.0020240708 -0.011739835 0.0076302565 -0.011763517
-0.01524331 0.018646324 0.00402644 0.013260902 0.007541033 0.017182007 -0.006080253 0.014243317
-0.0145804575 0.011716377 0.008786465 0.0033221298 -0.021022089 -0.014419589 -0.0018542545 0.004134267
-0.011636012 0.0017462169 -0.007348995 0.015323839 -0.013633757 0.007628499 0.011202358 0.0021397236
-0.00011478196 -0.005949606 -0.008929637 0.0097016925 -0.023188248 -0.011756431 -0.012481893 0.006908687
-0.0076568024 0.0037394161 -0.01890148 -0.010094929 0.009024235 0.010369089 0.013872342 0.0049101566
-0.01945615 -0.0010932296 0.004127217 0.015490964 -0.017180534 -0.008574048 -0.024444066 -0.0019224813
-0.0072192336 0.010824156 0.019146299 -0.008248095 0.0056966236 0.01458505 0.00011172114 -0.0053404076
0.017031554 -0.0031792077 0.014084249 -0.009682591 -0.011481052 -0.01209314 -0.012872187 -0.014316379
0.0046511283 -0.017576687 0.0140146 -0.010025508 0.0010137517 0.0010119735 0.0066652554 -0.0011723553
-0.014517356 -0.0033741083 -0.009326315 0.012386221 0.007145338 -0.016097693 0.014893137 0.0077775596
0.01423089 -0.008076209 0.0084272185 -0.013386015 -0.002814438 0.008368252 -0.0026277995 0.011766203
-0.016594471 -0.003921751 -0.0075857984 0.013815274 0.016699696 -0.005113519 0.0034739354 0.007866079
0.011726014 -0.0058472515 -0.002970308 0.0015071296 0.00345043 -0.0030405403 0.013890797 -0.0076018046
-0.0032682687 0.0066581164 -0.015439669 3.2658456e-05 0.0019577616 0.011311781 -0.0014309324 -0.029067721
0.0019009815 0.0042193825 -0.016165016 -0.0020797171 -0.0043063653 -0.0038235432 -0.02671694 0.017343054
0.015900068 0.0037111007 -0.010477212 0.016264834 0.009178202 -0.016179312 -0.00070374575 0.012826213
0.013378081 -0.0070746844 0.022447562 0.004041099 -0.022211058 -0.015167181 -0.008109718 0.0011737754
0.018352346 0.014193496 -0.011580612 0.018730933 0.01589206 0.0023843413 -0.01220091 -0.021180188
-0.01612811 0.001369644 -0.016115924 0.014387994 0.0028481504 0.007696402 -0.011013472 -0.0025188096
0.004680524 0.010676675 -0.0094491225 -0.00558271 0.0088642845 0.0007121183 -0.016483303 0.016787974
00000000: 5188 7dbc 522f b23a 66e3 6e3a e561 8eb9
00000010: cbe1 41ba 0874 a53a cfb8 0dbc 3fab 79bc
00000020: d56b f23b b882 63bc ee8c 003c b4ac 5dbc
00000030: 1c09 c0bc 04bc 60bc 2a15 3e3c e5ec 123c
00000040: 96bd d3ba aabe 643c 896b 59bd ac9b 32bc
00000050: d654 28bc 0b4e bcbb 3251 3d3c c086 7ebc
00000060: 01e7 bfb9 4c3d f7bb 2d46 863c 90c8 543b
00000070: ee20 6c3c 1bdb 1dbb 9112 f0bb 8b61 ee3b
00000080: f980 35bc c0e9 48bc 112d ff3b 9eb1 40bc
00000090: 34cb 8c3c bbf9 b9bb 9ffb af3c 346d 07bc
000000a0: dd2d f83b 4712 0e3b a6c6 663a 5490 40bc
000000b0: 7a95 b73b 673f 11bc d30b 24bc 6a5b d7bb
000000c0: f282 8b3c 093d 54bc e246 423c 8ad9 b8ba
000000d0: 60e2 05bc 5704 a23c 2615 1dbb b021 763c
000000e0: 8a55 503c 6fdf 29bc 875c 3fb8 137a 983c
000000f0: b9ea 223c 052b b53c abfa 06bc bf1b 633c
00000100: 02d3 37bc 1648 b03b 1746 c03c aff0 9c3b
00000110: 60c3 963b 0a4c ca3b aef7 6a3c c767 743c
00000120: 3fe5 cdbb ab0a 28bc 9289 1139 86f1 bdbc
00000130: 946e bfbb cfbc 71bc 79dc 093c ebbc 843b
00000140: be98 983c 5a06 a83c 7f05 85bc dd49 20bc
00000150: 9036 3cbc 6d29 0a3c 7cb3 d1bb 8e1f 6a3a
00000160: 98cf d53b e921 ac3c c796 cd3b 9cd3 5ebc
00000170: 46a6 04bb 7058 40bc 3b07 fa3b c4bb 40bc
00000180: 13bf 79bc 2dc0 983c 3af0 833b 4144 593c
00000190: c51a f73b 48c1 8c3c dc3c c7bb cd5c 693c
000001a0: dfe2 6ebc 0cf6 3f3c 1bf5 0f3c 17b8 593b
000001b0: 8436 acbc 2440 6cbc 750a f3ba bf78 873b
000001c0: f9a4 3ebc 51e1 e43a d7cf f0bb d710 7b3c
000001d0: 1f60 5fbc 7df8 f93b 188a 373c 9b3a 0c3b
000001e0: 18b7 f0b8 eaf4 c2bb 9d4d 12bc d9f3 1e3c
000001f0: 48f5 bdbc 0c9e 40bc db80 4cbc 4462 e23b
00000200: eae5 fabb fe10 753b 47d7 9abc 3365 25bc
00000210: 63da 133c 1de3 293c d248 633c 61e5 a03b
00000220: 8162 9fbc b34a 8fba 9b3d 873b d0cd 7d3c
00000230: 31be 8cbc 2a7a 0cbc ec3e c8bc c5fb fbba
00000240: 528f ecbb cd57 313c b3d8 9c3c 0523 07bc
00000250: beaa ba3b 22f6 6e3c d54b ea38 96fe aebb
00000260: c285 8b3c 415a 50bb 9fc1 663c bba3 1ebc
00000270: 061b 3cbc 4e22 46bc dee5 52bc 3f8f 6abc
00000280: 7e68 983b fcfc 8fbc 7e9d 653c 0742 24bc
00000290: dddf 843a 32a4 843a 3768 da3b b7a9 99ba
000002a0: 34da 6dbc 2520 5dbb 66cd 18bc 94ef 4a3c
000002b0: 7123 ea3b 4fdf 83bc 5802 743c e6da fe3b
000002c0: ae28 693c 1352 04bc 5112 0a3c 0451 5bbc
000002d0: 6f72 38bb fe1a 093c 2937 2cbb 08c7 403c
000002e0: 21f1 87bc 0882 80bb 4a92 f8bb 7659 623c
000002f0: cdcd 883c 4e8f a7bb f7aa 633b bae0 003c
00000300: 781e 403c 4d9a bfbb 80a9 42bb e18a c53a
00000310: 9c20 623b cd43 47bb 3a96 633c 8f18 f9bb
00000320: 7330 56bb 542c da3b aaf6 7cbc c0fa 0838
00000330: ca4d 003b 0c55 393c 208e bbba 6e1f eebc
00000340: 5b2a f93a bf42 8a3b 7f6c 84bc dd4b 08bb
00000350: 691c 8dbb 6994 7abb 7cdd dabc 0513 8e3c
00000360: dc40 823c f035 733b 9da8 2bbc d43d 853c
00000370: 2b60 163c 7a8a 84bc 947b 38ba 0925 523c
00000380: bd2f 5b3c c1d2 e7bb f3e3 b73c 326b 843b
00000390: f7f3 b5bc c57f 78bc 9fde 04bc 5ed9 993a
000003a0: a957 963c d68b 683c 9bbc 3dbc 9d71 993c
000003b0: 1130 823c 9c42 1c3b 53e6 47bc 1382 adbc
000003c0: 191f 84bc a085 b33a 8b05 84bc 9fbb 6b3c
000003d0: 09a8 3a3b 1932 fc3b da71 34bc 9d12 25bb
000003e0: 155f 993b 38ed 2e3c 7ed0 1abc 2aef b6bb
000003f0: 813b 113c 73ad 3a3a fe07 87bc ef86 893c

bias f4 [64]
0.016135741 -0.0132189095 0.027305162 0.004567368 0.010773586 -0.0060493066 -0.011061266 0.004129648
0.009039868 0.008421908 0.016923299 0.0063491603 0.0065410915 -0.014579395 -0.0037286864 0.00044835723
-0.008913149 -0.0074588903 -0.013264637 0.006749665 0.002830035 -0.013318526 -0.004820535 -0.0068233735
0.0132996105 0.010935902 0.00733374 0.0054187723 0.014206761 0.00025021608 -0.0071340986 0.0087612625
0.006198897 -0.002933946 0.0147517 0.0061728475 -0.0014716855 -0.0057732514 0.014054095 0.023811944
0.004092805 0.016009772 -0.012652932 -0.0099960165 0.012189421 0.007428014 0.017485473 -0.008936002
-0.0139501365 0.013337485 0.0036215703 0.0077910493 0.0062502855 -0.007074792 0.0029145556 -0.016289331
-0.014523095 0.014745831 -0.008947318 0.046887055 -0.019008761 0.007673695 -0.007681709 -0.004937938
00000000: 1a2f 843c 2094 58bc 13af df3c dca9 953b
00000010: b283 303c 4339 c6bb 503a 35bc 0052 873b
00000020: f41b 143c 0bfc 093c bba2 8a3c 9e0c d03b
00000030: a756 d63b 6ade 6ebc fa5c 74bb 7d11 eb39
00000040: 7508 12bc b569 f4bb ec53 59bc 4b2c dd3b
00000050: 1c78 393b f235 5abc 94f5 9dbb 9b96 dfbb
00000060: 9ce6 593c 7f2c 333c df4f f03b f58f b13b
00000070: 79c3 683c 6f2f 8339 28c5 e9bb 668b 0f3c
00000080: 1e20 cb3b 7247 40bb 1db1 713c 9945 ca3b
00000090: 92e5 c0ba 8b2d bdbb 2643 663c 4411 c33c
000000a0: f01c 863b ed26 833c 3e4e 4fbc 55c6 23bc
000000b0: 23b6 473c b366 f33b b23d 8f3c 4f68 12bc
000000c0: 1d8f 64bc 7785 5a3c de57 6d3b 0f4c ff3b
000000d0: 32cf cc3b a8d3 e7bb 2102 3f3b 3471 85bc
000000e0: 47f2 6dbc 7f98 713c c697 12bc a40c 403d
000000f0: 43b8 9bbc 9f73 fb3b d8b6 fbbb 6dce a1bb

weight f4 [10, 64]
-0.04840195 0.05712343 -0.17774059 0.015282603 -0.14284903 0.03391413 -0.06353922 0.094679154
-0.0996044 0.092386544 0.07321573 -0.24893674 0.14460157 -0.08049724 0.049484935 0.07531288
0.029182777 -0.10646204 -0.031751845 0.05813543 0.059329905 0.06386069 0.012128222 0.11905621
-0.0627955 -0.012297536 -0.018980628 -0.23978035 -0.073217995 -0.11367984 -0.06397696 -0.115666345
-0.12236439 -0.017499238 0.17673193 0.07279483 0.16577962 0.104687184 0.020468237 -0.20179336
-0.103477485 0.06600915 0.013603374 0.07568509 0.04447566 -0.18062371 -0.04451535 0.23770295
0.2716629 -0.0070972703 -0.07581292 0.060643192 -0.030943086 0.06947205 -0.31563783 -0.007746139
0.03678706 0.07969862 0.13297701 0.1134138 0.13887505 0.13286425 0.056091405 -0.0012853409
0.20798013 0.03676917 -0.09518777 0.058534842 0.1169021 -0.16370495 -0.057643984 -0.09714733
-0.0042025414 0.12511057 -0.1290242 -0.0008552722 0.17607825 -0.15905249 -0.011202279 -0.031135997
0.07576904 -0.03282876 -0.106204905 0.096134596 -0.26300323 0.13227485 0.11657979 -0.013849976
0.021737946 -0.15040511 0.10978158 0.0651779 0.15776965 0.13456334 0.10523999 0.2182069
0.039618514 -0.0067763436 0.06544824 -0.031972192 -0.047737297 -0.048801832 -0.089730226 0.16911699
-0.33616468 -0.19146425 0.018277034 0.088925846 -0.056580912 0.0564114 0.081197426 -0.22313632
-0.1740136 0.067635216 0.24141017 -0.03349719 -0.0040681497 0.13956071 0.1111653 0.08384021
-0.09890345 -0.14131041 0.014080358 0.018567622 -0.17007354 -0.26883113 -0.09986997 0.05852466
-0.012221406 -0.1172291 -0.11494157 -0.03503382 0.05381875 0.08502199 0.060973547 0.07703213
0.013249372 0.16592205 0.21718204 -0.2747028 -0.324168 0.22925584 -0.15543912 -0.06443691
-0.059336174 -0.30268732 -0.12976791 0.20158851 -0.05771331 0.26460323 -0.055093676 -0.017901586
0.06968734 0.08168371 -0.035631727 0.08334043 0.1731462 0.10390119 -0.036158126 0.02156073
0.09730795 0.1700611 -0.14460878 -0.06474586 -0.13002065 -0.06940418 -0.059400722 0.13403994
0.056839056 0.11199817 -0.09865111 0.045607027 -0.11526298 0.027524834 -0.02892937 -0.08016912
0.11702643 0.19171263 -0.008261931 0.024338325 -0.114525266 0.035935502 -0.026448216 -0.06012764
-0.06266573 0.20618334 0.0063974056 -0.26020688 0.19547562 -0.11607973 0.05569624 0.016991211
-0.1311418 -0.101609275 0.11322658 0.09892632 -0.07147201 -0.18796957 -0.05222428 -0.08490441
0.04693087 0.1599105 0.051382504 0.06592727 -0.25339952 -0.007711279 0.17003843 0.18629798
0.0044167126 0.017331196 -0.20774332 -0.052607153 0.12830454 0.13523251 -0.06358682 0.13198328
0.21731517 -0.0023486638 0.030084133 0.16472623 0.13740921 -0.028142087 0.0459586 -0.011815667
0.10209242 0.031694233 -0.27356303 -0.04571681 -0.10149262 -0.16532074 -0.08948344 0.020135362
-0.0738145 0.11230064 -0.123358965 0.24671708 -0.1165474 -0.23825562 -0.0009647842 0.12430241
-0.006471682 -0.16437879 -0.08888517 -0.038958047 0.0450982 -0.13761678 0.2805538 0.012376205
-0.047527656 -0.12926193 -0.051653177 -0.22770816 -0.027755763 -0.07569877 0.045942377 -0.0052532605
00000000: 2041 46bd 42fa 693d a101 36be e263 7a3c
00000010: 0447 12be 8be9 0a3d da20 82bd 25e7 c13d
00000020: 64fd cbbd 2835 bd3d 21f2 953d 46e9 7ebe
00000030: 6f12 143e bddb a4bd b7b0 4a3d a43d 9a3d
00000040: b810 ef3c c508 dabd 390e 02bd 6b1f 6e3d
00000050: ea03 733d 65c9 823d 73b5 463c bed3 f33d
00000060: ed9a 80bd 9b7b 49bc 437d 9bbc fb88 75be
00000070: 51f3 95bd fad0 e8bd 5a06 83bd 7ae2 ecbd
00000080: 2e9a fabd 905a 8fbc 37f9 343e 7515 953d
00000090: 22c2 293e 3c66 d63d 01ad a73c eba2 4ebe
000000a0: 01ec d3bd ce2f 873d b0e0 5e3c c900 9b3d
000000b0: 1c2c 363d 6cf5 38be ba55 36bd 6768 733e
000000c0: 6617 8b3e 3890 e8bb ce43 9bbd ff64 783d
000000d0: 5b7c fdbc 5d47 8e3d 489b a1be 53d3 fdbb
000000e0: 07ae 163d 0839 a33d 202b 083e 7f45 e83d
000000f0: 4335 0e3e 910d 083e 1ac0 653d e278 a8ba
00000100: bef8 543e 459b 163d cef1 c2bd 3bc2 6f3d
00000110: 5e6a ef3d 45a2 27be 191c 6cbd 2ef5 c6bd
00000120: 79b5 89bb fc1c 003e eb1e 04be 5934 60ba
00000130: db4d 343e a8de 22be c389 37bc eb10 ffbc
00000140: cc2c 9b3d 7377 06bd f581 d9bd 37e2 c43d
00000150: 5ca8 86be 0f73 073e 63c1 ee3d 02eb 62bc
00000160: c713 b23c cc03 1abe 2ad5 e03d fe7b 853d
00000170: 5e8e 213e f9ca 093e 1088 d73d a171 5f3e
00000180: 0647 223d 170c debb ba09 863d 46f5 02bd
00000190: 2f88 43bd 6ee4 47bd 7bc4 b7bd 012d 2d3e
000001a0: c71d acbe 340f 44be b8b9 953c c11e b63d
000001b0: 63c1 67bd a40f 673d d64a a63d d97d 64be
000001c0: 9f30 32be 5584 8a3d 3a34 773e 5934 09bd
000001d0: 1d4e 85bb 01e9 0e3e a2aa e33d 6bb4 ab3d
000001e0: e48d cabd adb3 10be 4db1 663c 201b 983c
000001f0: c227 2ebe 3ca4 89be a088 ccbd 8eb7 6f3d
00000200: 4b3c 48bc cf15 f0bd 7c66 ebbd 9f7f 0fbd
00000210: 0d71 5c3d 0220 ae3d 66bf 793d 05c3 9d3d
00000220: e513 593c 78e7 293e f864 5e3e d8a5 8cbe
00000230: 59f9 a5be 0bc2 6a3e 6f2b 1fbe 80f7 83bd
00000240: 7d0a 73bd d5f9 9abe e1e1 04be 386d 4e3e
00000250: cb64 6cbd 137a 873e e8a9 61bd 59a6 92bc
00000260: 3cb8 8e3d ca49 a73d 93f2 11bd 63ae aa3d
00000270: 3d4d 313e 26ca d43d 8b1a 14bd 21a0 b03c
00000280: 6449 c73d 7f24 2e3e 5314 14be 7a99 84bd
00000290: 2224 05be c723 8ebd 2c4e 73bd c441 093e
000002a0: 12d0 683d 4c5f e53d 9809 cabd 6fce 3a3d
000002b0: ff0e ecbd c37b e13c 49fd ecbc b52f a4bd
000002c0: 8eab ef3d 5150 443e 0d5d 07bc 2b61 c73c
000002d0: 398c eabd 1b31 133d eea9 d8bc 6648 76bd
000002e0: e456 80bd ba21 533e 54a1 d13b d639 85be
000002f0: c32a 483e 36bb edbd be21 643d 2731 8b3c
00000300: 094a 06be 8618 d0bd 56e3 e73d e299 ca3d
00000310: eb5f 92bd 187b 40be 20e9 55bd 5de2 adbd
00000320: 953a 403d 94bf 233e 7676 523d e004 873d
00000330: 95bd 81be e6ae fcbb 8e1e 2e3e e6c4 3e3e
00000340: 12ba 903b 27fa 8d3c aaba 54be 997a 57bd
00000350: 4462 033e 647a 0a3e cf39 82bd a026 073e
00000360: de87 5e3e 0aec 19bb 0073 f63c fead 283e
00000370: 00b5 0c3e 3c8a e6bc 163f 3c3d 8096 41bc
00000380: d515 d13d d0d1 013d 7410 8cbe 8d41 3bbd
00000390: 5ddb cfbd d749 29be 1843 b7bd eaf2 a43c
000003a0: 0e2c 97bd e1fd e53d a0a3 fcbd 67a3 7c3e
000003b0: 67b0 eebd 48f9 73be 92e9 7cba 4392 fe3d
000003c0: 6710 d4bb ea52 28be 6e09 b6bd 7992 1fbd
000003d0: e4b8 383d 6aeb 0cbe bfa4 8f3e 91c5 4a3c
000003e0: 5cac 42bd 3d5d 04be 4892 53bd 542c 69be
000003f0: 0e60 e3bc f507 9bbd 132e 3c3d 8b23 acbb

bias f4 [10]
0.0178774 0.028121853 0.010182063 -0.015433167 0.064304605 -0.050190046 -0.1439997 0.08339163
-0.038500924 -0.01191573
00000000: a073 923c cd5f e63c abd2 263c 65db 7cbc
00000010: 22b2 833d 1494 4dbd a874 13be 3bc9 aa3d
00000020: 25b3 1dbd 323a 43bc
