mlflow/mlartifacts/917714700599549108/4173e2e68e634767be47377a7a0ee8a9/artifacts/model/data/model.pth (torch, 887400 bytes, 8 tensors)

weight f4 [32, 1, 3, 3]
000000 59 76 3e 3e 75 a0 ad be 50 3a db be c1 b5 81 3e
       0.18599834 -0.33911481 -0.42817926 0.2533398
000010 bd c6 0d bf a9 23 bd 3d c5 59 52 be 46 54 e5 be
       -0.55381376 0.09235317 -0.20542057 -0.44790858
000020 6d 7d 40 be 91 8e 03 3e eb af 77 be 01 5f ae bd
       -0.18797846 0.12847354 -0.24188201 -0.08514214
000030 ec 7b 7a 3e c4 59 28 be 51 6b 86 3e 01 f0 e8 3e
       0.24461335 -0.16440493 0.2625375 0.45495608
000040 44 da b0 ba a6 1b 5d be ac 0c 0b 3e 84 fc 84 3e
       -0.0013492783 -0.21592578 0.13579053 0.25973904
000050 da 75 df 3d 81 2f 93 bd cb de 9f 3e e2 e3 f1 bb
       0.1091115 -0.07186795 0.31224665 -0.007381902
000060 40 9d 7a 3d c0 00 6f 38 25 14 ba bd 13 13 a3 be
       0.06118512 5.698274e-05 -0.090858735 -0.3185049
000070 c0 33 af 3e 73 f2 83 3e 50 89 e9 bc 4f 51 a4 3e
       0.3421917 0.25770912 -0.028507859 0.32093284
000080 6a d8 7b bc fb 03 cc 3e fa f5 2b be 18 d8 39 3e
       -0.015371421 0.39846787 -0.16793051 0.1814884
000090 ca 15 eb 3d d8 07 85 3e 7e 8b 84 be 30 fa ae bc
       0.11478765 0.25982547 -0.25887674 -0.021359533
0000a0 57 f8 cc 3e 4e 1b 9d 3e a5 b1 10 be d9 6b af 3e
       0.40033218 0.30684894 -0.14130266 0.3426197
0000b0 24 26 3d 3e a2 b7 0d 3e aa c6 81 be 94 a8 27 be
       0.1847158 0.13839582 -0.2534688 -0.16372901
0000c0 d5 0f 27 be 56 53 a4 3d 2c 97 a2 3d 01 5d dd bd
       -0.16314633 0.080237076 0.0793899 -0.10808755
0000d0 0c af b4 3c 58 90 c8 bd 31 95 ba 3e 07 41 1c be
       0.022056125 -0.097931564 0.3644195 -0.15259181
0000e0 55 02 00 bf 70 ad b4 3e aa aa 76 be 0e da 82 3e
       -0.5000356 0.35288572 -0.2408854 0.25556988
0000f0 bb 7b a3 bd 8d 06 ce 3d 33 2b 5f bd db b0 1f be
       -0.07982584 0.10059843 -0.054484557 -0.15594809
000100 06 b7 bd 3e 01 68 cb 3e 27 d5 00 bf d5 7e 36 bf
       0.37053698 0.39727786 -0.50325245 -0.7128728
000110 9f 6c 8d be 87 77 a3 3e 9c 2c fc bc 07 eb 11 be
       -0.27621934 0.3192713 -0.03078299 -0.14249812
000120 22 21 b6 bc e6 31 12 3f 49 80 aa 3c f4 b8 0b bf
       -0.022232596 0.5710739 0.020813124 -0.5457909
000130 66 b1 cd 3d 7e b6 03 3f f0 11 a6 be ea da 9a be
       0.10043602 0.51450336 -0.3243556 -0.30245143
000140 8b 8d 88 3e db 2f 79 bd f2 f4 a4 be b6 8e 1b be
       0.2667049 -0.060836654 -0.32218128 -0.15191159
000150 47 ee 8a 3e 97 73 f2 3e c1 fc da 3e 9d f3 59 be
       0.27134916 0.47353813 0.4277096 -0.21284337
000160 80 2c ec bd 06 57 a8 be a7 6d bb 3e c3 8f 03 bd
       -0.11531925 -0.32878894 0.36607096 -0.032119524
000170 c8 8d ce bd 52 e7 ce 3e 33 48 4a 3d d8 fa cc be
       -0.100856364 0.40410858 0.04938526 -0.4003513
000180 03 e9 a9 3e ba 68 be bd cb 83 ab be cb 4e 48 b9
       0.33185586 -0.09297319 -0.33498988 -0.00019102839
000190 ce 40 f2 3e b6 17 bc 3e 8d 30 96 be 42 8f 92 3e
       0.47315067 0.3673684 -0.29333916 0.28624922
0001a0 59 5a fd bd 35 47 d3 be bd 29 bb 3e 9c 33 58 be
       -0.12370748 -0.41265264 0.3655528 -0.21113437
0001b0 ed 83 9c 3e 13 fe 44 3e 99 5f ca 3e 8d df 91 bd
       0.305694 0.19237547 0.3952606 -0.07122717
0001c0 e0 dc a5 bd e7 1f c2 be 57 4d 2d bd cc 08 f2 be
       -0.08098769 -0.37914965 -0.042310085 -0.47272336
0001d0 a2 2b 54 be 0f 6c 28 3e 74 56 ac 3e 41 0b c8 be
       -0.2071977 0.16447471 0.33659708 -0.39071086
0001e0 05 1d 35 3e 7c 75 40 3e cd fd c5 be bf 35 cd 3d
       0.17686851 0.18794817 -0.38670197 0.10020017
0001f0 9a 17 c3 3e 6e 45 ce 3d 9b 3e a2 3b 43 4f 00 bf
       0.38103944 0.100718364 0.004951311 -0.50120944
000200 b6 35 ce be ce 89 f7 be dd 84 0d be 11 3b 82 3b
       -0.40275353 -0.48347324 -0.13820215 0.0039743264
000210 80 00 88 be 46 fe 92 3d b3 3e 9a 3d 87 2a 3c 3e
       -0.2656288 0.07177405 0.0753149 0.18375598
000220 4f cd c3 3e d2 68 ad be 83 dd e0 3d b4 fd 13 3e
       0.38242576 -0.33869034 0.1097975 0.14452249
000230 b8 1c 25 bd 09 38 11 3e b3 f3 bb 3e 6a 7c bd 3e
       -0.04031059 0.14181532 0.36709365 0.37008983
000240 1c 4a 61 3e fb 92 13 3e a0 2f b5 be 5f 71 f2 3e
       0.22000927 0.14411537 -0.35387897 0.4735212
000250 a3 ee 51 be 57 ca b7 be 72 7d 14 3e aa 2b 3c 3e
       -0.20501189 -0.3589656 0.14500979 0.18376032
000260 37 4b d2 bd 67 da 95 be 13 95 a2 3e d5 db 9f be
       -0.10268252 -0.2926819 0.3175436 -0.31222406
000270 f7 a2 54 3e e0 2b 0e be 3f 83 42 bc e8 30 67 be
       0.20765291 -0.13883924 -0.011872112 -0.2257725
000280 eb cf 8b be a3 fa b4 bc eb bf d7 3e 85 83 9e 3e
       -0.27307066 -0.02209217 0.4213861 0.30959716
000290 44 98 c7 3e 2f 85 9e be 7c bf 3a 3d 9e 54 ed 3d
       0.38983357 -0.30960986 0.04559277 0.11588405
0002a0 e5 b5 91 be 73 09 07 bf 32 73 d0 be f9 45 a7 3e
       -0.28459087 -0.52748793 -0.40712887 0.32670572
0002b0 b9 6b 84 be 2e 45 07 bf 1f 7b d9 3e be 6e a2 bc
       -0.25863436 -0.52839935 0.42476746 -0.019828197
0002c0 1c a4 9e bd 71 cc 99 3e 51 9c df 3e db 85 5f 3e
       -0.07746145 0.3003879 0.43673947 0.21828406
0002d0 76 d7 51 bd 46 92 1f be 96 6f 8f 3c ab b9 09 3d
       -0.05123087 -0.15583143 0.017509263 0.033624332
0002e0 a0 4e 81 3d 93 82 0a be c0 75 e8 bd 62 63 91 be
       0.06313825 -0.13526373 -0.11350584 -0.28396136
0002f0 90 ac c5 bd 3c d5 9e 3e 8e 29 e6 bd 01 47 2d be
       -0.09652054 0.3102206 -0.11238395 -0.16921617
000300 92 a8 2b bd 49 b3 4b be 42 80 8f 3e 32 38 13 3e
       -0.041908808 -0.1989261 0.2802754 0.14376906
000310 05 d4 e4 3d c9 0f 9b 3e e7 b9 f8 3e 05 c9 a0 3e
       0.11173252 0.3028548 0.48579332 0.31403366
000320 0e 71 fa 3d 86 53 d1 be b9 a1 9f bc 5b 02 a5 3e
       0.12228595 -0.40884036 -0.019486295 0.3222836
000330 71 f2 12 bf 32 69 ca be 75 14 a2 bd c8 1c 52 be
       -0.57401186 -0.39533383 -0.07914058 -0.20518792
000340 13 78 00 be c9 b0 f0 be 46 04 a9 3e 2d eb 3c 3e
       -0.12545805 -0.47009876 0.33011073 0.18449087
000350 58 8e df 3e 4e ee c7 3e 69 66 ce bd 1e 5b 96 3e
       0.43663287 0.39049 -0.10078127 0.29366392
000360 3f 28 8a be 07 3c a2 be ad bd 77 be 51 d2 21 3e
       -0.2698383 -0.31686422 -0.2419345 0.15802886
000370 d6 5a 1e 3e bd 86 df 3e 2d 23 ad 3e 06 95 4b 3e
       0.15464339 0.43657485 0.338159 0.19881067
000380 b4 b2 c3 bd d2 bf 90 be de 64 19 bf 0f b0 98 be
       -0.09555569 -0.28271347 -0.59919536 -0.29821822
000390 b5 48 98 3e 40 d5 89 be fc c6 d9 3d 3d e1 fd 3e
       0.2974297 -0.2692051 0.106336564 0.49585906
0003a0 ef be ac bd 72 d6 03 3f 9e b8 39 bf 93 c9 34 be
       -0.08434855 0.5149909 -0.7254733 -0.1765502
0003b0 d4 17 4c 3d 75 aa be be af fd 07 be ce 69 14 3f
       0.04982741 -0.37239423 -0.13280366 0.57973945
0003c0 62 cb 92 3e 99 9e 15 3f 22 96 01 3f ec 25 3f bd
       0.28670794 0.58445126 0.5061971 -0.046667024
0003d0 9f 58 91 3e 5d 38 89 bd 6a 59 59 3e 9a 71 e9 3e
       0.28387925 -0.067002036 0.21225515 0.45594484
0003e0 81 14 64 3e 31 a4 84 3d 2d 87 98 be 02 bf 41 3e
       0.22273447 0.064766295 -0.2979063 0.1892052
0003f0 b9 d0 ad 3e 3a c4 82 3c 4a 2f 7c 3e 50 01 c1 3e
       0.33948305 0.015962709 0.24627414 0.37696314

bias f4 [32]
000000 05 0a a4 3e ba 88 4d bc c7 f6 e5 3b 57 55 22 3e
       0.32038894 -0.012544805 0.0070179435 0.15852867
000010 a4 3f 86 bd 87 70 35 be b2 b3 19 3a 7c 09 3c 3e
       -0.06555107 -0.17718707 0.00058632635 0.18362993
000020 53 6f ff bd f5 a2 04 bb 80 eb ce bd 92 c1 4e bb
       -0.12472405 -0.0020238732 -0.10103512 -0.0031548482
000030 d6 d1 9f 3e 5f dc 86 bd 36 fd b0 3e 96 78 8d be
       0.3121478 -0.06585001 0.34568185 -0.27631062
000040 5f 1d 83 bd a9 78 a3 be a5 f2 52 3e fc 6f 21 bd
       -0.064020865 -0.31927994 0.20600374 -0.039413437
000050 74 e4 95 be d9 25 3b bd ea c9 38 3e 96 9c 68 bd
       -0.29275858 -0.04569039 0.18045774 -0.056789957
000060 e3 ca b3 3d 74 c8 04 3e 22 34 b0 bd 3b d7 c1 bd
       0.08778932 0.12967092 -0.086036935 -0.0946488
000070 2f 89 c6 bc ea 95 52 be db 66 27 bd b7 a1 94 3d
       -0.024235336 -0.20565 -0.040869575 0.07257407

weight f4 [64, 32, 3, 3]
000000 7d f9 06 be 3c d1 0e be 95 04 32 bd 31 e1 f6 bc
       -0.1318111 -0.13947004 -0.0434614 -0.030136677
000010 2a db c5 bd 8e b0 e9 bd aa 51 b2 bb 1a 32 fb bd
       -0.09660943 -0.11410628 -0.005441864 -0.122654155
000020 8a a0 72 be a0 a7 1f bd bb ca 49 bd ea 61 6d 3d
       -0.23694053 -0.03897822 -0.049265604 0.057954706
000030 15 23 29 3c dc df d5 bd 87 17 f4 3d 39 29 06 be
       0.010323306 -0.104430884 0.1191855 -0.13101663
000040 82 d3 0c be 34 8b 60 3d 46 51 d9 3a 04 ab cb bc
       -0.13752559 0.054820254 0.0016580008 -0.02486182
000050 10 de 79 bd ea 34 57 bb 33 a6 2c 3c d8 1c cd bd
       -0.06100279 -0.0032837936 0.010537672 -0.10015267
000060 09 59 8c bd 80 8d 40 bc 99 e9 9d 3d 20 27 18 bd
       -0.068529196 -0.011752486 0.07710571 -0.037146688
000070 3f a7 c3 bc cc fa 2c bd eb 13 ed 3c 3f 13 2f bc
       -0.02388346 -0.042231366 0.028940162 -0.010685741
000080 69 19 a7 bd db 45 c5 bd 57 da 2f 3d 5a 12 87 bc
       -0.081591435 -0.096324645 0.042932834 -0.016488243
000090 c8 f9 80 3d 88 86 a3 3d 37 ca 8b bc 91 56 15 bd
       0.06297642 0.07984644 -0.017064197 -0.03645951
0000a0 0d 7e 8f 3c 59 c8 1b bd 5f 17 92 bd f7 5c df 3d
       0.01751616 -0.038032863 -0.07133364 0.109064035
0000b0 3f 96 a8 3d 82 7d 80 3d e8 a6 ba 3b b8 27 db 3c
       0.08231782 0.06273939 0.0056961663 0.026752338
0000c0 6b 24 9a bc f1 52 1a bd 12 96 d1 bc 22 81 8b bc
       -0.018816194 -0.037676755 -0.025584254 -0.017029349
0000d0 fd cd 5a bd 26 ea 81 3d ce 06 80 bd fc 33 d0 ba
       -0.053419102 0.063434884 -0.06251298 -0.0015884633
0000e0 fd 69 43 3b 33 f6 04 be 16 04 03 bd 08 1c cf 3d
       0.0029817813 -0.12984543 -0.03198632 0.101127684
0000f0 fc 10 5a bc 52 9b 3b bd d2 de ac 3d 88 8c 94 be
       -0.013309713 -0.045802422 0.08440937 -0.29013467
000100 63 76 1a be c4 d1 15 be a4 d8 8c be e1 1a 2a be
       -0.15084223 -0.146308 -0.27509034 -0.16611816
000110 6c de 31 bd 2d c0 7c bd 66 3c 08 bc d5 b6 50 bd
       -0.04342501 -0.06170671 -0.008315181 -0.050955612
000120 6c 16 d0 3d 6e 61 ff bd bc 0e 84 be d3 58 3b bd
       0.10160527 -0.12469755 -0.2579249 -0.045739006
000130 4e 39 49 3e d4 ff 25 be 66 bc 0f be a5 9f b6 3e
       0.19650766 -0.16210872 -0.14036712 0.35668674
000140 49 43 82 3e af cd 09 be 11 b0 fe 3c 02 87 09 3e
       0.2544196 -0.13457368 0.031089814 0.13430408
000150 f0 35 dd bd 6b 73 f2 bc 04 bf e7 3d e8 bb a7 bd
       -0.108013034 -0.029596051 0.1131573 -0.08190137
000160 59 d7 01 bd f8 b8 4e 3e d2 e5 14 be 2d c5 85 3d
       -0.031699512 0.20187747 -0.14540794 0.06531749
000170 df b3 1a 3e 33 d3 8c bd 19 c7 18 be 87 f2 93 3d
       0.15107678 -0.068762206 -0.149197 0.07223993
000180 89 bc 37 3c 8d c6 9c be 9d 08 95 3c 2f a8 37 3d
       0.011214384 -0.30620232 0.018192584 0.044838127
000190 11 ed 23 3e 4a d0 20 3d 35 af 87 bd 91 e3 4b 3d
       0.16008402 0.03926114 -0.06625215 0.04977757
0001a0 26 63 0a bc ab 83 bf 3c db 87 87 3d e1 49 84 3d
       -0.00844649 0.023378214 0.06617709 0.06459404
0001b0 11 c8 56 be b0 af 3a be f3 a8 24 3e fc a3 0c be
       -0.20974757 -0.18231082 0.16080074 -0.1373443
0001c0 ab 3f 84 be 5f 7c f6 bc 75 13 68 3d 50 98 99 bc
       -0.25829825 -0.030088602 0.05665918 -0.018749386
0001d0 82 e2 21 be 44 aa 98 bc b8 15 48 3d 31 02 8f 3d
       -0.15809062 -0.018635876 0.048848838 0.0698284
0001e0 72 3d 9b bd d7 2c a3 3c 5f 25 13 3d 92 19 f3 bd
       -0.07580079 0.019918842 0.03592431 -0.118701115
0001f0 d8 15 24 bc 72 fc 85 3d fb d5 81 bd 8c ae b4 bd
       -0.010014974 0.06542291 -0.06339642 -0.08822355
000200 56 d0 06 be 25 ab 0b bd eb fb 2c be 29 52 46 be
       -0.13165411 -0.034098763 -0.16892974 -0.19367279
000210 df d9 06 bd a9 78 ac bd 7b ff 8b be 40 fc e1 3d
       -0.03292262 -0.084214516 -0.27343354 0.11034441
000220 5f a6 bf 3c cf 54 0a bd fb eb 9f 3d b1 57 96 3d
       0.023394762 -0.033772286 0.078086816 0.073409446
000230 57 28 c1 3d 58 6b 2c be 40 a4 c7 bb eb f1 09 3e
       0.09431522 -0.16837823 -0.006092578 0.1347119
000240 ec 2f 8d bd 74 68 56 3d a5 6c 73 3e 8d 70 df bd
       -0.06893906 0.052345708 0.23771913 -0.10910139
000250 d4 44 87 bb 4a b8 f0 3d 35 6d a0 bd 1e ef 67 be
       -0.004128078 0.117539 -0.078333296 -0.2264981
000260 0f 67 a1 3d 42 62 50 bd be f9 9d ba 83 ef 3c bd
       0.07880985 -0.050874956 -0.0012052578 -0.046126854
000270 b1 7e 1e 3d 2b 54 32 bd dc 91 b2 bc f5 9b 89 3d
       0.03869504 -0.0435373 -0.021798067 0.067191996
000280 0e 2e 0d bd ff ee 0e 3d 84 d7 2c be 69 cf 86 be
       -0.03446775 0.034895893 -0.16879088 -0.26330116
000290 e9 d8 e4 3c da 16 d4 bd c9 f8 1c be 31 b3 dd bd
       0.027935462 -0.10355921 -0.15329279 -0.10825194
0002a0 0e b5 d3 3c f5 43 40 3d 8d 4f dc bd 08 9d 7b 3c
       0.02584317 0.04693981 -0.107573606 0.015357263
0002b0 5a 56 a7 bc 90 a3 07 bd cc 70 da bd de f2 90 3b
       -0.020426918 -0.03311497 -0.106660455 0.0044234833
0002c0 07 90 0a 3e 4f c6 57 be ac 30 ff bd 5b 16 02 3e
       0.13531505 -0.21071742 -0.12460455 0.1270384
0002d0 e1 c9 42 bb 81 91 59 bb e2 89 0a 3c 77 97 42 3d
       -0.002972238 -0.00331983 0.008455725 0.04750773
0002e0 92 e3 c2 b9 8d ba aa bc fa 9d 0e 3d df 59 47 bd
       -0.00037172117 -0.020840907 0.034818627 -0.048669692
0002f0 c1 6a 3a 3b d6 8a 63 3d 98 78 6c 3d e1 1d 0c bd
       0.0028444978 0.055552326 0.057732195 -0.034208182
000300 73 1b 29 bc 89 44 43 bc fb b9 0d bc 59 23 9a bd
       -0.010321486 -0.0119181955 -0.008650298 -0.07526273
000310 33 03 6c 3d 80 a6 d0 3d 74 ad 8d bd a5 79 3c be
       0.05762024 0.10188007 -0.06917849 -0.18405779
000320 c1 e5 64 bd b9 f6 c7 3c c6 04 8f 3d a0 d4 11 be
       -0.055883173 0.024409639 0.06983332 -0.14241266
000330 22 b8 af 3d ba c4 d3 3d 90 65 7f 3d 34 01 89 3d
       0.085800424 0.10340257 0.062352717 0.066896826
000340 48 ff cf bc f9 9f 6b bd 68 6c 9f bc 81 6b 8a bc
       -0.025390282 -0.05752561 -0.019460872 -0.016896965
000350 88 06 ba 3d ee 3f 80 be ba b0 87 bd f6 65 ac 3d
       0.09083277 -0.25048774 -0.06625505 0.08417885
000360 b8 1d b4 3b b7 4b 07 bc 0c 81 26 bd 82 d6 0e be
       0.005496707 -0.008257798 -0.040650412 -0.13949016
000370 97 fa 02 bd 69 cb 95 bc 68 2b 5a be e4 31 af bd
       -0.031977262 -0.01828547 -0.2130562 -0.08554438
000380 ae 24 92 3d f3 98 23 be cc e1 e7 3c d8 f4 26 3d
       0.07135902 -0.15976314 0.02830591 0.040760845
000390 35 19 8f be 6a 31 87 be e0 1d dd 3d d4 ec 6a be
       -0.2794892 -0.26404887 0.10796714 -0.22941905
0003a0 ee ee 51 be b7 56 5a bb d1 4e 4b bd 34 46 df bc
       -0.205013 -0.0033315846 -0.049635712 -0.027255155
0003b0 25 ad 7b bd 83 ac 05 be d8 2d 13 be 32 da 17 be
       -0.06144442 -0.13054089 -0.14372957 -0.14829329
0003c0 3d f5 69 be fb db 60 bd 88 d2 80 bd 01 b8 0c 3c
       -0.22847457 -0.05489729 -0.06290156 0.008588792
0003d0 cd bf 55 3d 59 28 03 bd c9 c4 44 3d 2d 2c 16 3d
       0.05218487 -0.0320209 0.04803923 0.036663223
0003e0 42 77 57 bd 67 35 dd bd f0 b4 cd 3d 69 e7 ef 3d
       -0.052603967 -0.10801201 0.10044277 0.1171406
0003f0 11 57 97 3d ee 74 b8 3d 8f 24 34 3d 98 65 0b 3c
       0.073896535 0.090066776 0.043980177 0.008508109

bias f4 [64]
000000 ee 02 e8 bd db 4d b5 bd 75 16 d4 bc 06 aa 05 bd
       -0.11328684 -0.088527404 -0.025889615 -0.03263285
000010 8c 50 b9 3b 28 2b 42 bd 6c 51 b0 bc 6b f6 67 bc
       0.005655354 -0.04740444 -0.0215232 -0.014157872
000020 f3 40 78 ba 1e 8f 21 bd ee d4 2f bd 40 8f fb bc
       -0.00094701274 -0.039443128 -0.042927675 -0.030707955
000030 6a 33 26 bc e6 fb f2 bc 39 cc be bc 6f bd 8d bd
       -0.010144094 -0.02966113 -0.02329074 -0.06920897
000040 68 45 26 bd ef 6d f9 bd 9f b7 e4 bd 49 15 49 bd
       -0.040593535 -0.12179171 -0.111678354 -0.049092565
000050 cd 24 83 bd a0 0e 2b bd 88 06 a5 bc 83 d1 60 bd
       -0.064035036 -0.041761994 -0.020144716 -0.054887306
000060 43 65 25 bd 2d 2a 8c bd 53 51 15 bd d1 6b 3b bd
       -0.040379774 -0.06843982 -0.03645451 -0.04575712
000070 e0 58 4c 3c fa 0e 6a bd 74 54 54 bd c5 39 49 bd
       0.012472361 -0.05714319 -0.051838353 -0.04912736
000080 b6 4d 54 bd 3f c0 c6 bd 3e 29 ef 3b ee e2 24 ba
       -0.051831923 -0.09704637 0.0072986176 -0.00062899187
000090 06 82 14 3b f2 ea 94 bd 2e 3b 92 bd 71 99 a1 bd
       0.0022660508 -0.07271375 -0.07140194 -0.07890595
0000a0 86 6e 5b bd 85 70 d9 bd 0d de 29 bd 5a 4e 07 bc
       -0.0535722 -0.106171645 -0.04147153 -0.008258427
0000b0 4c 25 97 bd f5 3a e8 bc a1 8d 90 bc 1a 8a 7d bc
       -0.07380161 -0.028348425 -0.017645659 -0.0154748205
0000c0 a8 fa 09 bd dc 37 bb bd 26 2f 85 bd 06 71 7a bd
       -0.03368631 -0.09141514 -0.065031335 -0.061142944
0000d0 00 d0 dc bb aa dc 5a bd 16 02 54 3c 67 11 90 bd
       -0.0067386627 -0.053433098 0.01293995 -0.07034569
0000e0 1b 90 9e bd 2d cc 54 bd 31 dd 75 bd 08 d4 12 bd
       -0.0774233 -0.05195253 -0.060025398 -0.03584674
0000f0 b7 5d f1 bc 96 fe f0 3b 3c 02 ad bd 4c 54 ec bc
       -0.029463632 0.0073545678 -0.08447692 -0.02884879

weight f4 [64, 3136]
000000 f0 e9 82 bc 8e 6e 8a 3d 6e d9 52 3d 76 a1 da 3d
       -0.01598069 0.06759368 0.05147689 0.106753275
000010 5c 03 a0 3d 75 66 fe ba f0 8c 90 ba ba cd 66 bc
       0.07813141 -0.0019409197 -0.0011028331 -0.014087135
000020 b3 63 31 3d ac fb 2e 3d 8f c5 9c 3d 71 16 83 3d
       0.04330797 0.04272048 0.07654869 0.06400765
000030 75 84 24 3c b4 3c 8a 3c 03 32 25 ba 79 32 3c bc
       0.010041346 0.016874649 -0.0006301703 -0.011486643
000040 72 a0 fe bb f2 08 7e bd 02 37 b8 bd e3 a9 1f bd
       -0.0077705914 -0.06202025 -0.08994867 -0.038980376
000050 b0 a4 06 3b 62 f9 0f 3b 4f 97 2d 3b 5d e7 33 3d
       0.0020544939 0.0021968712 0.0026487892 0.043921817
000060 01 65 af 3d ea 69 a6 3c e7 46 9d bb ad fa a9 3c
       0.08564187 0.020314176 -0.004799712 0.020749414
000070 fe 27 0b 3d 81 fe 3a 3d 04 69 8d 3d 90 e8 83 3d
       0.033973686 0.04565287 0.06904796 0.06440842
000080 07 d7 9f 3d 7b d3 78 3d 84 b5 2f 3c 43 e1 a2 bc
       0.07804685 0.06074856 0.010724429 -0.019882804
000090 5b 7b 63 3d 47 8b 2b 3d 3b 4c 4e 3c 9e ef 69 3d
       0.055537563 0.041880872 0.012591417 0.057113282
0000a0 01 97 c5 3c e4 04 9d bc 07 10 8c b9 3d 23 a1 bc
       0.024119856 -0.019167371 -0.00026714822 -0.019670123
0000b0 b5 5e 12 bc 97 47 5f ba 8e be e2 3c 73 35 9b 3a
       -0.008933713 -0.00085174426 0.027678754 0.0011841491
0000c0 6f 37 45 3b 77 a0 45 bc ec 50 9b bc dd 4a ec bc
       0.0030092855 -0.012062184 -0.018959485 -0.028844291
0000d0 59 0b f9 bc 77 6a 4c bc bc fa 06 bd 4d fe 9a bc
       -0.030400919 -0.012476555 -0.032953963 -0.018920088
0000e0 8e b9 3a bd 22 d6 80 bb c5 fc 57 3c 02 5b b6 bc
       -0.045587115 -0.0039317766 0.013182824 -0.022260193
0000f0 bd 6d 95 bd cc 67 29 bd 22 1e 5a bc 85 37 1d bd
       -0.072963215 -0.041358754 -0.013312848 -0.038383026
000100 29 36 62 3b d7 18 e4 bc 91 25 eb bc d5 39 8d bd
       0.0034517145 -0.027843876 -0.028704436 -0.06895796
000110 3d 0e 76 bc 81 39 c0 bc c5 21 28 bd 43 9e 7d ba
       -0.015018043 -0.02346492 -0.04104783 -0.0009674767
000120 18 96 59 bd b9 e1 51 bd b6 57 17 bd b2 e5 3b bd
       -0.053121656 -0.051240657 -0.036948882 -0.04587335
000130 b7 a8 04 bd 73 f1 17 bd 6f 41 67 bc e6 c6 bc bc
       -0.03238746 -0.0370955 -0.014114722 -0.02304406
000140 20 cf ab bc 32 6c 5b bd f5 9c 74 bc 1b cc 1f bd
       -0.020972788 -0.05356998 -0.01493 -0.03901301
000150 2a ea 3f bd 01 1c 9a bc fe 56 99 bc 4f 0d 12 bc
       -0.046854176 -0.018812181 -0.018718239 -0.008914306
000160 87 d0 90 bd 2c 2a 3b bd a3 ef 58 bc f1 70 09 bd
       -0.070710234 -0.045694515 -0.013240728 -0.033554975
000170 3f 56 11 bd 2b 1f 8f bc b3 11 ed ba 75 d5 06 bd
       -0.03548264 -0.017470917 -0.001808694 -0.032918412
000180 73 f8 08 bd 0e d2 86 bc 70 10 70 bc 14 a3 62 3d
       -0.033440065 -0.016457584 -0.0146523565 0.055331305
000190 3b ce 98 3d 09 e3 93 3d 76 96 74 3d b9 35 30 bc
       0.0746121 0.07221038 0.059713803 -0.010754996
0001a0 70 37 15 3b 8a 87 36 3c 08 b1 22 bb ea 3c cc bc
       0.002276864 0.0111407135 -0.0024824757 -0.02493139
0001b0 30 53 03 bd 00 bc 1a bc a3 79 29 bd 1f 2c 9d bd
       -0.032061756 -0.009444237 -0.041375767 -0.07674431
0001c0 80 1f 49 bd 79 95 98 bd 7f 05 5b bd 0f 1f 68 bc
       -0.049102306 -0.07450385 -0.05347204 -0.014167561
0001d0 00 0b 94 bb 65 6c 8f bc a0 20 ab 3b dc d5 69 bd
       -0.004517913 -0.017507741 0.005222395 -0.057088718
0001e0 04 c3 7a bc 2d a4 4f 3d 4d 50 4e 3e af 30 24 3e
       -0.015305284 0.05069368 0.2014782 0.16034196
0001f0 39 b8 9a 3d 50 57 9c 3d 8f b3 dc 3c 60 54 10 bd
       0.07554669 0.07633841 0.026941089 -0.035236716
000200 d1 13 1e bd bf bb db bc 44 b3 a1 bc 77 00 ab bc
       -0.038593117 -0.026822923 -0.0197388 -0.020874245
000210 0d dd 53 3d e1 c4 92 bd 39 95 d3 bd ba fa 02 bd
       0.051724482 -0.07166458 -0.10331196 -0.031977393
000220 a1 3c 59 bc 01 31 a1 bb 8e 29 f7 bc 24 95 8b 3b
       -0.013259084 -0.004919172 -0.030171182 0.0042597223
000230 be c4 9e bd 50 ea 32 3d 9e d7 20 3e d9 c3 1b 3e
       -0.07752369 0.04368049 0.15707251 0.15211429
000240 d2 59 03 3e 27 6a b2 3d a3 d8 8a bd e6 56 80 bc
       0.12827232 0.08711653 -0.067796014 -0.015666436
000250 71 5d 1a 3d 2b e5 bc 3d 8c 6d 6a 3d 44 7d bc 3c
       0.03768677 0.09223398 0.05723338 0.02300895
000260 6f 97 38 3a 6c 35 b2 bb ab b5 56 3c ea e1 03 3d
       0.00070416083 -0.0054384973 0.013104836 0.03219787
000270 6f f7 cf 3b 16 f4 d9 ba 96 c0 1e 3d 27 3e 39 3d
       0.006346635 -0.0016628529 0.038757883 0.04522529
000280 8b 46 1e bc d2 ca 1f bc cf 0f 2b bd 9c b5 f2 bb
       -0.009660373 -0.009752946 -0.041763123 -0.0074069034
000290 ad 71 e6 bb 2c 14 97 bd 67 b0 05 bb d2 86 a5 3c
       -0.007032594 -0.07376894 -0.0020399333 0.020205889
0002a0 4f fe d0 bb 96 17 88 bc 39 fc 0b 3d 4a e0 1c 3d
       -0.006377972 -0.01661281 0.034176085 0.038299836
0002b0 bd 52 27 bd 27 68 dd bd 6a 62 b5 bc c6 30 12 3d
       -0.04085039 -0.10810881 -0.022141654 0.035691045
0002c0 66 5d 28 3d 87 ee da 3d 8e 7c b6 3c d0 fa 9c ba
       0.041104697 0.10690027 0.02227619 -0.0011976603
0002d0 8c 51 68 3c 7f b5 f5 ba 25 1c 32 ba d5 7b 2e 3d
       0.014179599 -0.0018746107 -0.0006794355 0.042598564
0002e0 a2 c1 27 3c 40 cc 24 bc d5 ab a5 3b 8b 82 8c 3d
       0.010239037 -0.010058463 0.0050558844 0.068608366
0002f0 b4 7a 83 bb df 5b 8b 3b 37 a3 d0 bc 6a 67 e5 bb
       -0.00401243 0.0042528952 -0.025468452 -0.0070008533
000300 66 37 42 bb 0d c0 c4 3b b2 6a e8 bc cf 0e 11 bb
       -0.002963507 0.0060043395 -0.028371189 -0.002213407
000310 49 1d 56 3c bb 6c 6a 3d 21 52 05 3e 43 e5 c7 bb
       0.013068506 0.0572326 0.13019611 -0.006100328
000320 08 74 4a 3c 3e 81 68 3c a7 01 b9 3b 2b a1 38 bc
       0.012356766 0.01419097 0.005645949 -0.011268894
000330 e6 f1 77 3b 18 34 d2 3b 51 35 4e 3d ed 3f 81 3d
       0.0037833392 0.0064149015 0.050343815 0.06311021
000340 de 65 b7 3d 60 74 17 3d cd e8 1f 3c 07 c7 8e bd
       0.089549765 0.03697622 0.009760094 -0.06971555
000350 af eb 22 bd 35 eb fd bb cd 39 4d bc 59 96 0b 3d
       -0.039775547 -0.007748986 -0.012525988 0.03407893
000360 1c 76 2e bd 80 c4 3f 3d 8e a8 ba bc 70 bb 99 3d
       -0.042593107 0.046818256 -0.022785451 0.07506454
000370 c8 78 25 bd e7 f3 63 bd ad b6 a6 b9 d9 92 67 bd
       -0.04039839 -0.055652525 -0.0003179809 -0.05653653
000380 68 99 0a 3d d6 95 32 3d 54 df 6c 3d 09 e0 37 3c
       0.033837706 0.043599926 0.05783017 0.011222848
000390 23 c2 18 3e 16 37 cf 3d 90 f5 5b 3d 5a 54 8b bc
       0.14917807 0.10117929 0.053700984 -0.017007995
0003a0 a3 7e 80 3d e3 91 c5 3d bf 0c 5a 3c 64 b8 61 3d
       0.06274154 0.09646966 0.013308703 0.05510749
0003b0 a7 fa e6 3d e7 b5 9b bd b2 56 78 bc 67 8f 7d bd
       0.11278277 -0.076030545 -0.0151573885 -0.061904337
0003c0 40 d4 a4 bc ab ce 6c bd a2 ae 09 3d 9c da f1 3c
       -0.02012074 -0.05781428 0.03361381 0.029523186
0003d0 0a 5f 7f 3b 59 f6 a2 bc 32 15 3e bd dc 95 2b bd
       0.003896656 -0.019892858 -0.046406932 -0.041890964
0003e0 36 8f 1a bc cd 7d 44 bd 03 88 c4 bc 21 30 ec bc
       -0.009433558 -0.047971535 -0.023990637 -0.028831543
0003f0 3f 73 0b bd 22 65 ee bc 98 2b 22 bb e0 6c 90 3d
       -0.034045454 -0.029100958 -0.0024745222 0.07052016

bias f4 [64]
000000 f8 fe 26 3a e0 57 0d bb cf ff 04 bb 49 86 10 3c
       0.0006370391 -0.002156727 -0.0020294075 0.008821079
000010 a9 30 7b bc 76 3b b8 bb f9 30 06 3c 29 a6 f8 3c
       -0.015331426 -0.0056223227 0.008190387 0.030352669
000020 e3 50 4f 3c eb 1f 36 bc d5 16 17 bc c4 7a 62 bc
       0.012653562 -0.011116008 -0.009221752 -0.013823215
000030 e8 34 e9 3b f8 4f f5 3b 12 b9 a0 bc 73 89 e2 bb
       0.0071169026 0.0074863397 -0.019619498 -0.006913358
000040 5d 01 70 bc 01 a2 31 bd e8 bb a3 bc e2 b4 22 bc
       -0.0146487625 -0.04336739 -0.019987062 -0.009930821
000050 08 0f dd 3c 5c 83 5a 3d 89 52 e1 bb fd 01 b7 bc
       0.026984707 0.05334793 -0.006876294 -0.022339815
000060 68 f4 23 3a d2 8f bf bc c6 18 93 bb ee 9f d1 3c
       0.0006254376 -0.023384009 -0.004489037 0.025588956
000070 87 e3 95 bc a1 2c a3 3b 37 16 4b bc 4f 5a 78 3b
       -0.01829697 0.0049796854 -0.012395433 0.0037895625
000080 0e 69 84 bc 3d f9 ff 3c 94 bd 62 3d ed 52 b0 3b
       -0.016163375 0.031246776 0.055356577 0.0053809793
000090 ca 22 24 3c 17 3c 90 3c ca 4d b3 3c ea 47 dc b9
       0.01001806 0.017606778 0.021887679 -0.0004201525
0000a0 e6 dc b6 bc 84 3a 1e bc 41 7d 15 3d 48 18 37 bb
       -0.02232213 -0.009657506 0.036496405 -0.0027938057
0000b0 f7 d1 86 bc eb e0 8f 3c dc 83 fd ba e7 76 97 bc
       -0.01645754 0.017563304 -0.0019341665 -0.018489314
0000c0 55 eb 29 bc c0 51 5d bc 0c 1b 13 3d a9 37 03 3d
       -0.010371049 -0.01350826 0.035914466 0.032035504
0000d0 3f 11 37 bc 2d f4 89 bb 97 6d 26 3d 84 30 bf bb
       -0.011173545 -0.004210016 0.040631857 -0.005834641
0000e0 80 3c 59 bd 4d c2 84 bc 3e cf 39 bb 04 a9 03 bc
       -0.053036213 -0.016205931 -0.0028352286 -0.008035902
0000f0 0f 80 f4 bc e7 dd 03 3c 46 7e a1 ba e1 e5 80 3c
       -0.02984622 0.008048511 -0.0012320958 0.015734615

weight f4 [10, 64]
000000 3d 44 03 be fb 3d ec 3d 7c b7 91 3c d0 35 fd bd
       -0.12819 0.11535259 0.017787687 -0.123637795
000010 16 27 eb 3c 90 8c 9e 3b 70 98 ec bd 77 b6 55 bd
       0.028705161 0.0048385337 -0.11552513 -0.052175965
000020 38 83 5a be 75 37 aa 3d 3e 5a 39 3d 61 58 a7 3d
       -0.21339118 0.08311359 0.045252077 0.08171154
000030 25 ab 07 bd b9 3e a1 3d dd 10 d3 3d a1 1a 57 be
       -0.0331222 0.078732915 0.10305951 -0.21006252
000040 98 65 59 bd c9 43 67 3d 45 87 71 3c 2f 29 bf 3c
       -0.053075403 0.05646113 0.014741723 0.023335068
000050 e7 1e 00 3e 26 46 d3 3d fa 08 56 3c 18 24 9e 3d
       0.12511788 0.10316114 0.013063664 0.07721728
000060 df 84 34 3d 6f b2 33 3d 65 9f 57 bd 3f a5 90 bd
       0.04407203 0.04387134 -0.052642245 -0.07062768
000070 69 8f cd bd b4 6d f8 3d a3 8c 1e be cd ba a8 3d
       -0.10037119 0.12130299 -0.15483336 0.082387544
000080 a0 41 94 3d df 16 4a 3d 7a 21 0b 3e 57 e1 6a 3c
       0.072390795 0.049338218 0.13586989 0.014335952
000090 34 e9 2f bd e4 65 59 3c 4a 04 c6 3b 99 e6 80 bc
       -0.04294701 0.0132689215 0.0060429918 -0.015734958
0000a0 01 7e a3 3d 36 bd 7a 3e 5e 5e be bd bf 0f e4 3c
       0.07983018 0.2448624 -0.09295343 0.02783954
0000b0 15 d7 d9 bd 45 d1 de 3d c5 66 d0 bd 28 5f d9 3d
       -0.10636727 0.10879759 -0.10175852 0.10613853
0000c0 6a d1 d8 bd d3 3d e0 b9 37 fa 3b 3d 60 11 7e bd
       -0.105868176 -0.00042770672 0.04589292 -0.06202829
0000d0 d8 f3 39 3d 75 e3 d9 bd 41 6b 11 3e 27 d3 4b be
       0.045398563 -0.10639087 0.1420107 -0.19904767
0000e0 4d a2 64 3d d1 3a 98 3d cb 6b 52 be aa 16 95 3c
       0.055818845 0.07433093 -0.20548932 0.018199284
0000f0 6f 94 dc bd b7 dc 67 bd 56 b5 d3 3d e4 0e 13 39
       -0.10770499 -0.056606974 0.103373215 0.0001402456
000100 12 9d 33 be 85 5e 85 3d 5b 41 29 3d c9 3a ea bc
       -0.17540386 0.06512169 0.041322093 -0.028592484
000110 db 0e f2 bd 3c 28 93 bd e0 b5 b6 bd 6d bf c0 3d
       -0.1181924 -0.071854085 -0.08921409 0.094115116
000120 e5 e3 ac bd 5c 4a 0a be 65 40 a1 3c fc c4 e2 bd
       -0.08441905 -0.13504928 0.019684026 -0.11072728
000130 16 29 3b bd f0 85 2d 3c 57 51 56 bb 86 69 ca 3c
       -0.04569348 0.010591015 -0.003270229 0.02470852
000140 50 af 48 bd 5b 6f 91 3d 17 76 93 3d 16 77 e1 bd
       -0.048995316 0.071013175 0.07200258 -0.11009042
000150 19 79 05 be a3 39 9c bd 69 7c 7e 3b ee 9e b6 bc
       -0.13034476 -0.07628181 0.0038831478 -0.02229258
000160 3f 9c ae bd 8f d3 90 bd 5f 0d e8 bd 05 e1 1e 3b
       -0.08525895 -0.070716016 -0.11330675 0.0024243009
000170 42 4a 22 3d 06 e7 74 be 5a 15 11 3e 48 46 8d ba
       0.0396216 -0.23916253 0.14168301 -0.0010778392
000180 97 f1 81 3d 4b ea f7 3d 7c 53 89 be c6 e0 bc bd
       0.06344908 0.12105235 -0.26821506 -0.0922256
000190 ed ab 85 bc 06 a1 23 3e c9 25 36 3e 09 b6 ba bd
       -0.016317332 0.15979394 0.17787851 -0.09116752
0001a0 9f d8 fd bd 88 9b 2a 3e 04 19 28 3e 20 c6 9e 3d
       -0.12394833 0.16660893 0.16415793 0.07752633
0001b0 b7 68 57 be ba 44 b1 3d 60 9d a3 3d 0d 9f e6 3d
       -0.2103604 0.08655687 0.07989001 0.11260805
0001c0 ef 32 b5 bd 25 7b 95 3c 8c d0 21 3d dc 58 26 3e
       -0.088476054 0.018247196 0.039505526 0.16244835
0001d0 06 48 b1 3d 82 87 c9 bd 22 68 28 3e 4e c1 19 3d
       0.086563155 -0.09840299 0.16445974 0.037537865
0001e0 32 22 e9 bd 8d 5b 67 3d 4a 81 8d 3c 19 d1 db bd
       -0.11383475 0.056483794 0.017273564 -0.107332416
0001f0 cb cb 92 bd de b6 a7 bd 6b 17 da bd 0e 88 f3 bc
       -0.07167777 -0.08189176 -0.10648998 -0.029727962
000200 e9 98 0a 3e 5f 58 e0 3d b8 94 20 bd 00 0f d7 bc
       0.13534893 0.109543554 -0.03920433 -0.02625227
000210 f0 05 61 3c 5c d7 6d be 10 90 c7 bd 55 3b 46 3e
       0.013734326 -0.23226684 -0.097442746 0.19358571
000220 c6 3f d9 bd 70 64 0c 3d 5f ce df 3d 32 a7 23 3d
       -0.10607867 0.034275472 0.10928034 0.03995437
000230 bb 36 8c bb 6e 82 81 bd c4 89 43 bd 0a c8 5e 3d
       -0.0042789853 -0.063237056 -0.047738805 0.05438999
000240 85 22 f6 3d b6 cf 15 3e 5d ba b0 bd 84 12 c1 3d
       0.12018303 0.14630017 -0.08629296 0.0942736
000250 c7 52 b5 bd ef f5 0e 3e 8f 9d 33 3d 93 c9 df 3c
       -0.08853679 0.13961004 0.04385143 0.027317798
000260 33 ba 4a bd bf ad 5d bc 8b 3a a6 3d e2 2b 21 be
       -0.04949398 -0.013530194 0.08116635 -0.15739396
000270 79 b6 44 3c a7 76 a6 bb 80 ad 05 be 8c 6c 92 3c
       0.0120063955 -0.0050800624 -0.13054466 0.017874025
000280 6f 87 65 bd 25 cd 35 3e b6 d3 95 3a 7c 1e a9 3d
       -0.056037363 0.17754038 0.0011430893 0.082577676
000290 08 dd d3 b9 af 2e f5 3d e0 ae 16 be 1e 5e b7 3d
       -0.00040409737 0.11971795 -0.14715147 0.08953498
0002a0 12 86 7c bd e2 05 9e 3d 86 33 e6 3d 3c 8e 8f 3d
       -0.061651297 0.07715966 0.11240296 0.07009551
0002b0 b5 4f 11 bd 23 d5 a8 3d da 49 92 bd 2f 9b ab bd
       -0.035476405 0.082437776 -0.07142992 -0.08379208
0002c0 bb 9d c4 bd a3 03 6f 3d e1 f7 2d be c4 89 3f 3d
       -0.09600397 0.058353078 -0.1698909 0.046762243
0002d0 fa c3 89 3d 8f 12 04 3c ef 66 82 be b3 44 3b be
       0.06726833 0.008061065 -0.25469157 -0.18287925
0002e0 f2 2c b3 bb 8c 19 45 bd cc 33 67 be f7 a9 e9 3d
       -0.0054680044 -0.048120067 -0.22578353 0.11409371
0002f0 ea 3a 89 bb a1 8f ae 3d 9f 4a 1f 3c 3b ae fa 3d
       -0.0041879313 0.08523489 0.009722381 0.12240263
000300 cf b2 c5 3d 23 1a b8 3d 80 2b 8e bd 38 93 33 be
       0.09653246 0.0898936 -0.06941891 -0.17536628
000310 7b 55 f0 3d 25 1d 32 bd e3 50 04 be f0 59 87 bd
       0.11735054 -0.043484826 -0.12921481 -0.06608951
000320 4e 9f 4e be c9 8e a5 3d 70 e8 df bc 80 07 25 3d
       -0.20177957 0.08083875 -0.027332515 0.040290356
000330 51 07 01 3d 31 4c d5 bd 21 92 b7 bd d2 69 be 3c
       0.031501118 -0.10414923 -0.08963419 0.023243818
000340 10 80 9a 3d 57 7f 5e bd 68 35 9e bd 8b fc d2 bd
       0.07543957 -0.05432066 -0.0772503 -0.10302075
000350 4e 7a 34 be f0 07 a0 bd 0a d4 24 3d 03 81 56 3d
       -0.1762478 -0.07814014 0.04024128 0.05236913
000360 2e d3 71 bd 57 c2 19 3d 89 d1 b5 3d 94 6b b8 bd
       -0.059039287 0.037538853 0.08877856 -0.09004894
000370 39 20 90 bd 31 f1 e5 bd 4c 3c fe bb 6d c8 2a 3d
       -0.07037396 -0.11227644 -0.007758653 0.041695047
000380 7e 23 40 bd 58 09 7b be ff 73 64 bd 5a 88 9e 3d
       -0.046908848 -0.24515283 -0.055774685 0.07740851
000390 ed 92 61 bd 57 e1 c7 3d 00 c9 6d be 00 a9 b1 bd
       -0.05507176 0.09759777 -0.23221207 -0.08674812
0003a0 a3 0b b1 3d a2 7b ac bb f3 a5 71 be 9d 66 98 bd
       0.08644798 -0.0052637616 -0.23598461 -0.07441447
0003b0 77 fb da 3d e7 4e 6e 3d 0a 18 ec 3d f2 e0 74 bd
       0.10692494 0.058180716 0.115280226 -0.059784837
0003c0 14 8a 64 3c 39 17 d0 bd 68 a4 0d 3e 44 49 d7 3c
       0.013948936 -0.10160679 0.13832247 0.026280053
0003d0 8f 96 30 3e 5c 55 53 3d 1a 67 0e bd d5 2c d4 3d
       0.17244934 0.051595077 -0.034766294 0.103601135
0003e0 c3 49 ad bd 31 ca a8 bd 3b 95 21 3e 4b 59 12 bd
       -0.084613346 -0.0824169 0.15779583 -0.035729688
0003f0 38 fe 32 bd 41 a1 c4 3d af 4d 26 bc b2 cc 4e bc
       -0.043699473 0.09601069 -0.010150357 -0.012622045

bias f4 [10]
000000 e6 d5 78 3d e1 25 ba 3c ef 78 be 3d d8 87 9a bd
       0.060750864 0.02272314 0.0930041 -0.075454414
000010 e3 da 22 bd 55 d5 0c bd d3 8f 84 3c 51 c4 a2 3d
       -0.039759528 -0.034383137 0.016181862 0.07947601
000020 7d 72 3a 3d fa 97 0a be
       0.04551934 -0.13534537
