mlflow/mlartifacts/917714700599549108/b117ff4027614fb89fb804d19c491ebf/artifacts/model/data/model.pth (torch, 887400 bytes, 8 tensors)

weight f4 [32, 1, 3, 3]
000000 d9 a4 71 3e fa 63 d7 3e 12 51 6e be 4f 3a b2 be
       0.2359804 0.42068464 -0.23273113 -0.3481011
000010 44 4b e5 3e 1a 97 bc 3e 64 f0 de be c9 a5 6d be
       0.44783986 0.3683403 -0.43542778 -0.23207773
000020 7a d2 99 3e 61 a4 67 3e ef 2e 85 3e 6a 07 63 be
       0.30043393 0.226213 0.2601237 -0.22170797
000030 f9 9d ff 3d 2f d3 f8 bd fb 42 b3 bd 5a fe c2 3d
       0.12481303 -0.12149655 -0.0875301 0.0952117
000040 51 f6 9d 3e 83 a0 38 3e 0f 28 96 bd bd 6c ee 3e
       0.30851987 0.1802998 -0.07331859 0.46567336
000050 94 ec 16 3e 4f a3 ef 3e 7b b7 af 3e 3f a1 90 be
       0.14738685 0.46804282 0.34319672 -0.2824802
000060 55 1b ea 3d c8 f1 7a be af 52 cb be be ff c7 3d
       0.114309944 -0.24506295 -0.3971152 0.09765576
000070 cb 89 3c bd 5e 16 42 be a6 36 90 be e6 82 7b be
       -0.046029847 -0.18953845 -0.28166693 -0.24561653
000080 ae 1a 12 be 40 72 02 be b0 55 72 be 81 25 13 3d
       -0.1426799 -0.12738895 -0.236655 0.03592444
000090 31 cb ab 3e 04 55 33 be b1 cc 8f bc 86 57 c5 3e
       0.3355346 -0.175129 -0.01755366 0.38543338
0000a0 43 a9 6a 3e ee 00 0c bf f5 bf 49 3e e2 65 49 3e
       0.2291613 -0.5468892 0.19702132 0.19667771
0000b0 3a f4 43 be 85 22 e8 bc ff 38 9e 3e d5 f7 77 3e
       -0.19136134 -0.028336773 0.3090286 0.24215634
0000c0 73 ed 01 3f 38 de 80 3e c7 77 ed bd 3c 82 9e bd
       0.50752944 0.2516954 -0.11595111 -0.07739684
0000d0 63 09 f0 be 26 02 cc be 87 f8 f8 3c a8 33 ba 3e
       -0.46882161 -0.3984539 0.030391945 0.36367536
0000e0 5f 3d bf be cf 72 84 bc fc 81 d4 3e 16 f6 1a bf
       -0.3735151 -0.016168026 0.4150542 -0.6053175
0000f0 20 34 97 3e 2e 0b 6d be 44 9a 37 bf d9 1c 68 be
       0.29531956 -0.23148796 -0.71719766 -0.22667255
000100 cd f2 1c 3d 98 e3 2b be 51 f4 99 be 37 05 da 3e
       0.03831749 -0.16786039 -0.3006921 0.42582104
000110 42 3e 2d bd 80 7f 01 bd eb 93 65 3e 5d 24 91 3e
       -0.0422957 -0.031615734 0.22419707 0.28348055
000120 3a 25 0b be cc a9 ae be 15 da 4b 3e 9c 88 bb be
       -0.1358842 -0.3411392 0.1990741 -0.36627662
000130 8d 09 8f 3e aa 8c 7e 3e e6 59 89 be fa 64 a8 3e
       0.27936974 0.24858347 -0.268264 0.3288954
000140 3d fb dc bd bf db f2 39 be 32 28 be 82 bf cb 3e
       -0.107901074 0.0004632156 -0.16425607 0.39794546
000150 e5 67 e6 be 61 00 57 bd 09 89 e3 3e 3e 51 ac bd
       -0.4500114 -0.052490596 0.44440487 -0.08413933
000160 e8 8e c4 3e fa c6 61 be 58 9b 08 bf ed b5 8b bc
       0.3839028 -0.2204856 -0.53362036 -0.017054522
000170 60 ff 77 3e fd c6 b9 be cd 90 35 be 7e 3b 7d 3e
       0.24218512 -0.3628463 -0.17731018 0.24729726
000180 2e 88 d2 be 30 34 d8 3e a0 cc c8 3e 7b b5 85 be
       -0.41119522 0.42227316 0.39218616 -0.2611502
000190 42 e1 1e 3e a6 64 1e 3e 67 08 d9 3e 40 e9 8f 3d
       0.15515617 0.15468082 0.42389223 0.07026911
0001a0 b9 db 72 3d ac 8a 89 3e 36 b3 31 be 88 09 d4 bd
       0.059291575 0.2686361 -0.1735352 -0.103533804
0001b0 93 3a 64 3c 1b 40 ea 3d 0a db 2d bf 23 4a b8 3d
       0.013929981 0.114380084 -0.6791235 0.089985155
0001c0 00 eb 98 bd 79 b4 c7 be a1 be 37 3f 19 47 d9 3d
       -0.07466698 -0.39004877 0.7177525 0.10609264
0001d0 76 31 f3 3d d5 f7 9c 3e 88 bd ab 3e de 6c 7d 3e
       0.11874668 0.3065783 0.33543038 0.24748561
0001e0 dd 5c 9c 3b be 27 7a 3d d5 ea e1 3d 0a f1 11 bc
       0.0047718124 0.061073057 0.11031119 -0.008907566
0001f0 c9 7c f8 be b1 21 1a bf 50 8a 54 3d dc e5 84 3e
       -0.48532704 -0.6020766 0.051889718 0.2595662
000200 f2 3c aa 3d cc bf bb bd d7 fe fe 3e 57 06 46 be
       0.08312406 -0.09167442 0.49803802 -0.19338356
000210 14 3b 7b 3e d9 bb a1 3e c0 42 7d be 51 51 87 3e
       0.24534255 0.3158863 -0.24732494 0.26429227
000220 a0 79 8a 3b 7e b3 ac 3e 7a 1c 37 3b 38 20 bf 3e
       0.0042259246 0.33730692 0.0027940557 0.37329268
000230 e6 6c 22 3e de ff f9 be 2f 54 e0 be 31 d7 0f bf
       0.15861854 -0.48828024 -0.43814227 -0.5618773
000240 0c 83 8e 3e 2b 9c 31 3e ae 1f 36 3e 7d 0a e5 be
       0.27834356 0.1734473 0.17785522 -0.44734564
000250 9f ef 9e 3d a6 9f 88 3e e3 ee aa 3d c3 2b 13 bf
       0.07760548 0.26684302 0.08346345 -0.5748865
000260 25 fd c3 be 12 a8 99 be 9e e0 be 3e fa 33 86 3e
       -0.3827907 -0.3001104 0.37280744 0.2621153
000270 85 42 9f 3d 89 33 89 3b c9 19 69 3e 44 a4 ec be
       0.077763595 0.0041870517 0.22763743 -0.46219075
000280 0b 06 b7 3d c0 b1 c7 3e 81 ea aa 3d c8 60 09 bd
       0.089366995 0.390028 0.08345509 -0.033539563
000290 b6 8a dc be f2 2b 5d 3e b9 e9 30 be ac 6e b0 be
       -0.43074578 0.21598795 -0.17276658 -0.34459436
0002a0 61 f4 09 3f 85 04 1a 3f a8 5b 82 bd b7 5f 77 be
       0.5388852 0.60163146 -0.06365138 -0.24157606
0002b0 db 41 b2 bd 2f 3c 62 bd a9 8a bf 3d 82 18 ab 3e
       -0.08703967 -0.055233177 0.09352619 0.33417135
0002c0 8b f3 83 bd 89 6c a6 3e 76 fd d3 3e 84 85 2a 3e
       -0.064429365 0.3250468 0.41404313 0.16652495
0002d0 79 49 76 3c 19 a5 9b bd f5 c1 76 3e 5f 98 a3 bc
       0.015032166 -0.07599849 0.24097426 -0.019970117
0002e0 19 d5 94 3e a1 ec ae 3e 9c de 41 bd f3 7c c4 bc
       0.2906883 0.3416491 -0.047331437 -0.023985362
0002f0 0c 0d f2 be 05 e7 db be 21 56 95 bc 8d 5b ab 3e
       -0.4727558 -0.4294969 -0.018229546 0.33468285
000300 b0 fb a4 be a7 1f b5 3e e5 4c 82 bd 5a 22 dc be
       -0.32223272 0.3537571 -0.06362323 -0.42994958
000310 a5 5f b0 3e fa 4d a9 3d 86 c2 d8 be 2b 48 e4 be
       0.3444797 0.08266826 -0.4233591 -0.4458631
000320 ac 99 59 be 74 e7 f0 bd 99 d4 fc bd 9e 37 9f be
       -0.21250027 -0.11762896 -0.12345237 -0.3109712
000330 02 c1 4b 3e b9 2f e8 3e d2 b5 1a 3e 53 6a 08 bf
       0.19897845 0.4534891 0.15108421 -0.5328724
000340 57 e8 d1 bd c4 44 0c 3e e4 6d 11 3e 1c 80 7a 3e
       -0.102493934 0.13698107 0.14202076 0.24462932
000350 9d 63 ea 3e 37 f6 80 3e 74 bd 88 3d 96 61 a2 be
       0.45779124 0.25187847 0.0667676 -0.31715077
000360 61 9f a8 3e c8 1e d5 3e 24 a7 ef be 3e dc 83 3c
       0.32934096 0.41625047 -0.46807206 0.01609623
000370 63 47 37 3c e0 aa a5 3e 9a 55 52 bd 96 69 99 3d
       0.0111864535 0.3235693 -0.051351167 0.07490842
000380 1f 9d b2 3e ee 00 af bd 17 36 22 3e e3 f7 de bd
       0.348855 -0.08545099 0.15840946 -0.108871244
000390 82 4f f9 3e 39 85 85 3e 0a 14 72 3e 91 58 a8 3e
       0.48693472 0.26078203 0.23640457 0.3288007
0003a0 da e5 92 3e c1 aa 61 be f2 ed fe 3e d8 65 9d 3e
       0.28690988 -0.22037794 0.49790913 0.30741763
0003b0 ac 25 8f 3e 4b 06 5b be ed 3c 8c bb e1 33 50 bc
       0.2795843 -0.2138912 -0.004279724 -0.012707681
0003c0 0e 19 8a be 3f 40 c5 be 65 e6 13 be b8 42 89 3c
       -0.2697224 -0.38525578 -0.14443357 0.016755447
0003d0 47 f7 b6 3d e5 b3 4f 3b 99 32 5d 3e 11 b2 03 bd
       0.08933883 0.003169292 0.21601333 -0.03215224
0003e0 f1 e9 c1 3e 3e 81 2a 3e b4 4d 3d 3e c8 08 87 bd
       0.37873796 0.16650864 0.18486673 -0.06593472
0003f0 30 dc 4b be 57 c2 93 be ed 6c 22 bf 36 dc 0b bf
       -0.19908214 -0.28859207 -0.6344746 -0.5463289

bias f4 [32]
000000 f2 68 d6 3b 2f a5 8e bd d9 17 8e bc 5f cb 1d be
       0.006543272 -0.069651 -0.017345356 -0.15409611
000010 5f 75 3e bd 07 a6 d6 3b 14 3a 3f 3e b9 f3 30 bc
       -0.046498653 0.0065505537 0.18674499 -0.0108002955
000020 a9 e6 cf 3a bb 0a 1e be 1d 40 be 3c 64 14 83 be
       0.0015861589 -0.15433781 0.023223931 -0.25601494
000030 f4 10 99 3b ef 55 ac 3d 4e c4 30 be e0 18 1b 3e
       0.0046712104 0.08414828 -0.17262384 0.15146208
000040 13 54 80 3e cd 41 27 be 6b a7 c5 3a 76 76 c8 bd
       0.25064144 -0.16333695 0.0015079802 -0.0978822
000050 1e d1 e7 bc 78 e1 b7 bc 87 67 8e 3e 73 e9 64 bd
       -0.028297957 -0.022446379 0.2781336 -0.055886697
000060 a1 42 71 be e7 c7 81 be a1 13 07 ba d0 29 13 be
       -0.23560573 -0.25347826 -0.0005152766 -0.14371419
000070 d9 30 a2 3e 64 3d b6 ba 87 48 56 be cf 77 8b bd
       0.31677893 -0.0013903794 -0.20926104 -0.06809961

weight f4 [64, 32, 3, 3]
000000 43 b4 20 3d 9f 79 37 bc bd d3 7c 3b 18 f3 2d 3d
       0.03923441 -0.01119843 0.0038578354 0.04246816
000010 15 1e 40 bd 52 d3 36 bc 3c 77 02 bd 94 e8 87 bd
       -0.04690369 -0.011158781 -0.031851992 -0.06636158
000020 bb 4b 85 bc 06 36 11 3b 07 a0 36 bd 47 ad d7 bc
       -0.016271463 0.0022157445 -0.044586208 -0.026327742
000030 51 1e c5 bc e2 22 9b bb 34 ce b9 bc 2c 6b ac 3b
       -0.024062308 -0.004734383 -0.022681333 0.0052617993
000040 21 51 66 bd c4 15 d6 3c 80 46 0b bc e4 87 66 3b
       -0.056229714 0.026133426 -0.008500695 0.0035176212
000050 20 99 17 bd d2 df 42 3c 8c 67 51 3b 1a 7c 4a bd
       -0.037011266 0.011894183 0.0031952588 -0.04943476
000060 07 a0 d3 3c 7d b4 68 bd fe aa 58 3c e4 23 25 bd
       0.025833143 -0.056812752 0.013224361 -0.04031743
000070 2a a5 f8 bb 24 f5 14 bd 00 f5 60 3d f4 8f 34 bc
       -0.0075880485 -0.036366597 0.05492115 -0.011020649
000080 93 89 b3 bc 1a 43 58 3c c4 66 61 bd 27 96 f8 3c
       -0.021916186 0.013199592 -0.055029646 0.030345036
000090 cd a5 53 3b 53 40 96 bd 8b 0d bb 3a d4 0c c5 bc
       0.003229487 -0.073364876 0.0014271004 -0.024053968
0000a0 18 ef 34 bd 2b e0 63 bd 09 94 b2 bd cf 54 d2 bb
       -0.04417333 -0.055633705 -0.08719642 -0.0064188014
0000b0 37 0b a1 3c 44 bc a5 bc 4d 68 28 bb d9 fe f7 3c
       0.019658668 -0.020231374 -0.0025696934 0.030272888
0000c0 05 be cd bc 33 59 0c 3d f1 30 16 bd 0c b8 3f bc
       -0.025115022 0.034264755 -0.036667768 -0.011701595
0000d0 5b 9d 6d 3c bc 7c 0e bc b6 38 31 bd ca db c0 bc
       0.0145028485 -0.008696731 -0.043266974 -0.023542304
0000e0 d0 09 93 bd a0 20 93 38 7c b7 81 bc e9 01 9a bc
       -0.07179606 7.015583e-05 -0.015834562 -0.018799739
0000f0 42 48 88 3c d2 59 2a bd fa 10 20 bc a0 bd 85 bb
       0.016636018 -0.041589566 -0.0097696725 -0.004081443
000100 08 53 0a bc 4c 80 9c bd 24 d1 bd 3c 92 ab 5c 3b
       -0.008442648 -0.07641658 0.023171015 0.00336716
000110 26 36 2d 3c 4d 2c c1 bc 4c bb ba bb 78 92 ff 3c
       0.010571992 -0.023580695 -0.005698597 0.031197771
000120 3b ae 3e bd 6e eb 9c bc b4 fc 8e bc 35 e0 43 bc
       -0.046552878 -0.01915523 -0.017454483 -0.011955311
000130 e1 8b 39 bd 43 2f 16 bd e4 c1 89 bd b7 39 8a bd
       -0.045299415 -0.036666166 -0.06726435 -0.067492895
000140 0c ab a7 3c c1 dd 45 bd 56 57 f9 3c 8c 2f 07 bc
       0.020467304 -0.048307184 0.030437153 -0.008251082
000150 14 d7 13 bd c0 a7 5f bd ee a1 b9 bc 23 cb 43 3c
       -0.036093786 -0.05460334 -0.022660222 0.011950287
000160 a3 1c 94 bb 52 55 8f 3c 43 b0 03 bd bc b2 c9 3c
       -0.0045200153 0.017496739 -0.03215052 0.02462136
000170 d1 86 51 3c a4 86 75 bc db 0e 98 3c 02 cb 03 3d
       0.01278849 -0.014985714 0.018561771 0.032176025
000180 5c 18 db 3b 92 90 09 3d 05 d7 81 bd 86 ca 6c bc
       0.0066862535 0.03358514 -0.0633984 -0.014452582
000190 62 f4 3a bc bc f8 8b 3d c3 27 16 3d a9 79 2f bc
       -0.011410804 0.06834552 0.036659013 -0.010710158
0001a0 10 55 de bc b3 f3 7f bd af 66 9f bc e9 42 4a bd
       -0.02714017 -0.06248827 -0.019458143 -0.049380217
0001b0 b9 da 88 bd 51 30 62 bc b0 1c 77 bd 03 ce 83 bd
       -0.06682343 -0.013805465 -0.060330093 -0.06435778
0001c0 95 4c 57 3d 08 cc 4a bd f1 db c9 3c 58 23 4b bd
       0.05256327 -0.049510986 0.024641009 -0.049594253
0001d0 d5 6f 89 bd 2a 6a 39 3d 66 ff ba 3c 5d 4e 35 bd
       -0.067107834 0.04526726 0.022826862 -0.044264186
0001e0 86 a9 08 bd 3d e1 85 bd 5f 7d 48 bd b6 0e 0f bd
       -0.033364795 -0.065371014 -0.04894769 -0.03492614
0001f0 72 a5 1a bd 2b 32 e7 3c e2 97 ab ba 28 fe 96 3b
       -0.037755437 0.028222164 -0.0013091529 0.0046079345
000200 83 11 3f bd b3 49 26 bd cc 3f 55 bd ac 53 99 3c
       -0.04664756 -0.04059763 -0.052062795 0.018716656
000210 6e 73 98 bc 7c 0e 90 bd 9a 49 44 bb 4a a2 f2 3c
       -0.018609729 -0.07034013 -0.0029951097 0.029618401
000220 e4 01 30 bd 39 d6 08 3c f1 74 96 3b ab 7c 03 bd
       -0.042970553 0.008351856 0.004591577 -0.032101315
000230 26 9c c7 3c 2c 5c f8 bc 8a 58 99 3b 48 c3 22 3d
       0.02436645 -0.030317388 0.004679744 0.039737016
000240 b0 56 5a bb 9c 79 a0 3c a5 aa 10 3d fb 84 77 bc
       -0.003331583 0.019589238 0.03531899 -0.015107389
000250 c3 75 c8 3c 6d 89 f5 3b 1a 1c 35 3c 09 f6 48 bd
       0.024470216 0.007493189 0.011054063 -0.049062762
000260 ed 8f 12 bd 19 ff 59 bd b0 ce d1 bb ac 1f b1 3b
       -0.03578179 -0.053221796 -0.006402813 0.005405387
000270 40 5f a9 bd 4e d0 88 bd ae d1 45 bd 60 b6 be bc
       -0.082701206 -0.06680356 -0.04829567 -0.023280323
000280 46 2f 8a bc 7c f6 8c bd 5b 76 ea bc 72 60 6f bb
       -0.016868245 -0.06882951 -0.02862089 -0.0036525992
000290 2a 27 48 bc c8 a1 99 ba af 6b 83 3c 72 61 e2 bc
       -0.012216369 -0.0011721188 0.016042558 -0.027634356
0002a0 e5 df ed 3c 7d 00 2e bc 8d b8 32 bd 95 b0 8d 3c
       0.029037425 -0.010620234 -0.043633033 0.017296115
0002b0 c5 da f8 bc 0e 59 cb 3b 40 79 2f bd b2 f9 ec 3b
       -0.030377755 0.0062056845 -0.042840242 0.0072319144
0002c0 1c ef 0d bc f5 30 7f bd e0 9b 7c bc a0 ca c6 3c
       -0.008662965 -0.06230255 -0.015418023 0.024266541
0002d0 af b9 8d bd 71 7b 20 bc 4c 88 8a 3d d3 45 b0 3c
       -0.06920182 -0.009795056 0.06764278 0.02151767
0002e0 49 dd 89 bd 5e 68 7b bd 5b ff 0c bd fd 1c b7 bb
       -0.0673166 -0.06137883 -0.034423213 -0.0055881725
0002f0 2e fe 90 bd b0 ef 59 3c aa 25 ef bc 1c 45 51 bd
       -0.07079731 0.013301775 -0.029192764 -0.0510913
000300 12 9c 97 bd dc bf 6a bd 33 8b a2 bd 4a ea 16 3d
       -0.07402815 -0.057311878 -0.079367064 0.03684453
000310 51 41 c7 bd e1 ef 76 bd 26 f4 08 3d 95 f1 85 bd
       -0.09729255 -0.06028736 0.033435963 -0.06540219
000320 03 11 cc bc f1 2d 64 bc 75 01 2a 3d 89 e8 90 bc
       -0.024910456 -0.013926969 0.041505296 -0.017689006
000330 ca c9 2a bd 39 d2 bf ba e7 ab aa 3c 3d 81 0c bd
       -0.041696347 -0.0014634795 0.020833923 -0.03430294
000340 d8 ae 3f 3d ec 7b c1 bc 8e 03 b7 bc 3c 8d df bc
       0.046797603 -0.02361866 -0.022340562 -0.027289025
000350 dc 77 40 bd 49 8a 81 bc 0a f2 18 bc 1b 63 df 3c
       -0.046989307 -0.01581301 -0.00933505 0.027268937
000360 8f a4 35 bd 46 97 ee 3c 1d 60 40 3d 7c 29 0b bd
       -0.04434639 0.029124867 0.04696666 -0.03397511
000370 58 cd 89 bd 41 dc 8a bc e7 85 18 3b 50 31 1a 3c
       -0.06728619 -0.016950728 0.0023273171 0.009411171
000380 d8 b6 14 bc ec d1 c6 3b c3 c1 01 bd d7 9e e2 3b
       -0.0090767965 0.006067505 -0.031678926 0.006915908
000390 dd 5c 80 bd 5a d6 7d bd 2a 1e 8b bd ed 98 4d bc
       -0.06267712 -0.061972 -0.06792863 -0.012548667
0003a0 fb 85 db 3b e4 c5 59 bd 70 47 6c b8 9d b9 0f 3d
       0.0066993213 -0.05316724 -5.6333316e-05 0.035089124
0003b0 67 56 16 bd 1d 6c 36 bd 61 82 8c 3c f6 e9 30 bb
       -0.036703493 -0.0445367 0.017152013 -0.002699492
0003c0 9b 6c 70 bd f5 ba 51 bd aa a4 22 bd 85 6d 21 3c
       -0.058697324 -0.051203687 -0.039707817 0.009852772
0003d0 e3 d1 07 3d 42 a6 1c 3c df 83 1c bd ae cc a8 3b
       0.033159148 0.009561123 -0.0382117 0.005151353
0003e0 9a 77 75 bd 71 a0 7a bc e4 6c c8 bc f4 f8 9b bc
       -0.059928514 -0.015297041 -0.024465986 -0.019039609
0003f0 60 55 23 3c 0c 61 92 bd a7 8d 18 3d 33 2b 14 bd
       0.009969085 -0.071474165 0.037244465 -0.03617401

bias f4 [64]
000000 9a 54 b2 bc 6f 75 45 3c 10 fe ae bd f2 05 8b bd
       -0.021768857 0.012051924 -0.08544552 -0.06788243
000010 16 ce fe bc 92 00 0e bd d4 7f 4e bd ad cf a4 3b
       -0.031104129 -0.034668513 -0.050414875 0.0050296397
000020 22 c4 e0 bd 9a 51 2a bb d6 d8 bc bd 54 9f 40 bc
       -0.10974909 -0.002598858 -0.09221046 -0.011756737
000030 f1 9d 1f bd e1 1e 09 bd 71 5b e6 bc 6e bd c2 bc
       -0.038968984 -0.033476714 -0.028119775 -0.023771968
000040 64 32 c4 bd 40 8d c3 bd fe 68 ab bd 99 b7 7c bd
       -0.09579924 -0.09548426 -0.08369635 -0.06169853
000050 2d 87 1a bd fc 1c 76 bd 3b 0b 01 bd ce 89 98 bb
       -0.03772657 -0.060086235 -0.03150485 -0.0046550995
000060 1b f2 10 3d 24 1a e1 bc f7 3f 20 bd 20 17 c6 bc
       0.03538714 -0.027478285 -0.0391235 -0.024180949
000070 18 20 74 bd 5a ee 33 bd c5 97 65 bd 77 1f 82 bd
       -0.05960092 -0.04392848 -0.05605294 -0.06353658
000080 06 b3 fb 3a ae 08 de 3c 28 9a 08 bd fd dc d5 3b
       0.0019203133 0.027103748 -0.03335014 0.006526588
000090 fc 8f 92 bd fa 45 26 3d 1c 28 55 bd dd 94 d8 bd
       -0.07156369 0.04059408 -0.052040204 -0.105752684
0000a0 6d 5a 54 bd 13 98 81 bd c9 28 a9 bd bc fc 8a ba
       -0.05184405 -0.06327834 -0.08259732 -0.0010603885
0000b0 cc 9b 9c bd eb 61 bb bd cd 37 49 bc 04 82 45 3b
       -0.076469034 -0.09149536 -0.01228137 0.003013731
0000c0 60 35 3f bc bd 25 41 bd a1 5b ac bd 36 b3 af bb
       -0.01167044 -0.04715513 -0.08415914 -0.00536194
0000d0 e3 24 8a bd 37 e9 79 bd 1c 22 ef 3c 8e af 3c 3d
       -0.06745317 -0.061013427 0.02919107 0.04606586
0000e0 70 56 36 bc 50 6a 3a 3d f1 a0 dd bd fe 0c a9 bd
       -0.011129007 0.045511544 -0.10821713 -0.08254431
0000f0 00 61 28 3c 54 25 78 bd f4 2d 1f 3b 0c 97 10 bd
       0.010277033 -0.060582474 0.0024288865 -0.0353003

weight f4 [64, 3136]
000000 25 24 ca bb 56 ec c3 3c 42 b4 ed bb a2 86 33 bc
       -0.0061688595 0.023916405 -0.0072541544 -0.010957392
000010 50 ef 3c bc c0 4a 8e bc 6a 33 d4 3b 2f ba ae 3c
       -0.011531666 -0.017369628 0.0064758556 0.021329014
000020 21 53 e0 bb bc 50 e3 3b 38 6e 8e 3a 5e b3 31 bc
       -0.0068458472 0.0069371145 0.0010866588 -0.010845987
000030 ea 74 9a 3b 2b 01 31 bc 80 d7 1b b9 10 2c cf ba
       0.0047136443 -0.010803501 -0.00014862232 -0.0015805978
000040 56 4e b5 3c 14 b1 af 3c 9c 92 86 bc 4d 9b 81 bc
       0.02213208 0.021446742 -0.01642733 -0.015821123
000050 9b dd 15 bc e8 e8 80 ba 92 5a ec 3b 00 4d 1e bc
       -0.009147073 -0.0009835036 0.0072129453 -0.009661913
000060 37 9e ca bc 56 d3 a2 bc 60 a9 81 bc 67 54 0f bc
       -0.024733646 -0.019876163 -0.015827835 -0.00874815
000070 9c 6d 6c 3b c0 db e2 bc 71 07 15 bc d0 08 8a bc
       0.0036076074 -0.027692676 -0.009096012 -0.016849905
000080 72 b5 b1 bc d0 d8 d2 bc 72 7d c7 3c 43 69 d1 3b
       -0.021692965 -0.02573815 0.02435181 0.006390722
000090 28 0f ce 3c 98 7b b1 bc 24 53 bf 3b 02 d6 4d bc
       0.025153711 -0.02166538 0.0058387686 -0.0125632305
0000a0 57 7c 3b 3c 3b 09 d5 bc 9e 3f 2a bc 7e 4c 90 bc
       0.011443219 -0.026005378 -0.010391144 -0.0176146
0000b0 48 57 5e bc 5c 00 85 bb 70 cf 2e 3b 5e 8c 7f bb
       -0.013570614 -0.0040588807 0.0026673935 -0.0038993577
0000c0 a9 e1 bd bc 68 fd 34 bc 8f dc 42 bc b7 d1 68 3c
       -0.023178892 -0.011046745 -0.011893406 0.014210156
0000d0 37 ea 95 bb 48 dc 26 3b 26 fd 12 bb 5c 1b 05 3b
       -0.0045750397 0.0025460888 -0.002242872 0.0020310497
0000e0 4c 40 c6 bc 1c 49 1c 3b 14 a1 dd bc 02 16 ff 3b
       -0.024200581 0.0023847288 -0.027054347 0.007784606
0000f0 40 63 89 3a ac 57 1d 3c 07 d5 f6 bb b8 5e 99 bb
       0.0010481849 0.009603422 -0.007532719 -0.004680481
000100 f0 a3 41 3a 66 91 ca bb 55 20 e0 bc eb b8 0e bc
       0.00073867943 -0.0061818836 -0.027359167 -0.00871108
000110 83 79 55 bc bc ea 45 3b 93 f0 d4 bc 37 22 3b bb
       -0.013029459 0.0030199727 -0.025993621 -0.002855433
000120 a3 ef 2c 3c 62 7b 42 bc 7a aa d9 3b 8c 70 4b 3b
       0.010555181 -0.011870237 0.006642637 0.0031042425
000130 8c f2 bf 3b 3a 0d 84 bc f2 0d 97 bc 90 5c 0e bc
       0.0058577713 -0.016119588 -0.018439267 -0.008689061
000140 58 70 5d 3b 73 95 c2 bb 68 59 17 3b 40 6a 98 b9
       0.0033788886 -0.005938226 0.0023094062 -0.00029070862
000150 7c 9d 66 3b 4a 05 a4 3b 27 f1 1b bc ea 2b a5 3b
       0.0035189083 0.0050055133 -0.009517944 0.0050406354
000160 9e 4b b6 bc 68 d7 0c bc 10 68 e6 bb 36 f0 93 bc
       -0.022252854 -0.008596279 -0.007031448 -0.018058877
000170 1c 0a 2a 3c de b8 78 3c bc 44 5d 3c ee 1d 2b bc
       0.010378387 0.0151807945 0.013505157 -0.0104441475
000180 a7 91 1d 3c 3a 43 9d 3b 18 5a 75 bc 0f 43 69 bc
       0.009617246 0.004799274 -0.014975093 -0.014237179
000190 88 e2 7f bc 28 ba f1 ba 8e 50 61 bc 8c 97 b0 bc
       -0.015617974 -0.001844232 -0.013752116 -0.021556638
0001a0 e8 4a 8c bc dc 56 aa 3b c0 d7 11 3a ba b0 22 bc
       -0.017125562 0.0051983427 0.000556346 -0.00992983
0001b0 78 32 93 3b fe f2 48 bc 00 16 c8 38 d8 75 aa 3b
       0.0044921003 -0.012264965 9.540841e-05 0.0052020364
0001c0 10 d7 d5 bb ff aa 00 3c 09 ed 97 bc 92 81 b2 bc
       -0.0065258816 0.007853269 -0.018545644 -0.0217903
0001d0 a0 1c 0b bc d9 1e 02 bc bf 0d 83 bc 9c ac d7 bc
       -0.008490711 -0.007941925 -0.015997766 -0.026327424
0001e0 28 73 2c bc a1 49 d9 bc 15 cc 22 bc a2 75 2e bc
       -0.010525502 -0.026524367 -0.009936352 -0.010648163
0001f0 a0 c3 8a 3a b0 81 65 bc 45 f3 4f bc e0 f0 a1 39
       0.0010586865 -0.014007971 -0.012692277 0.0003088778
000200 ce 33 8f bc 78 a1 97 bc 68 db c3 3b 08 4e e2 3b
       -0.017480757 -0.018509611 0.005977083 0.0069062747
000210 61 e5 79 bc fc 5e 34 bc 19 55 8c bc 40 c0 64 ba
       -0.015252442 -0.011008974 -0.017130421 -0.0008726157
000220 eb da 96 bc 4d 57 92 bc e2 22 a4 3b 18 42 db bc
       -0.018414935 -0.017863894 0.005009041 -0.026764914
000230 fc b9 af bc f7 84 d1 bc 4e 52 ab 3b 84 fe a0 bc
       -0.021450989 -0.025576098 0.0052283173 -0.019652613
000240 70 11 54 ba 00 b3 bb bc 2e df 86 bc a5 d1 bf 3a
       -0.00080897566 -0.022912502 -0.016463842 0.0014634622
000250 a6 99 b3 bb 98 5d a8 bc 90 92 98 bb 97 89 2d bc
       -0.005480963 -0.020552441 -0.0046561435 -0.010591886
000260 6a d5 04 bb 7c be 99 bb 20 eb 8e bb ae 29 a5 bc
       -0.0020268806 -0.004691897 -0.004361525 -0.020161476
000270 e0 b6 97 bc f0 39 9e ba 3a 35 a0 bc 1c 72 71 bc
       -0.018519819 -0.001207171 -0.01955663 -0.014736678
000280 aa 34 a6 bb 6b 7d cf bb e8 60 cc bc b8 a5 e1 bb
       -0.005072196 -0.0063320897 -0.024948552 -0.0068862103
000290 99 45 63 bc 84 b8 57 3b 19 de 35 bc 33 ac 70 bc
       -0.013871574 0.0032916376 -0.0111003155 -0.014689493
0002a0 a8 98 81 3a 80 cf 7d 3a cb be d0 bc b3 f2 76 bc
       0.0009887414 0.0009682104 -0.025481602 -0.015072512
0002b0 27 7d 5e bc aa 6d 81 bc c4 20 88 bb 6c ab 13 bb
       -0.013579643 -0.015799362 -0.0041542966 -0.0022532595
0002c0 70 15 ae 3c f0 d8 2c 3b b0 df cc 3a 0c 7c 7b bc
       0.021250457 0.0026374422 0.0015630629 -0.015349399
0002d0 0a 22 a7 bc fc 4d d3 3c 93 f8 47 bc 90 f9 3e 3c
       -0.020401973 0.025794022 -0.012205261 0.01165618
0002e0 aa 55 95 3b 84 0e ad 3b 40 e2 f8 bb 97 e4 fb bb
       0.004557331 0.0052812714 -0.0075953305 -0.007687162
0002f0 4b 90 d4 bb a5 bb 57 bc e6 b4 32 bc 20 94 d9 ba
       -0.0064869276 -0.013167297 -0.010907387 -0.0016599931
000300 90 2d b1 bc 5e 76 bf bc 74 55 be 3b 20 61 e8 39
       -0.021628171 -0.023371872 0.0058085267 0.00044322852
000310 de 4a 74 bc cd b3 63 bc 24 71 c2 3b 56 30 f8 3b
       -0.014910428 -0.013897848 0.0059338976 0.0075741215
000320 26 c1 ea 3b 8c 93 dd bc 80 15 8f ba 30 e4 7c 3b
       0.0071641384 -0.027047895 -0.0010916442 0.0038588159
000330 80 dc 7b 3b ba 30 dc bc 71 14 72 bc 46 5a e6 3b
       0.0038430989 -0.026878703 -0.014775381 0.0070298044
000340 00 59 3f ba a4 39 7a bc 98 43 cf bb 4d be db bc
       -0.0007299334 -0.015272532 -0.0063251965 -0.02682414
000350 de d7 52 bc 64 d7 a3 3b 40 94 a5 3a 08 ac f9 ba
       -0.01286885 0.005000042 0.0012632683 -0.0019048462
000360 11 85 98 bc 8c a3 5c 3b c1 2e 1f bc 9e 87 03 3c
       -0.018618139 0.0033666817 -0.009715737 0.008027939
000370 30 5f 03 bc 6a 91 76 3c f6 77 45 3b f4 39 23 bb
       -0.0080183 0.015049318 0.0030131317 -0.002490637
000380 82 8a 29 bc 70 56 81 3b 7a ad bd 3b 1e 4a d6 3b
       -0.010347964 0.0039470717 0.0057885023 0.006539597
000390 6c 62 af 3c 5e 19 4c bc 9e fa bc bc ec c5 18 3b
       0.021409236 -0.01245722 -0.023068722 0.002331133
0003a0 54 5b d0 bb 26 4c f9 3b 43 1d 5c bc 95 c4 a7 bc
       -0.0063585434 0.0076079546 -0.013434711 -0.02047948
0003b0 ee 8f 99 bc dc 5a 27 3b 48 41 c8 bc b3 8f c1 bb
       -0.018745389 0.0025536334 -0.024445191 -0.005907023
0003c0 0b 76 c2 bc a8 59 84 bc 8e 37 61 bc 7f 54 10 bc
       -0.023737928 -0.016156033 -0.013746155 -0.008809208
0003d0 90 82 97 bc 53 b3 1a bb 8a da 2d bb a7 3b 00 3c
       -0.018494874 -0.002360542 -0.0026527965 0.007826722
0003e0 93 25 9a bb 89 c9 8c bc 65 5d 52 bc d4 b0 2b 3b
       -0.004704186 -0.017185943 -0.01283965 0.0026197927
0003f0 27 83 4e bc 98 5c 78 3b fa ed 6d bc 2e 2e b5 3c
       -0.012604511 0.0037896987 -0.01452207 0.022116747

bias f4 [64]
000000 02 08 9e bc 15 bc 14 3d f0 29 56 bc 12 9d 15 3d
       -0.019290928 0.03631218 -0.013071522 0.036526747
000010 af 10 24 3d 33 0a 31 3d 08 03 97 ba 6f 61 03 3d
       0.040054973 0.043222617 -0.0011521289 0.03207534
000020 5a d1 8f bb 38 f5 58 bc 5b b6 07 bb 3e 03 12 bc
       -0.0043889703 -0.013242058 -0.0020708058 -0.008911906
000030 ba 1b 3b bb 9a b0 63 3c 4b 44 d8 bc 10 9b b4 bb
       -0.0028550462 0.013897086 -0.026399752 -0.005511649
000040 65 52 d3 3c ec 0d 66 bc 5e 9d e3 bb e9 a2 16 bc
       0.025796125 -0.014041405 -0.00694625 -0.009194114
000050 9a fa 38 bd db 8b cb 3c 34 5c 4a 3b 88 36 a3 bc
       -0.045160867 0.024846962 0.0030877711 -0.019923463
000060 17 58 b0 bc 48 64 d8 3b 7c 20 73 bc 33 dc bf 3c
       -0.02152638 0.0066037513 -0.014839288 0.023420429
000070 28 ff 59 bc 2f f0 c4 bc e1 0b 0d 3c e0 f2 ed bc
       -0.013305463 -0.02404031 0.008608789 -0.029046476
000080 57 69 ce bc 7e 0c 48 3c 94 b0 df bb d1 ae c8 bb
       -0.025196714 0.01221001 -0.0068264697 -0.0061243554
000090 3e b9 28 3c 11 e9 bf 3c 75 c1 9c 3a 28 50 bc 3c
       0.010298071 0.023426564 0.001195951 0.02298744
0000a0 ce 23 64 3b 6c bd 99 3b 18 91 2c 3b 26 72 a8 3b
       0.003481138 0.0046917703 0.00263316 0.0051405607
0000b0 a4 27 31 bc 17 9b ac bc 47 14 00 3c 91 6a 0d 3d
       -0.010812674 -0.021070046 0.0078173345 0.034525458
0000c0 b2 b7 e0 bc bc c9 0a 3b da cb fe 3b 0b db 3b 3d
       -0.027431343 0.0021177372 0.007775766 0.045863193
0000d0 f8 99 a7 bc 15 3a 8c 3c 3e e2 07 bd 04 ff a7 3b
       -0.02045916 0.01711754 -0.033174746 0.005126836
0000e0 d5 b8 da bc b8 e2 eb bb e7 09 c7 3c c6 bc 7e bc
       -0.026699463 -0.007198658 0.024296714 -0.015547937
0000f0 25 4e 4d 3b 95 b9 9c bc c2 57 7c bc 9c 68 54 ba
       0.0031327095 -0.019131461 -0.0154017825 -0.0008102746

weight f4 [10, 64]
000000 a0 42 d3 3d 57 74 e1 be 73 85 ce bd 2a 5f f8 3d
       0.10315442 -0.44034073 -0.10084047 0.12127526
000010 09 bd e7 3d 67 69 14 bd 5d 2a d5 bd bb 4c 1f 3c
       0.113153525 -0.036233332 -0.10408471 0.009722884
000020 88 e8 ae 3d 9c 18 2e bd 2e 6d ad bd 52 93 53 bd
       0.085404456 -0.042503938 -0.0846809 -0.051654167
000030 6b 83 83 bd d4 cc 2b 3e d8 b4 23 bd 2c 57 67 be
       -0.0642155 0.16777354 -0.039967388 -0.22591847
000040 32 be 9a bd de c8 6a bd 8e 0d 13 3e b7 32 c6 3d
       -0.07555808 -0.057320468 0.1436064 0.09677642
000050 2f e1 3c be 1a 77 4f 3d 2e 63 02 3d d3 5e 20 3c
       -0.18445276 0.050650693 0.031832866 0.009788233
000060 74 43 be 3d cd cc cb bd 09 cf ab 3d c0 9f 9e bd
       0.092902094 -0.09951172 0.08389098 -0.07745314
000070 59 6d 00 3e 4c 48 11 3b 44 b9 f8 bd 04 8d 25 be
       0.12541713 0.0022168336 -0.121447116 -0.16167074
000080 64 86 7d be 78 47 dd 3b c7 db 88 3d ca b9 04 be
       -0.24758297 0.0067529045 0.06682544 -0.12961498
000090 36 e2 28 be 2f ea d9 be 60 e0 3a be c7 6a 31 be
       -0.16492543 -0.4256148 -0.18249655 -0.17325889
0000a0 29 08 83 3d d4 2d 27 3e d1 39 c2 bd f1 c1 0e bc
       0.06398041 0.16326076 -0.09483684 -0.008713231
0000b0 fd 98 12 3c f0 6f 65 3b 3b f2 5a bd 77 d5 5e 3b
       0.008947608 0.0035009347 -0.053453665 0.0034001747
0000c0 bb 0c 39 3d 2c 38 4e bd 5a ff fc 3c fd a4 fc 3d
       0.045178156 -0.05034654 0.03088348 0.123361565
0000d0 d6 85 b1 bd b3 55 8e 3e 28 d7 5f 3d a0 89 b4 bc
       -0.08668105 0.27799758 0.05464855 -0.022038281
0000e0 c3 47 68 3d c0 81 88 bd a4 e7 c4 3d dd 8d a1 3c
       0.056709062 -0.06665373 0.096144944 0.019720966
0000f0 dd ca ce bd a2 c8 4d be 25 8d 08 3c d3 be 83 3d
       -0.10097287 -0.20096067 0.008334433 0.06432881
000100 f7 db 18 3c 41 5b 71 bd a9 5d 70 3d de ae b7 3d
       0.009329787 -0.058924917 0.05868307 0.089689
000110 69 b5 3e be 92 c4 db 3b a4 2c 45 3d 33 f8 84 be
       -0.1862389 0.0067067826 0.048138276 -0.2597061
000120 be 9c 2a bd 28 ed 6f 3d 3c 59 f6 bd ee e2 42 3d
       -0.041653387 0.05857578 -0.12028739 0.0475797
000130 6a 17 6a bd c9 c8 79 3e f8 a1 3f 3c 5e 6a 52 be
       -0.057151236 0.24393 0.011696331 -0.20548388
000140 93 25 18 be ea 3e d3 bd f0 3d 65 be 27 68 38 bb
       -0.14858083 -0.10314734 -0.22386909 -0.0028138252
000150 e4 c9 22 be 50 34 91 bb 16 29 68 3d e7 40 76 be
       -0.15897328 -0.004431285 0.056679808 -0.24048196
000160 53 13 35 be 28 ed 20 bd 0c 53 0f bd d0 00 85 3d
       -0.17683153 -0.03928867 -0.03499131 0.064942956
000170 3f 81 c4 be ae 15 5e bd f0 4d 2a 3e 39 af 44 bd
       -0.38379857 -0.054219894 0.16631293 -0.048018668
000180 69 3d 05 3d 13 e9 15 3e 98 e0 20 3d 11 ea 58 3e
       0.03252927 0.14639692 0.03927669 0.21183039
000190 3f 9e cd 3d d8 92 37 3e 3c a0 3b 3d 2b f2 08 3d
       0.10039949 0.1792711 0.04580711 0.033434074
0001a0 dc ab da 3d 72 f6 d0 3d 6c 5e 78 3d 6e 54 d2 bd
       0.10677311 0.10203256 0.060636923 -0.1027001
0001b0 9e a7 d9 bc fc 68 ed bd 37 67 a9 bd ee e1 66 3e
       -0.026569184 -0.1159229 -0.0827164 0.22547123
0001c0 95 87 8a bd 54 4c e6 bd e2 6a 95 3d 40 f8 96 3d
       -0.067641415 -0.11245027 0.07295777 0.07371569
0001d0 18 38 d0 3d 04 e0 b6 3d 1a 69 ce bd a9 9c 3c bd
       0.10166949 0.08929446 -0.1007864 -0.04604784
0001e0 c8 f8 9b 3d c8 29 bc bd 22 e3 b9 3d c5 74 18 3d
       0.07615811 -0.09187657 0.09076525 0.037220735
0001f0 33 0c b6 bd 7f b0 b6 be 68 e9 99 bd 81 15 45 bd
       -0.088890456 -0.3568153 -0.07515222 -0.04811621
000200 0e e9 8c 3d 22 7a 7b bd 38 9b e4 3d 3a 60 56 be
       0.06880389 -0.06139577 0.11162418 -0.20935145
000210 6c 7c 7e 3c 77 a8 77 be 50 3b 43 bd 99 09 d5 3d
       0.015532594 -0.24185358 -0.047663987 0.10402221
000220 87 a6 5f 3c 67 f8 16 bc f6 49 12 bd 53 f1 b7 3d
       0.013650543 -0.009214497 -0.035715066 0.08981576
000230 81 61 b9 bd e6 b0 ce bd 16 f8 c2 bd 90 63 bb 3d
       -0.090518005 -0.100923344 -0.09519975 0.091498494
000240 8e dd 39 3e df 53 94 be 5b 57 82 be 4b bb 1c be
       0.18150923 -0.2897024 -0.25457272 -0.15305822
000250 2a 33 85 be 9d 32 4b 3e fc 0c bb bd 68 1a a0 3d
       -0.26015598 0.19843526 -0.09133336 0.078175366
000260 42 49 09 3d 3d 87 06 be 34 67 21 3d 23 55 e7 3c
       0.03351713 -0.13137527 0.039405063 0.028238839
000270 09 94 be bd 95 7f 47 bd 17 c6 e2 3d b2 fd 27 3e
       -0.09305579 -0.048705656 0.11072939 0.16405371
000280 12 93 38 be a0 87 a9 bd 09 58 87 bd 24 22 b4 bc
       -0.18024853 -0.082778215 -0.06608588 -0.021988936
000290 a1 a9 29 be f4 f7 92 3d 97 20 14 3e 4e 5c 14 3b
       -0.16568615 0.071761996 0.14465557 0.0022638026
0002a0 e3 bd 59 be 03 11 e9 3d 22 e4 d7 bd 3c 15 c4 bd
       -0.21263842 0.11380198 -0.1054156 -0.09574363
0002b0 58 7c ed 3a 24 7d e5 3d 2e 42 24 3d 58 55 95 be
       0.0018118722 0.11205509 0.040102176 -0.29166675
0002c0 04 b2 ae bd 60 be 7d bd 3a 45 20 3e 29 b1 2f 3e
       -0.085300475 -0.061949134 0.15651408 0.17157425
0002d0 42 3b c7 3d 51 cd ae bd 18 68 08 3d 14 8a 03 3d
       0.097280994 -0.08535255 0.033302397 0.032114103
0002e0 9d 3e d1 bd e0 15 04 be 35 f8 09 be 71 5c 6c be
       -0.10217021 -0.1289897 -0.1347359 -0.23082139
0002f0 e6 55 41 be 14 57 98 3c d1 6a 16 3e 8a 0c 08 3e
       -0.18880424 0.01859621 0.14689185 0.13286033
000300 5d be 29 3d 69 08 cb 3d ee c5 8b bd d8 90 84 be
       0.04144131 0.099137135 -0.068248615 -0.25891757
000310 c9 85 01 3e 8a 7d 43 3e a7 ea e0 bc c8 90 f0 3d
       0.12648691 0.19090858 -0.027455641 0.11746365
000320 48 05 da bb 6c fd c1 3d f4 92 52 bd 55 70 b7 3d
       -0.0066534616 0.094721645 -0.051409677 0.089569725
000330 bd a9 b7 bd 71 6e 98 be 20 96 3e 3d 25 cb e9 bc
       -0.08967922 -0.2977176 0.04652989 -0.02853925
000340 6b 7e d8 3b 4f 31 c0 3d c4 7d f8 3d fe 08 49 3d
       0.006606867 0.09384405 0.12133363 0.04908084
000350 39 87 a0 be 96 78 41 be e4 3d d5 3d d4 c6 07 3e
       -0.31353167 -0.18893656 0.10412195 0.1325944
000360 01 52 02 3e bf 04 1d 3d 26 2b 21 bc 2d b3 48 be
       0.12726595 0.038334604 -0.009836948 -0.195996
000370 9d 0d 08 be c2 fe e2 3d 71 f7 ba 3d 95 01 1a bd
       -0.13286443 0.110837474 0.09129227 -0.037599165
000380 77 f1 ae 3d 86 ea 67 bc f8 e7 8f 3d 36 26 0b 3e
       0.085421495 -0.014155036 0.070266664 0.13588795
000390 39 25 2f 3e 74 41 c0 bc a5 94 0a be a7 6b 26 be
       0.17104043 -0.02346871 -0.13533266 -0.16252004
0003a0 87 66 9a 3d e4 29 8f 3d 0e ad d8 3d aa 3a be 3c
       0.07539087 0.06990412 0.105798826 0.023221333
0003b0 10 3f e9 bc fa a0 46 3d a0 0e 48 3d c2 70 83 bc
       -0.028472453 0.048493363 0.048842072 -0.016044978
0003c0 24 33 ac 3d ed 35 b8 bd 1b 8a 07 bd a7 6c 9d be
       0.08408192 -0.089946605 -0.033090692 -0.30746958
0003d0 97 83 57 bc f6 5f b6 bd 5f 73 84 bd a0 31 2b bd
       -0.013153932 -0.08905022 -0.06467318 -0.041795373
0003e0 f3 6d 9f bd e6 e1 2e bb cb 5b 42 be 34 3c 36 be
       -0.07784643 -0.002668494 -0.18980329 -0.17796403
0003f0 ce 18 4e 3e f8 e7 de 3c b2 e3 50 3d 9d e6 1a be
       0.2012665 0.02721022 0.050998397 -0.15127034

bias f4 [10]
000000 35 3a 04 3e 5d d1 da 3c 99 c7 22 3d de ab 9f bd
       0.12912829 0.02671116 0.039741132 -0.07796453
000010 f8 9f 57 bd 71 91 81 3c 70 4d a2 3c 2c 67 84 3d
       -0.052642792 0.015816422 0.019812316 0.06464991
000020 d5 00 8d bd a1 87 44 bd
       -0.06884924 -0.04798091
