models/mnist_model_pytorch_adam_0.0005.pth (torch, 884512 bytes, 8 tensors)

conv1.weight f4 [32, 1, 3, 3]
000000 0d b8 7a 3e c4 37 bc be 53 1e 41 be 7c 1b e7 3e
       0.24484272 -0.36761296 -0.18859224 0.45138156
000010 f3 c6 1a 3e 7f c4 ed be db 75 1d bd 67 62 f2 3e
       0.15114956 -0.46438977 -0.038442474 0.473407
000020 00 21 14 3b 97 66 13 3e 19 5a c5 3e 7e 23 82 bd
       0.0022602677 0.14394604 0.38545302 -0.06354426
000030 56 7f e3 3d 41 da bd 3d f0 e6 c2 3e 29 6b 63 3e
       0.11108272 0.09270144 0.38066816 0.22208847
000040 65 c4 22 bc 91 94 58 3e 84 fa 32 3e 67 3e e7 3d
       -0.009934519 0.21150424 0.17478377 0.11291199
000050 5f 08 b3 be ac 24 43 3e 43 16 48 3e f8 7f e9 3e
       -0.34967324 0.19056958 0.19539742 0.45605445
000060 5f d0 91 bd 62 a0 2e 3d 31 9d da 3e 2f 3e ce 3d
       -0.07119822 0.04263342 0.42698053 0.10070454
000070 79 83 97 3e 62 5b 05 3f 05 d1 f0 3d 16 07 5c 3c
       0.29592493 0.52092564 0.11758617 0.013429424
000080 1f 2a 45 3d 22 e5 c5 be 9e c5 e6 be 23 08 90 be
       0.048135873 -0.38651377 -0.45072645 -0.28131208
000090 b5 f1 bb 3e e2 a8 bd bc 07 71 40 3d ad 4e c2 3e
       0.36707845 -0.023151819 0.04698279 0.3795065
0000a0 7f ae 98 3e fa 82 f8 bd f7 59 c9 be 73 04 31 be
       0.2982063 -0.12134357 -0.3932645 -0.17286853
0000b0 aa fe 86 3e b9 27 b7 3e 0d d7 c0 3e 19 4b bd bd
       0.26366168 0.35772493 0.3766407 -0.09242839
0000c0 aa c1 e1 3d 57 23 a5 3e fb 4e b0 3d 3c c2 db be
       0.110232666 0.32253525 0.08608814 -0.42921627
0000d0 97 83 96 bd 15 41 9f 3d 0b 77 5b be 90 37 83 be
       -0.073493175 0.07776085 -0.2143213 -0.25628328
0000e0 85 e0 ee 3e 88 eb 97 be 52 7a 98 3e 00 d4 02 3e
       0.4665567 -0.29671884 0.29780823 0.12776184
0000f0 17 e6 a3 b9 eb 62 cc 3e b5 cc a9 bd 28 cd 5c 3e
       -0.00031261213 0.39919218 -0.08290998 0.21562636
000100 29 20 20 3e d4 07 16 3e 9c 8e b4 be 90 fc 0a bc
       0.15637268 0.14651424 -0.35265052 -0.008483067
000110 c2 c3 a6 3e b0 8c d2 be 78 fd 6e 3e bf b4 90 3d
       0.32571226 -0.4112296 0.23338878 0.070657246
000120 28 89 f9 3d 7d 98 a3 3d e9 7b 93 be b6 fe 92 3e
       0.121843636 0.07988069 -0.28805473 0.28709954
000130 1b a5 14 3e c9 28 0d bf c6 ae f9 3e 0c 64 3b 3e
       0.14516108 -0.5514036 0.48766154 0.18299884
000140 b3 f4 c3 be 16 39 49 be 86 f1 5d bd 52 09 5f 3e
       -0.38272628 -0.19650683 -0.054185413 0.21780899
000150 50 c8 df be 0c f0 87 3d 01 6b b0 3d 13 e2 98 be
       -0.43707514 0.06637582 0.086141594 -0.2985998
000160 bc 85 3c 3e de 19 fd 3e 31 71 f9 be a2 56 4c 3d
       0.1841039 0.49433798 -0.4871917 0.049887307
000170 2c 6e 9d 3e 3c 29 c9 bd a9 ba 04 bf 75 39 36 be
       0.30748117 -0.09822318 -0.5184732 -0.17795356
000180 38 47 1c be ad 15 0d be 81 00 fd be 0e 4b 77 be
       -0.15261543 -0.137778 -0.49414447 -0.24149725
000190 81 47 04 bf 99 19 d4 3e 39 08 03 3d 13 25 ba be
       -0.51671606 0.4142578 0.031990264 -0.3635641
0001a0 d5 e9 6f 3e c0 ed 63 3e 31 9d 95 be 79 79 b2 3e
       0.23429044 0.22258663 -0.2922149 0.348583
0001b0 08 4b 2e be bc 0c 1e 3e e9 33 3d 3e 06 ac a0 3b
       -0.1702081 0.15434545 0.18476833 0.0049033193
0001c0 a1 e0 d4 3e 91 6a 21 3e 3a e4 69 3e d5 ab 8f 3e
       0.41577628 0.15763308 0.22840968 0.28060785
0001d0 e1 64 06 3e aa 40 0c 3d 3f 0d d3 3e 44 9b f5 3e
       0.1312442 0.034241356 0.41221043 0.4797002
0001e0 60 73 e0 3e f2 22 ef bd 46 27 00 be 2c ed ee be
       0.43838024 -0.11676587 -0.12514982 -0.46665323
0001f0 d2 78 a0 be a0 bb 02 bf 29 3f 4d bd 2d 46 97 3e
       -0.3134218 -0.51067543 -0.050109062 0.29545727
000200 b7 44 85 3e 86 1a a8 3e 8c 2f 01 3f f9 c0 8a 3e
       0.26028988 0.32832736 0.50463176 0.2710035
000210 a2 d5 93 be e5 a9 9b 3e 88 1d d4 3d cd 3a c3 be
       -0.28873926 0.30403057 0.10357195 -0.381308
000220 8d 3e 8c be db 74 61 bd f5 09 9c bb b6 0c c5 be
       -0.27391472 -0.055043083 -0.004761929 -0.3848626
000230 cd 94 cb be f9 76 26 3e 3e c3 88 3e eb d4 81 be
       -0.39761963 0.16256322 0.26711458 -0.25357756
000240 7f c0 8f 3e 6a 32 b8 bd 8b a8 19 bf 3d e4 16 3e
       0.2807655 -0.08993991 -0.600228 0.14735503
000250 3c 83 6e 3e bc 82 78 bd c5 02 cb 3e 87 da de 3e
       0.2329225 -0.060671553 0.3965055 0.43526098
000260 ac ce dc 3e 92 bd 45 3e af cd a0 3e bb f9 5f be
       0.43126428 0.19310597 0.31406924 -0.21872608
000270 cd b0 a8 3e b3 54 7c be 24 7e 0f be 4b 69 b0 be
       0.32947388 -0.24641685 -0.14012963 -0.34455332
000280 a7 4c 93 3e c5 0c 3b 3e f9 f3 75 be 42 e7 80 3e
       0.2876942 0.1826659 -0.2401885 0.25176436
000290 b7 17 80 3e 6c 2b 8d 3e c6 12 de 3e 0d 85 d0 3d
       0.25018093 0.2757219 0.43373698 0.101816274
0002a0 ed 3e 89 3e 4c 7a 4e be 8b d4 ad 3e 07 61 34 be
       0.2680582 -0.2016384 0.3395122 -0.17615138
0002b0 bb 7a 83 3e c7 76 f0 be ec 15 8a be 3c 05 f3 3d
       0.25679573 -0.4696562 -0.2696985 0.11866233
0002c0 94 90 df 3d c9 1e b0 3d b8 44 d6 3e 12 a5 d3 3e
       0.10916248 0.08599622 0.41849303 0.41336876
0002d0 b4 3f c6 bd 10 2a ba 3e 8c 0e 42 be 80 74 09 3d
       -0.09680119 0.36360216 -0.18950862 0.03355837
0002e0 96 3b 22 3e 48 ba ea 3e c9 54 18 be f6 86 12 be
       0.15843043 0.45845246 -0.14876093 -0.14309296
0002f0 f9 7f 2d be 4d e3 66 3e f8 1f f2 3d 3f d5 b9 3e
       -0.16943349 0.22547646 0.11822504 0.36295506
000300 9a a3 10 3e 28 8b b9 3e 9f b8 01 bd 07 3e ad 3e
       0.14124909 0.3623898 -0.03167021 0.33836386
000310 bb bc a5 3e 0c 21 b6 3d cf 54 d6 be 9c 0c 66 be
       0.32370552 0.08893022 -0.4186158 -0.22465748
000320 b3 b1 28 bd d1 6d 84 3e b8 fd db 3e 33 06 9e 3e
       -0.041185092 0.25865033 0.4296701 0.30864105
000330 05 65 a9 3e 8f 1f b9 3e fa 11 a1 be 3f 37 26 3e
       0.33084884 0.3615689 -0.31459028 0.16232012
000340 d8 ad 74 be d2 da 2b 3e 46 5f 1c be cf 1e 68 3e
       -0.23894441 0.16782692 -0.15270719 0.22668003
000350 ad c8 a3 3e 73 fa 8e be e9 80 f0 3e d3 20 ef bd
       0.3198904 -0.27925453 0.4697335 -0.116761826
000360 75 e6 9e be 3f 5c 81 be 7b 61 ce 3e cc 36 8b be
       -0.310352 -0.2526569 0.40308747 -0.27190244
000370 03 c1 21 3c 3f 7a 64 3e 7e dc 94 be c5 8b cb 3e
       0.009872678 0.22312258 -0.29074472 0.39755073
000380 21 78 01 3e 61 79 13 be a4 95 47 be c5 d5 6e be
       0.12643482 -0.14401771 -0.19490677 -0.23323734
000390 48 47 2c be 23 f4 e6 be a4 08 ac 3e 24 a9 d4 be
       -0.16824067 -0.45108137 0.33600342 -0.41535294
0003a0 78 e8 0c bc e4 ee 81 3e 6b 2f 92 bd ae 0b 55 be
       -0.008600347 0.25377572 -0.071379505 -0.20805237
0003b0 2b c0 46 be d6 5f 97 bc a0 49 6c 3d 0a d6 8e be
       -0.19409244 -0.018478315 0.0576874 -0.27897674
0003c0 0b 84 ec bd 03 b7 92 be bb ca 15 be a7 48 30 bc
       -0.11548623 -0.28655252 -0.14628117 -0.010759509
0003d0 6a f2 b1 be 43 a3 01 be a8 3a 94 3e 93 0e c6 bd
       -0.3475526 -0.12659936 0.28951 -0.096707486
0003e0 44 5d a6 be cd 57 97 3e 8f 9d 81 3e ed fe c7 3e
       -0.3249303 0.29559174 0.2531552 0.3906168
0003f0 c1 54 31 3d d8 16 2a 3e 34 e6 d5 39 8c e6 ac 3e
       0.04329372 0.16610277 0.0004079804 0.33769643

conv1.bias f4 [32]
000000 fb 45 49 3b 62 8d a7 bd 55 94 0c be f7 90 cc 3b
       0.0030711878 -0.081812635 -0.13728459 0.006242867
000010 c6 0a d1 bd fe 31 89 3d 99 c3 63 be 91 12 27 bd
       -0.10207133 0.066989884 -0.22242583 -0.04078919
000020 35 d8 8c 3d e5 70 e8 bc da 60 a6 3e 2c 64 fa 3d
       0.06877176 -0.028374145 0.32495767 0.122261375
000030 10 65 d5 bc 72 4a 1f 3e fb e2 36 bd 8d aa be 3e
       -0.026049167 0.15555742 -0.04465006 0.37239495
000040 21 11 7b be 64 3f bf bb 6b a4 ad bd 4b e7 b1 3a
       -0.24518253 -0.005836414 -0.08478626 0.0013572959
000050 8e 59 8a 3d a8 95 c5 bd 16 e5 2f 3d 12 d0 54 bd
       0.067553625 -0.09647685 0.042943083 -0.051956244
000060 45 8f 43 bd 59 54 7e 3e ab c4 4c be 6a e3 32 bc
       -0.047744054 0.24836864 -0.19996898 -0.010918478
000070 e9 63 25 be 5b e0 25 bd d5 e4 f1 3e 74 35 83 be
       -0.16151394 -0.040497165 0.47244897 -0.2562672

conv2.weight f4 [64, 32, 3, 3]
000000 4b 21 94 3d a9 21 f4 3d f6 b7 8d 3d 93 d5 21 3d
       0.07232913 0.11920483 0.069198534 0.03951032
000010 e4 8a c4 3d 24 b1 29 3d fa f9 d8 ba 0e 54 84 3d
       0.09596804 0.0414287 -0.0016553991 0.06461345
000020 98 9f e0 3d 8f 1a 09 bd e3 54 94 3c 54 18 c7 bd
       0.1096794 -0.033472594 0.018106883 -0.09721437
000030 57 30 a4 bd d7 f1 52 3c 54 e3 d1 bd e3 75 63 bd
       -0.080170326 0.012875042 -0.102484375 -0.055532347
000040 f1 65 3e 3d 31 96 26 bc 73 6e 49 bd 64 25 e8 3c
       0.046483938 -0.010167644 -0.0491776 0.028338142
000050 fb 89 33 be 09 76 2e bd 24 99 ad bc 26 cd 1e bd
       -0.17533104 -0.042593036 -0.021191187 -0.038769864
000060 3c d8 84 bd 17 79 f1 bc 3f 9a 65 3c 16 f3 95 3c
       -0.06486556 -0.029476685 0.014013826 0.018304389
000070 72 7d 2d be 93 2b 93 bc 30 2e 17 be e6 ab 3b be
       -0.16942385 -0.017965114 -0.14763713 -0.18327293
000080 bc fb b0 be 36 b4 d0 bd 56 24 8c bd db 49 f4 bc
       -0.34567058 -0.101906225 -0.06842868 -0.029820373
000090 46 76 35 3e 68 0f fa 3c 15 d4 ad bc 5c c0 e3 bd
       0.17720899 0.030524924 -0.021219293 -0.11120674
0000a0 da a2 98 bc c2 eb 19 3d ba 00 99 bc 55 57 2e bd
       -0.018632341 0.03757835 -0.018677104 -0.042563755
0000b0 aa 3c b7 3a 86 a8 89 bb 34 cc a3 3d e4 3b 4c bd
       0.0013979871 -0.0042009978 0.07997933 -0.049861804
0000c0 9a cd 46 bc 6c b5 c8 bb cd 4b 85 bd 1c e3 45 3c
       -0.01213398 -0.006125143 -0.065085985 0.012078073
0000d0 a7 93 04 39 52 38 28 bd 37 8b a2 3d 7b 2b 88 3e
       0.00012643506 -0.041069336 0.079367094 0.26595673
0000e0 ef 21 7b 3d 72 be 22 3e 9b 01 85 3e 6d 5e 98 3d
       0.06131166 0.15892962 0.25977787 0.07439885
0000f0 8b f3 80 3d c0 f4 bc bc ce d9 79 3d 67 38 92 3d
       0.06296452 -0.023065925 0.06099873 0.07139664
000100 41 01 9a 3d 89 67 82 bd 9c cb a4 3c 45 83 90 3d
       0.075197704 -0.06367404 0.02011662 0.07056288
000110 8b a9 d5 bd 15 51 ce bc 91 4b ea bb 2f 3b a4 bd
       -0.104327284 -0.025185147 -0.0071501215 -0.08019101
000120 57 8c 89 3d d2 48 e1 3d ce 6a d7 3d 1a 04 56 3e
       0.06716221 0.110002175 0.10518418 0.20900002
000130 bf 50 71 3e 3c 87 d8 3d f6 ac 48 3c f5 c9 e5 bc
       0.23565958 0.10572669 0.012248268 -0.028050402
000140 9c 4c ab bd 3c 9d 0a 3e 59 51 1c 3e 2e ec 67 3d
       -0.083642215 0.13536543 0.15265407 0.056621723
000150 d6 4d f9 3d 9f 22 16 3e 6f b5 b6 3d 7e 65 d3 3c
       0.12173049 0.14661644 0.089213245 0.025805231
000160 ad 4a 89 bc 00 3d 23 be 6f 29 b5 bd 8b 2d 28 be
       -0.016759241 -0.15941238 -0.088457935 -0.16423623
000170 65 15 a7 3b 1b e3 cc bc 9c 6e 7f be 24 82 0d bd
       0.005098986 -0.025010636 -0.24944538 -0.03454794
000180 76 2f 6a bd c1 5a 50 bd c0 28 24 3d f0 46 14 3e
       -0.05717417 -0.0508678 0.040077925 0.14480186
000190 e8 0d 9b 3d 98 45 c8 3d 64 67 3d 3e 38 3b 5d 3d
       0.07571012 0.09778899 0.18496472 0.054011554
0001a0 b9 d7 82 3d 4e 8b d5 3d fb 13 f8 bb cd a3 32 bd
       0.06388802 0.10426961 -0.007570741 -0.043613244
0001b0 81 27 8a 3c df d0 5b 3d 7c 74 2b bd 54 2f 4e bd
       0.01686454 0.053665992 -0.041859135 -0.050338104
0001c0 2a 03 8b 3d 04 3b b7 bd 82 87 bf 3c 72 69 39 3d
       0.06787713 -0.08946803 0.023380045 0.045266576
0001d0 2c a0 ac bc 9e 02 08 3d 31 a8 02 be 15 d1 88 3d
       -0.02107247 0.03320562 -0.12759472 0.06680504
0001e0 63 2d 56 be ce ec 0b be 0b 11 1e be 87 51 7c bd
       -0.20915751 -0.13664553 -0.15436189 -0.061601188
0001f0 73 6d 1b 3d 6d 65 8c 3c fe 83 0c bd 79 7a d3 3c
       0.037946176 0.017138207 -0.034305565 0.025815235
000200 45 7d b1 bd b0 df 99 bd 41 e6 e3 3c 69 c3 ff bd
       -0.086664714 -0.07513368 0.027819755 -0.124884434
000210 fc 1a a5 bc a6 2b 21 bc d9 0b c7 3b d9 50 08 be
       -0.020154469 -0.009837067 0.0060744104 -0.13312091
000220 9d f7 66 bc bb c1 4a 3d cc da 3c bc c1 e4 9c bd
       -0.014097122 0.049501162 -0.011526775 -0.07660819
000230 fd a3 a6 bc 39 8e 85 bc b9 c4 66 bc ee e7 5b bd
       -0.020341868 -0.016303169 -0.014084988 -0.053687982
000240 fb 52 81 bd 2d 3f 22 bd ec 33 32 bd a0 9b 9b bd
       -0.063146554 -0.03961103 -0.043506548 -0.075980425
000250 28 09 a9 bc f6 32 86 3d e5 2e a2 bd a9 58 ec 3c
       -0.020634249 0.06552689 -0.07919101 0.02885087
000260 2d 79 0a 3d 2c b0 86 3d 39 c1 53 3d 52 ae d6 bc
       0.03380697 0.06576571 0.051697943 -0.02620617
000270 e0 cd 16 bd 42 ec 0a 3d 95 7c 98 3c 3c f8 aa 3c
       -0.03681743 0.03391672 0.018614093 0.02087032
000280 c2 38 8e 3d 82 dd 83 bd aa 43 48 3d a9 4b e2 3c
       0.069444194 -0.06438734 0.048892654 0.027623968
000290 34 75 d5 bd 8f 37 95 3b 37 5c 1c 3d de 86 f7 bd
       -0.10422745 0.0045537422 0.03817388 -0.12086271
0002a0 4c 10 2d bd d8 7d 3e 3b 67 c0 6a bc b0 c8 b1 bc
       -0.04225187 0.0029066708 -0.014328099 -0.02170214
0002b0 7d 34 c2 3c 9d 59 f3 bd af 73 fb bc 12 52 47 3d
       0.023706669 -0.11882327 -0.03069481 0.048662253
0002c0 73 87 b8 bd a9 d5 df bb 5f be dc 3b c4 67 4d 3d
       -0.0901021 -0.00683089 0.006736561 0.050147787
0002d0 3e 48 c4 bc b6 37 83 3d 74 ff c7 bd b3 65 f4 bd
       -0.023960229 0.064071104 -0.09765521 -0.1193346
0002e0 3d 3f a5 3d 49 21 ce bd c1 54 8e bd ce 15 d3 3d
       0.08068702 -0.100649424 -0.06949759 0.10306893
0002f0 bd 0a 85 bd 72 56 b7 3c 50 0e 5e 3c 42 15 35 3c
       -0.06496189 0.022380088 0.013553217 0.011052432
000300 f6 1c a1 bd b4 d0 54 3d 46 48 e0 bc 97 28 10 bd
       -0.07866852 0.051956847 -0.027378213 -0.03519496
000310 34 76 70 3b cf 35 89 bc 60 f3 91 bd ec 1d f0 bb
       0.0036691548 -0.01674929 -0.07126498 -0.0073277857
000320 2b 0f 6e 3c 44 7e 2d bd 81 ac 45 3d 10 86 92 bc
       0.0145299835 -0.042356744 0.048260216 -0.017886192
000330 0e 28 99 3d cf 4d df 3c 81 8d 15 3d a7 a2 ca 3d
       0.07478343 0.027258782 0.0365119 0.09894305
000340 68 2c 5c 3e f6 14 52 3c 74 95 fa 3d dd 93 6b 3d
       0.21501315 0.01282238 0.12235537 0.05751406
000350 f4 d6 af bc 54 9b 33 bd 7a 7c 6c 3b b7 09 16 3d
       -0.021464802 -0.043849304 0.0036084936 0.03663036
000360 87 e4 a7 3d 80 62 67 3e 35 de a4 3d 9b fe 4e 3e
       0.08197885 0.22596169 0.08050195 0.20214312
000370 10 86 6b 3e fc cc 2e 3d c6 60 9d 3c 01 66 c2 bb
       0.2300036 0.042675957 0.019211184 -0.00593257
000380 ca 68 fd bd 5a 22 24 bc de d8 55 3d 7f 42 1a 3d
       -0.123735026 -0.010017956 0.052208774 0.037661072
000390 82 12 37 3d 76 83 83 3c 71 96 1a 3d bf fd 52 bd
       0.044695385 0.016053896 0.03774113 -0.051511522
0003a0 44 ef 38 3d b7 57 21 bc 0d f5 54 bd 56 09 6a bd
       0.045150056 -0.009847573 -0.05199151 -0.05713781
0003b0 1e f2 95 3c ed 7b 34 3d 0e 68 5a bd 7f 43 02 3d
       0.018303927 0.044063497 -0.05332189 0.03180265
0003c0 db 28 23 bc f4 c6 64 bd b4 e1 be bc ce e4 ec bd
       -0.009958471 -0.0558538 -0.023300983 -0.115670785
0003d0 26 ea 22 3b 29 11 7c bd 4c 44 07 3d 47 e5 28 bd
       0.0024858802 -0.061539803 0.033024117 -0.04123428
0003e0 d9 69 ce 3c 07 8f 2a 3d b0 9b 01 bd ed e4 96 3d
       0.025196956 0.041640308 -0.031642616 0.07367883
0003f0 7d a1 04 bd cd 43 0d bd 2b fb 9d bc 1f b5 d0 bd
       -0.03238057 -0.034488488 -0.019284805 -0.10190796

conv2.bias f4 [64]
000000 cd d4 c4 bc f3 59 9c bd 22 32 ce bd a2 f2 63 bd
       -0.024027253 -0.07634344 -0.10068156 -0.055651315
000010 37 7f 31 bc 06 58 90 bd 10 6e 44 bd c1 06 07 bc
       -0.010833553 -0.07048039 -0.047956526 -0.008241356
000020 d5 cd 90 bc a1 2b 5b bc de 3d 93 ba eb c6 d0 bc
       -0.017676273 -0.013377101 -0.0011233648 -0.025485476
000030 c4 61 80 bd 15 fe a4 ba 2b 3f 92 bd 89 a8 c3 bc
       -0.06268647 -0.0012587929 -0.071409546 -0.023884075
000040 1d a5 55 bd b5 04 83 bc 80 1e 60 bd 11 22 31 bd
       -0.052159417 -0.015993455 -0.054716587 -0.04324538
000050 10 d5 6a bd c3 64 10 3d 4a 3c 84 bd f5 8d 5f bd
       -0.0573321 0.035252344 -0.06456812 -0.05457874
000060 30 96 1f 3d ee 58 87 3b 34 6b 61 bd 3b 8f 96 3b
       0.03896159 0.0041304743 -0.055033877 0.004594711
000070 32 a4 07 bd 2c fa d8 bc c0 fd 4b bd c9 1b 20 bd
       -0.033115573 -0.026486479 -0.04980254 -0.039088998
000080 5e 2d b1 3b aa b2 60 bd 18 a3 35 bd 2e 69 b0 bb
       0.0054070195 -0.054857887 -0.04434499 -0.005383632
000090 8a e8 e9 bc 3f 76 08 bd 11 3b 2e bd 69 a5 4b bb
       -0.028553266 -0.033315893 -0.0425368 -0.0031073934
0000a0 4c 5d 76 bc 6e 3a 28 3b 01 f9 bf 3c 14 3a f3 bc
       -0.015036892 0.0025669592 0.023434164 -0.02969078
0000b0 46 0f c2 3b e4 cc 85 bc 0f be b5 3b 25 9e 1a 3c
       0.005922231 -0.016333051 0.0055463384 0.009437119
0000c0 01 4e 86 bd 2b c6 7f bc 1f 2d 2b bc e3 db 3f bd
       -0.06557847 -0.015611212 -0.010447769 -0.04684056
0000d0 bc 8e be bd 1b 6d b9 bb 35 03 9e bd b6 22 d3 3c
       -0.09304568 -0.0056587583 -0.077154554 0.025773387
0000e0 28 d0 3b bc b2 4f 77 bd f1 fe 37 bd ab 2e 25 bd
       -0.011463203 -0.060378738 -0.044920865 -0.04032771
0000f0 e1 f6 b2 3b bb c9 39 bd e2 4f aa bc 41 b9 b7 3c
       0.005461559 -0.0453584 -0.020790044 0.022427203

fc1.weight f4 [64, 3136]
000000 be 0d 17 bc 31 a0 90 3b 7e 1e 6a bc cc 1c 8f bd
       -0.009219585 0.0044136276 -0.0142894965 -0.069879144
000010 12 f8 7e bd 7b 91 e9 3b 24 71 88 3c ed e0 db bc
       -0.062248297 0.0071279383 0.016655512 -0.026840651
000020 aa 54 97 bd bc 36 1b bd ea 72 a4 bd c2 ce 0f 3d
       -0.07389195 -0.037893996 -0.080297306 0.03510929
000030 81 8d a8 3b 4d e2 dc 3c d6 c2 64 3c 04 84 10 bc
       0.0051438217 0.026963377 0.013962468 -0.0088205375
000040 58 61 c1 3c e2 c5 8a 3c 59 35 d5 3d 9a 83 b0 3d
       0.023605987 0.016940061 0.10410566 0.08618851
000050 a3 e2 67 3c 07 7a 52 3d b6 38 82 3c 09 f0 2c bd
       0.0141531555 0.051385906 0.015896183 -0.042221103
000060 55 c3 7a 3a 5b 7e 83 3d 42 29 0d 3d be 0d b7 3c
       0.000956585 0.06420585 0.034463175 0.02234542
000070 df a2 20 bb ff ce dc 3c b7 0a c0 3c 25 14 38 bc
       -0.0024511141 0.026954172 0.02344261 -0.011235272
000080 37 30 4e 3c cd c4 cd 3c 2e 46 b4 bc a4 df f4 ba
       0.0125847375 0.025118256 -0.02200612 -0.0018682373
000090 19 f1 9b 3b d7 2c 05 3d 45 5c 99 3d 7f 2e 18 3d
       0.0047589657 0.032513466 0.07488302 0.037153717
0000a0 66 61 02 3b 74 49 ed bd 10 3b ab bc 6c 3a 63 3d
       0.001989448 -0.11586276 -0.020902187 0.055475637
0000b0 1a ef 44 3d f8 57 17 3d 88 a9 d2 bc 26 57 3a bc
       0.048079588 0.036949128 -0.025715604 -0.011373317
0000c0 aa 11 27 bb c3 fc 9c bd 96 4c 9b bc 4d 3a bb 3c
       -0.0025492706 -0.07665398 -0.018957417 0.022854948
0000d0 c3 f5 f3 bc 83 c8 86 bd f4 ad da 3a 3f cf ba 3c
       -0.029780274 -0.06581213 0.0016683922 0.0228039
0000e0 79 db 64 3d 34 16 6f 3d 18 cb 77 3c d0 9a c2 bc
       0.055873368 0.058370784 0.015124105 -0.023755461
0000f0 5f c2 2c bc 49 29 c1 bc 62 ce 39 3d d0 0b d1 3c
       -0.010544389 -0.023579257 0.045362838 0.025518328
000100 c6 c3 78 3c a6 45 07 3d 44 29 47 bc 7f ce 10 bd
       0.015183395 0.033025406 -0.012155835 -0.03535318
000110 cb 2b 57 3d 16 6e 89 bc 3f 20 41 3d d1 20 21 3d
       0.052532 -0.016776126 0.047149893 0.039337937
000120 ec 0a b5 3c b5 c0 a2 3c 1e f4 16 3d 14 48 36 3d
       0.022099935 0.01986728 0.036853902 0.044502333
000130 61 a1 30 3d b4 b7 b4 bc c6 32 83 bd 76 1f 80 3d
       0.043122653 -0.022060253 -0.06406169 0.06256001
000140 58 a9 6f 3c 50 37 82 bc f2 6e dd 3c ba 07 05 3d
       0.014627777 -0.015895516 0.027030442 0.03247807
000150 78 db ab 3b fe 8a d9 bc ad 4f 5d 3c 50 20 7b ba
       0.0052446686 -0.026555534 0.013507766 -0.0009579705
000160 df c7 81 bc c2 8a 0f bc 96 b1 04 bd fe b6 05 3d
       -0.015842376 -0.00876111 -0.03239592 0.032645218
000170 5d e1 82 bd 69 9f 88 bd f0 89 7b 3a a5 23 dc 3d
       -0.06390641 -0.0667103 0.00095954444 0.10748986
000180 2f 37 0f 3a e4 42 2c bd 70 3d 91 bb a1 26 a9 3c
       0.000546324 -0.04205598 -0.0044323727 0.020648303
000190 99 db 35 bd f7 de 7d bd f9 b2 0c bd bd 6c 8b bd
       -0.044398878 -0.061980214 -0.03435037 -0.068078496
0001a0 a9 41 6a 3c c4 25 06 3d 34 09 a8 bd f9 25 1f bd
       0.014297881 0.03275086 -0.0820488 -0.038854573
0001b0 ad 2d 4a bd 71 2f 14 bd a1 3d a0 ba 96 f1 18 3c
       -0.049359966 -0.036178056 -0.0012225398 0.009334942
0001c0 59 96 80 ba 27 f0 ab 3d 3f 92 c2 3d 38 80 25 3e
       -0.0009810432 0.08395415 0.095005505 0.16162193
0001d0 64 b5 02 3e b2 5a 92 3d 2b a9 14 3d 11 00 9a 3c
       0.12764508 0.07146205 0.036294144 0.01879886
0001e0 c1 f6 e4 3c a6 0e 01 bd 32 a8 1e 3d 8a 92 a1 3d
       0.027949693 -0.03150811 0.038734622 0.07889278
0001f0 2d 5a 94 3d c1 ee 02 3d da 55 f4 3c 68 a2 0a 3d
       0.07243762 0.031965975 0.029826093 0.03384629
000200 7d e4 86 3d e6 72 36 3d 4e d7 5d 3d b7 3b 9b 3c
       0.065865494 0.04454317 0.05416041 0.018949373
000210 62 de 7d bd 4e f5 3c bd 48 71 27 3c e1 2a 2c 3d
       -0.06197966 -0.04613238 0.010219879 0.04203308
000220 9f 3d c8 3d 69 27 c3 3d 8d 93 9a bc 68 53 f0 bd
       0.09777378 0.09529001 -0.018869186 -0.117346585
000230 45 3f f3 3b 0c 36 79 3d 5f eb 20 3d ac cd ab 3c
       0.007423314 0.06084256 0.039286967 0.020972095
000240 5d 88 af 3c f9 eb 98 bc f9 e2 df bd d6 ad 91 bd
       0.021427328 -0.018667208 -0.109319635 -0.07113235
000250 2d 5c 37 3c 14 ef 65 3d a8 e4 3a 3c eb 85 ec 3a
       0.01119141 0.056136206 0.011407055 0.0018045282
000260 da 3f ba 3b a9 d7 30 bb df f2 78 3d 88 15 01 bd
       0.005683881 -0.0026984012 0.060778495 -0.031514674
000270 0e 8d a0 bb 49 6d ab 3b 72 db b8 3c 73 ce 38 3d
       -0.0048996275 0.0052315337 0.022565577 0.04511876
000280 ea 03 29 3c c7 b1 90 3d be 8d ab 3d c1 8f 8e 3c
       0.010315875 0.07065158 0.083766446 0.017402532
000290 9e 23 8c bd db 8c 01 bc 33 8d 0e 3d e5 bb 12 3c
       -0.06842731 -0.007907118 0.034802627 0.00895593
0002a0 e9 97 ac 3c 47 7d 74 bd 87 9d ca 3b 47 08 de 3c
       0.02106853 -0.059689786 0.0061833295 0.027103556
0002b0 17 db 25 bc 39 01 20 bd a0 15 9d bd ab 94 f2 bb
       -0.010123036 -0.039063666 -0.0767014 -0.0074029765
0002c0 81 87 34 be 9a 18 1c be 84 8d 0c be 49 50 d2 bd
       -0.17629816 -0.1524376 -0.13725859 -0.102692194
0002d0 bf 35 b3 3b bb 23 5f 3d 8e 8c c8 bd af 28 42 be
       0.0054690535 0.054477435 -0.09792434 -0.18960832
0002e0 ae cd d2 bd c5 97 83 bb 32 26 10 bd 73 73 16 3d
       -0.102931365 -0.004015895 -0.035192676 0.036731195
0002f0 bc 06 dc 3d 81 13 ea 3d 83 4e aa 3b bd 0a af 3d
       0.10743472 0.11429501 0.0051973476 0.0854697
000300 61 f9 b4 3d 20 b7 28 3e c9 36 b3 3d a9 65 1c 3d
       0.08836628 0.16476107 0.08750684 0.03818289
000310 be e2 a5 bc d2 67 09 bb 4a 27 16 be 51 18 e1 bc
       -0.02024972 -0.0020966423 -0.14663425 -0.027477415
000320 22 ec 5a bd a7 ce 99 bd 3d 62 d2 3c 54 d9 93 bc
       -0.05344785 -0.07510119 0.02568161 -0.018047966
000330 0a 6b 35 3d e0 e0 9f 3d ab f9 d9 bc bd 11 7d bc
       0.044291534 0.078065634 -0.026608309 -0.015446124
000340 e8 06 92 bc 1f 66 80 3c fe 57 7c 3d b0 d2 aa 3d
       -0.017825559 0.015673695 0.061607353 0.08340967
000350 2e eb 4f 3d 5d 61 f0 bc 3a 8d d1 3d a4 f5 76 3d
       0.050761394 -0.029343301 0.10232015 0.060292855
000360 9e d1 82 bc 8f 71 ae bd 93 10 cd bc d7 76 ad 3b
       -0.015969094 -0.08517753 -0.025032317 0.005293708
000370 38 7d 50 bd 94 40 99 3d e9 66 a6 3d 03 60 c6 bc
       -0.050900668 0.074830204 0.08125097 -0.024215704
000380 d1 b3 6a 3d f7 d1 34 3c 51 e4 bd 3c 2c 73 c6 3c
       0.057300393 0.011036388 0.023180159 0.02422484
000390 59 71 d0 3d 22 74 b4 3b 3f cf 26 bd dd 92 85 3d
       0.10177869 0.005507008 -0.04072499 0.065221526
0003a0 91 ff 93 bc 01 3b 2e bc ae 7d 1e 3d f6 83 3f bc
       -0.0180662 -0.010634185 0.038694076 -0.011689177
0003b0 4e e5 75 bd 99 1c cb bd 8a 3a bd 3b cb 55 c3 3c
       -0.060033135 -0.09917564 0.0057748007 0.02384462
0003c0 bc c6 f2 bc e2 5a c9 ba 20 4a 22 bd d0 bc 9b bd
       -0.02963578 -0.0015362168 -0.039621472 -0.076043725
0003d0 73 58 be bd 69 bf bd bb 38 41 57 bb 1c 5b ea bc
       -0.09294214 -0.00579064 -0.003284527 -0.028607897
0003e0 3c 0c 35 b9 34 96 fe bc c6 a4 1e bc 14 17 44 3c
       -0.00017266063 -0.031077482 -0.00968284 0.011968393
0003f0 ad 32 76 bb 9c 26 c6 3a 1f 9d 51 3d f2 cd be 3b
       -0.0037566826 0.0015117708 0.051175233 0.0058228904

fc1.bias f4 [64]
000000 ac 95 6a bc 10 c5 4b bc ef f5 7a 3c 53 3e 3c 3b
       -0.014317911 -0.01243712 0.015317424 0.0028723672
000010 49 8b 51 bc 48 bb e0 3a 5d 1a ba 3c bd 3c b9 3c
       -0.012789556 0.0017145658 0.02271765 0.02261197
000020 c8 5b d1 3c d9 04 60 bc 65 0e cb ba 96 93 f9 bb
       0.02555646 -0.013673031 -0.0015491961 -0.0076164706
000030 5e 67 bf bc d0 bb 76 3c bc 1c a8 bb 5a 11 ca 3c
       -0.023364719 0.015059426 -0.0051303785 0.024666477
000040 67 e4 db 3c b4 fd c0 bc 8d 2a a8 3c c4 5f 43 bb
       0.02684231 -0.023558475 0.020528102 -0.002981172
000050 56 50 a4 3b 80 3a 31 3d 9d 9a 1c bd 2f cc db 3b
       0.0050144596 0.04326868 -0.03823339 0.00670769
000060 e3 44 ba bc 5a 90 4a bc d5 89 5a 3b c0 00 09 3c
       -0.022737926 -0.012363518 0.0033346314 0.008361995
000070 70 f2 a9 bc 97 38 90 3b bc da 83 3c 10 69 9f 3b
       -0.020745486 0.0044012773 0.016095512 0.0048648193
000080 ad 93 b4 3b 8e db 39 bc ba 14 7d 3c f5 fc c2 3c
       0.0055107684 -0.01134385 0.015446836 0.02380226
000090 98 b8 24 3c 3a 30 cb bc 4f 3b a8 bc b2 e6 2f 3d
       0.010053776 -0.02480327 -0.020536093 0.042944618
0000a0 a1 e6 a9 ba 28 07 0a bc bc ac 47 3c 88 2d 36 ba
       -0.001296241 -0.008424558 0.012187179 -0.00069495337
0000b0 55 b1 9c 3b 44 c2 1f bb 9f e3 9e ba 9e 72 53 3b
       0.004781882 -0.0024377266 -0.001212228 0.0032264362
0000c0 03 95 e8 bb 78 e1 d8 bc 47 18 4b 3c ef 76 4d bc
       -0.0070978417 -0.0264747 0.012395925 -0.012540563
0000d0 27 08 42 bb c4 b1 00 3c ee 0a 95 3c 9f de fd 3b
       -0.002960691 0.007854883 0.018193688 0.007747486
0000e0 25 11 94 3c 23 0d ae bc 60 a6 e8 3c 46 65 f4 bb
       0.018074581 -0.021246498 0.028399646 -0.007458362
0000f0 2c f3 f3 bb ed 3a 51 3c c0 f4 34 3c d1 ab 1a bc
       -0.00744476 0.012770397 0.011044681 -0.009440378

fc2.weight f4 [10, 64]
000000 10 d1 8a 3d 40 02 42 be 20 72 52 be 5a f7 94 be
       0.06778157 -0.18946171 -0.20551348 -0.29094964
000010 91 94 c7 bd 44 b4 c6 bd 87 f1 09 be a7 29 d6 3d
       -0.09745134 -0.09702352 -0.13471042 0.10457163
000020 86 53 39 be 71 34 a9 3d 08 e0 dd 3c 6e b2 5e 3d
       -0.18098268 0.082619555 0.027084365 0.054369383
000030 12 9e a7 bb b2 7f eb 3d b8 0e 65 be 19 c1 cb 3c
       -0.005115279 0.11498965 -0.22368896 0.02487235
000040 c2 ae 45 bd 32 62 a6 bd 2a 07 86 bd ee 7b ca bd
       -0.048262365 -0.08124198 -0.06544335 -0.09886919
000050 7f b1 d8 bc 1a 4c 9f bd 13 66 cb bc 33 78 45 3e
       -0.026451824 -0.07778187 -0.024828946 0.19284134
000060 06 e9 43 bc d5 52 e9 3d 91 74 36 bc f9 66 06 be
       -0.011957413 0.11392752 -0.01113619 -0.13125218
000070 77 87 5a 3d 07 d9 9e bd f9 d1 30 3e ea 8e 38 be
       0.053351846 -0.077562384 0.17267598 -0.18023267
000080 c8 61 04 3e 58 af f8 bd 06 19 18 be 09 47 ae 3d
       0.12927926 -0.12142819 -0.14853296 0.08509643
000090 2b aa 3a 3d 4a 4e 85 3d af e6 c2 3d 8c 6b e6 3d
       0.04557244 0.06509073 0.09516656 0.11250982
0000a0 dd 3e e9 bd e9 05 a2 bc d7 7b 04 3e 64 c8 30 bd
       -0.11388943 -0.019778209 0.12937866 -0.043159857
0000b0 90 eb 97 3d 60 93 10 3d 66 bc b1 bd 8a d2 38 3c
       0.07417977 0.035296798 -0.08678512 0.011280665
0000c0 00 e5 84 3d 1b c7 9a bd e2 6a 33 3e 11 58 64 3d
       0.06488991 -0.075575076 0.17521241 0.05574805
0000d0 db 78 07 be 07 fb b4 3d 37 35 26 3e fe 61 c7 bd
       -0.13229696 0.08836942 0.16231237 -0.097354874
0000e0 5f 10 81 3c fb ae 32 be c7 49 fd 3d 3b 30 c9 bd
       0.015754877 -0.17449562 0.123675875 -0.09823652
0000f0 c7 73 72 3d 9b 35 8e 3d 88 a7 ca 3d cb fb 54 be
       0.059192445 0.06943818 0.09895235 -0.20799176
000100 42 3f 6c be 60 5d 81 be 83 b0 05 3e 9f 4c 1f bd
       -0.23071006 -0.25266552 0.13055615 -0.03889143
000110 fc ef df bd 93 3b d5 bd a5 85 29 3e 07 c2 00 be
       -0.10934445 -0.104117535 0.16554888 -0.12574016
000120 67 33 a0 3d cb af 0f bd 70 ba 92 3d 1a 05 3b 3d
       0.07822304 -0.03507976 0.071644664 0.045659162
000130 08 41 d3 3d 45 b7 ee 3d 97 e8 fb 3d 70 5e 13 bd
       0.10315138 0.1165605 0.12300222 -0.035978734
000140 2a e4 6a 3d ea 3a b1 bd 27 f9 35 3e a0 2f a8 3c
       0.0573465 -0.08653815 0.17770825 0.020530522
000150 61 d6 92 3d 62 43 b5 3d e3 5f 37 bd d4 b5 3d 3e
       0.07169796 0.08850743 -0.04476918 0.18526393
000160 4d 3c bc 3d 44 bb ea 3d 93 05 0b be 28 c4 16 3e
       0.09191189 0.11461499 -0.13576345 0.14723265
000170 b9 93 e2 bd c0 4e 59 3d b4 f1 6f bc df c7 23 be
       -0.11063332 0.053053617 -0.014645029 -0.15994214
000180 4f 3d 4d 3d 20 d5 e6 bd fd 6e 64 3e 9b e2 86 3d
       0.050107297 -0.11271119 0.22307964 0.0658619
000190 92 aa ca 3d a9 91 e6 3c 3f f4 64 3d 5e 56 0e be
       0.09895815 0.028145628 0.055896994 -0.13900134
0001a0 0f 4b b3 bd 76 6a 20 bd 94 9d ee 3d 12 50 83 3d
       -0.08754551 -0.03916403 0.116511494 0.064117566
0001b0 89 d0 c3 3b 0c 23 4d bd 56 be b4 3d ad 92 fb bb
       0.005975787 -0.05008225 0.08825366 -0.007677397
0001c0 ab 2b b5 bd 00 32 01 3d 3b 62 42 bc ec 6f ee 3b
       -0.0884622 0.031541824 -0.01186424 0.0072765257
0001d0 95 82 49 be 9c 9e 05 3d 1f 64 ce 3c 85 b2 0c bd
       -0.1967872 0.032621965 0.025194226 -0.034349937
0001e0 d5 07 ca 3c bd 3f ce 3d 38 3d 58 bc 9f 20 cc bc
       0.024661938 0.10070751 -0.013198189 -0.024917899
0001f0 a7 e8 a4 3d 45 3b aa bd c0 1d 5f bd 3b 38 f5 3c
       0.080521874 -0.08312086 -0.05447173 0.02993404
000200 ba fa fb 3d 9a 7b 66 bd 19 08 e2 3b 01 a0 6b bd
       0.12303682 -0.05627022 0.006897938 -0.05752564
000210 4a 2d 37 3d 47 74 f1 3c 04 b2 7f be 38 28 f9 3d
       0.044720925 0.02947439 -0.24970251 0.12165874
000220 3d 0d 17 bd b1 09 ff 3c e4 83 87 be 03 65 83 bd
       -0.03687786 0.03113255 -0.26467812 -0.06415751
000230 29 9b c2 bc 93 f7 63 be d5 d1 14 bd 53 46 d5 3d
       -0.023755627 -0.22262411 -0.036332924 0.10413804
000240 2a b5 ec 3c 44 96 b2 3d e7 72 1d 3e b4 23 e4 3d
       0.02889498 0.08720067 0.15375863 0.11139622
000250 cd ac 10 bd 67 7c 4a be 42 30 c3 3c f0 7d 96 bc
       -0.035321046 -0.19774018 0.023826722 -0.018370599
000260 20 3b d6 bb 7b d8 fa 3d 54 05 f3 bd 27 49 aa bd
       -0.00653781 0.122483216 -0.11866251 -0.08314734
000270 5b 3b a1 3d 9a e8 94 be da 92 28 bd 98 35 02 3e
       0.07872649 -0.2908371 -0.041155674 0.12715757
000280 6f f4 9a 3d a4 e1 fa ba a7 48 48 bd b4 bc f9 bc
       0.07566153 -0.0019140732 -0.04889741 -0.030485488
000290 6a b9 3d 3e 7e df 79 bd ad 23 68 bd e6 30 0c 3e
       0.18527761 -0.061004154 -0.056674648 0.13690528
0002a0 f4 10 6e 3d 93 96 08 bd 15 32 01 3d f5 ca 0b 3e
       0.058121637 -0.033346724 0.031541903 0.1365164
0002b0 b9 f4 1c be 05 37 e8 bc 54 9f 76 3d 60 18 89 3d
       -0.1532773 -0.028346548 0.06021054 0.06694102
0002c0 be 58 3d be ed 83 9b bd 1a 4e f8 3d 2f 3d a8 3d
       -0.18490884 -0.07593522 0.12124272 0.08214795
0002d0 5a 0f b7 bd 62 cd 9d 3b 6d 90 ed 3d 72 e6 27 bd
       -0.08938475 0.0048157433 0.11599813 -0.040991254
0002e0 3c 6f 17 bb 43 4d e8 bc 57 45 c9 3d 99 9f 7c bd
       -0.0023107072 -0.028357154 0.09827679 -0.06167564
0002f0 0d bc 0a 3d 25 ec 71 be 7e 6c 07 3e 09 6b 7b 3d
       0.033870745 -0.23625238 0.1322498 0.061381374
000300 cd dd 97 bd 3e 39 36 3d 83 62 cb 3d cb 86 18 3e
       -0.07415352 0.044488184 0.09930899 0.1489517
000310 09 b4 e9 bd 2b 81 02 bd fb c3 96 bd ad 5f ec bd
       -0.11411292 -0.031861465 -0.07361599 -0.11541686
000320 70 01 cb bd 11 26 a0 3c e8 8b 8e bd db 9f 9b bd
       -0.099123836 0.019549401 -0.06960279 -0.075988494
000330 93 b9 93 bd 56 f9 9f bd e8 c8 98 3d ed 21 1f 3e
       -0.0721313 -0.07811229 0.07460195 0.15540285
000340 a2 f2 fa bd ec eb 03 3d 6d 3c 51 be 64 81 5b bd
       -0.1225331 0.032207415 -0.20433207 -0.053590193
000350 c4 3d d3 bd bf 85 a1 bc 0b 65 5c 3d a7 05 e0 bd
       -0.10314515 -0.019717095 0.0538073 -0.10938578
000360 e7 be 2d 3e d8 10 94 bd ec 1f 04 be 85 89 27 3e
       0.16967355 -0.07229775 -0.12902802 0.16361053
000370 bc 6d 24 ba 68 9d 32 bc 68 ab 13 3e 4b cd 66 3d
       -0.0006272455 -0.010901786 0.14420855 0.056348126
000380 be fc 56 3d a5 e4 e7 bd 14 a4 0c be 32 78 31 3e
       0.052487127 -0.11322907 -0.13734466 0.17331007
000390 b3 20 79 bb 6c 31 a3 3c a0 39 3e ba 32 23 f0 3d
       -0.0038013875 0.019921027 -0.00072565116 0.11725463
0003a0 a5 e7 77 3d 8a 45 e3 3d a7 49 10 be 5a ad 71 be
       0.060523648 0.11097248 -0.14090596 -0.23601285
0003b0 74 0d 8a 3d 9b 93 91 3d 05 9c 86 be dd 3a 6b bc
       0.06740847 0.07108232 -0.26290908 -0.014357296
0003c0 d1 63 49 3d f5 08 d9 bc 64 42 cd bd 24 25 d0 bd
       0.049167458 -0.026493529 -0.10022429 -0.10163334
0003d0 8a 2a e8 3d 81 18 9a bd e7 4e de 3c e2 57 0e 3c
       0.11336239 -0.07524205 0.027137233 0.008687945
0003e0 23 8f 49 be ce 91 09 3e 60 5d 1c be ce 7f b6 bd
       -0.19683509 0.13434526 -0.15269995 -0.089110956
0003f0 eb f9 d4 bd b1 ba 86 3d e2 f5 a6 3d 9b b6 f9 3d
       -0.103992306 0.06578577 0.08152367 0.12193032

fc2.bias f4 [10]
000000 98 b7 1b 3e fd fe cc 3d 98 26 79 bd f7 ce 1b bd
       0.15206754 0.10009573 -0.06082782 -0.038039174
000010 e5 f3 95 3d cd 77 0d 3e 8b a9 91 3d e9 26 f4 bd
       0.0732191 0.13815232 0.07112416 -0.11921484
000020 06 a1 cc 3d 4a 80 5c 3d
       0.0999165 0.053833283
