models/mnist_model_pytorch_adam_0.001.pth (torch, 884436 bytes, 8 tensors)

conv1.weight f4 [32, 1, 3, 3]
00000000: 1584 793e d072 88be 5fc4 2a3e 9fda 0b3e
00000010: f7eb 9b3e 5450 fc3d ecf4 23be 06c0 823e
00000020: d80b 9e3e 3448 1c3d 4cd1 453e e98a 543e
00000030: 08fd dcbd 0d1a ce3d d8ca edbe 3420 8a3e
00000040: 599b 0a3e 8180 80bd c54e 0b3e c827 bb3c
00000050: 21a0 f3bd b18a bc3e c533 c03e f16b ac3e
00000060: 8291 efbe 442a 85be a7ff 803d 5189 d03e
00000070: 125d dc3e 492e a6be 38b2 dabe b47f a6be
00000080: 944d bd3e 72c1 b0be cfa3 3fbe 0c75 b83e
00000090: a6ea 903e 14a5 95be fd64 4fbd f7fd e6bd
000000a0: 25ba f2bd 098a c23e d25f 7c3c f68f 9d3e
000000b0: 96d3 12be 6648 c5be 8e9d 26be 126f d63e
000000c0: 4e32 aebe 3522 dfbb 9d58 013e 97b1 45be
000000d0: 347e 883e 23ff d63e fe64 c43d 4645 b63d
000000e0: b809 d4be e8f9 2d3e 3bff 9e3e 2f2c 7b3e
000000f0: dfc7 703d 58a9 fe3d 525d a23e 2b7c 0abf
00000100: f8d1 3cbe 3a57 a03e 082a b43d a86c 42be
00000110: b8ca c53e 1f81 943e c20e da3d a85e 403e
00000120: b7d8 c43e 93b9 b93d 985e e7bc 3801 3f3e
00000130: 3162 a43d 7799 143e dcec aebe 5e38 bc3e
00000140: 6630 54be 3b87 4f3e 8872 35be 74c8 10be
00000150: c181 383e a2b9 233d 3c81 a03e ce58 a33e
00000160: 0b59 163e a83a acbd 968f 1f3e c705 383d
00000170: 3384 a83e c217 5f3e 3be3 7e3e ded3 01be
00000180: a995 0abd 1469 36be 3475 82be 11a2 76bc
00000190: 74bc e6bd 96a3 b0be 906b 02bf b546 b2be
000001a0: 92e5 e8be 5961 7ebe f863 f5bd 4d8b e73d
000001b0: 00f1 3cbd 9b95 d9be f484 923e 0192 12be
000001c0: 3f92 96be 16f2 823e b2cd e9be 7f9b 343e
000001d0: 6abd 30bd 91b6 f53e 47a5 02be b3f1 a7be
000001e0: fb86 f03e a651 49be 1b99 8bbe 0c3a 233e
000001f0: b2ae 80be b55b 8dbe c99e e23e 7927 9fbe
00000200: 8e59 dabe b8df 81be da9d c7bd 1043 64be
00000210: b2b4 06bf 07ef 88be d130 bf3d cd41 5c3d
00000220: 3f82 9e3e 5358 1e3e 0abc 093e 2608 203e
00000230: ce27 823e 5d97 88be 143b f1be cfa3 c2be
00000240: 2331 7cbe c384 13bf 04ab d7be c051 8bbe
00000250: 6443 ad3d bf37 803e 2b2e e03e f4bf ba3e
00000260: f578 a13e 49cf 963e 9c0a b43e 345d b73e
00000270: d2fa d9bd 4c04 6d3e a476 96be c9f7 393e
00000280: 6d80 883e 183f 35be f51b 0bbe a229 513e
00000290: bafc e83e 7be1 853e 731a 97bd b925 b9be
000002a0: e145 22bf e7b8 ebbe 0148 84be 850a b93d
000002b0: 8cce 763e fa88 793e d928 253e 9833 b03e
000002c0: 3215 34be 3a89 373e 59e8 973e 6906 743e
000002d0: 5add 9e3e 9057 34bd 7c6c 9b3e c2f5 ba3e
000002e0: bac9 643e 5439 a3bd 99bc 8c3e ac9d a8be
000002f0: 1f3e ffbe cfae 4c3e c3ac bcbe f5f7 11bf
00000300: 873a f83e f486 ba3e 2b8f 43be b472 5b3e
00000310: 2c7b ac3d 482a 0c3e 08a1 933e 9bef 71be
00000320: 51e9 613d 979f 743e c414 a63e e67e c13e
00000330: dd05 b9be 1387 303e b044 9e3e 583f c03e
00000340: 3262 2e3e f3d1 06bf fbef 5d3e c583 b8be
00000350: cb85 193e 5a4e d03e e4e6 22be f1bc 1dbd
00000360: 2aca a3be 735a a2bc b2de ac3d 1ef1 0e3e
00000370: 907d d83b 9280 abbd 27f9 9a3e c1b8 573e
00000380: 2fc6 7d3e ce81 b4bd 43be 94be 614f e7be
00000390: 6558 8e3d dc2b 27be c665 1cbe 52cd 743e
000003a0: 97fc f73e b9ec a13e 2705 4a3e c16a 07bf
000003b0: df08 babe b4b6 5e3e a0d5 ee3b bcff 6e3b
000003c0: 8ea4 d53e 0177 3e3d 2912 4b3e 25f1 c6be
000003d0: 7f3f 53be 185e d3bc 5fff 553c 8e9e e5be
000003e0: f6f7 eabe b3e6 ee3e 146e a93e 9cee 30bd
000003f0: 953d df3d eae8 333e 2235 c2be 95fe a53d
0.24366792 -0.26650095 0.16676472 0.13657616 0.30453464 0.12320009 -0.16011399 0.25537127
0.3086841 0.038154796 0.19318122 0.20756115 -0.107904494 0.100635625 -0.4644382 0.26977694
0.13535823 -0.0627451 0.13604267 0.022846118 -0.118957765 0.36824563 0.37539497 0.33676103
-0.467907 -0.2600881 0.06298762 0.40729764 0.43039757 -0.32457188 -0.42714095 -0.32519305
0.3697325 -0.34522587 -0.18714832 0.360268 0.28304023 -0.29227507 -0.05063342 -0.11278909
-0.118519105 0.37995937 0.015403705 0.30773896 -0.14338526 -0.38531798 -0.1627104 0.41881615
-0.34022754 -0.0068094977 0.1263146 -0.19306026 0.26658785 0.4199153 0.09589575 0.088999316
-0.41413665 0.16989863 0.310541 0.24528573 0.058784362 0.124346435 0.31711823 -0.54095715
-0.18439472 0.3131655 0.08797079 -0.18986762 0.38631225 0.29004762 0.10647346 0.18786108
0.3844659 0.090685986 -0.028243348 0.18652809 0.08026541 0.14511667 -0.34165084 0.36761755
-0.20721588 0.2026643 -0.17719471 -0.14138967 0.18018247 0.039971955 0.31348598 0.3190369
0.14682405 -0.08409625 0.15582117 0.044927385 0.3291336 0.21786407 0.24891369 -0.12678477
-0.033834133 -0.17813522 -0.25480044 -0.015053288 -0.11266413 -0.34499806 -0.5094538 -0.3481957
-0.45487648 -0.24841823 -0.11981958 0.113058664 -0.046128273 -0.42496952 0.2861706 -0.14313509
-0.29408452 0.25575322 -0.45664746 0.17637442 -0.04314939 0.4799085 -0.12758361 -0.3280159
0.46977982 -0.19660053 -0.27265248 0.15940112 -0.25133282 -0.2760903 0.44261768 -0.31084803
-0.4264645 -0.25365996 -0.09746905 -0.22291207 -0.5261947 -0.26744863 0.09335483 0.05377369
0.30958745 0.1546338 0.13450637 0.15628108 0.25420994 -0.2667798 -0.47115386 -0.380156
-0.24628119 -0.57624453 -0.42122662 -0.27210808 0.08460119 0.2504253 0.43785223 0.36474574
0.31537595 0.2945502 0.35164344 0.35813296 -0.10643543 0.2314617 -0.2938739 0.18160929
0.2666048 -0.1769985 -0.13584884 0.20426038 0.45505315 0.2614859 -0.07378092 -0.36161593
-0.63387877 -0.46039507 -0.25836185 0.090352096 0.24102229 0.24368659 0.16128863 0.34414363
-0.1758621 0.17923442 0.29669455 0.2383057 0.31028253 -0.04402882 0.30356205 0.36515623
0.22342578 -0.07969919 0.2748764 -0.32932794 -0.49852082 0.19988559 -0.36850557 -0.5701898
0.48482153 0.36431086 -0.19097583 0.21430475 0.08421931 0.13688004 0.28833795 -0.23626558
0.05515415 0.23889004 0.32437718 0.37792128 -0.36137286 0.17239027 0.3091178 0.37548327
0.17029646 -0.5266411 0.21673577 -0.36038032 0.14992444 0.40684777 -0.1590839 -0.038510267
-0.31990176 -0.01981852 0.08440913 0.13959166 0.006606765 -0.08374132 0.30268213 0.21066572
0.24782632 -0.08813821 -0.29051408 -0.4517775 0.06950454 -0.16325325 -0.15273198 0.23906448
0.48434898 0.31625918 0.19728528 -0.5289727 -0.36334893 0.21749383 0.0072886497 0.0036468348
0.41727108 0.04650021 0.19831146 -0.38855854 -0.2062969 -0.025801703 0.0130613735 -0.4484753
-0.45892304 0.46660385 0.33091795 -0.043196306 0.10900418 0.17569318 -0.37931162 0.08105198

conv1.bias f4 [32]
00000000: 4df1 54be d811 92bd e7bc 46be 95b7 7ab9
00000010: a816 50be 2160 22be 92a2 c0bd 6e13 07be
00000020: 0875 64be 7a59 cebd 21f5 82bd 2453 d03e
00000030: 4d23 333e eba3 ae3b 47e3 973e a3c6 2a3c
00000040: 6574 203d 4984 9ebe a194 853e bd4f 99be
00000050: 20d3 d7bc 5800 f1bd 3457 adbd 6db7 f4bc
00000060: 42e1 d2bd 123e 61bb b2b5 22bc 7102 6a3e
00000070: b9f6 013e 91b9 63bd 4ab2 c23d 5644 5ebd
-0.20795174 -0.0713231 -0.19407998 -0.00023910248 -0.20321143 -0.15856983 -0.09406008 -0.13191006
-0.22310269 -0.1007566 -0.06394411 0.4068843 0.17493935 0.005329599 0.29665586 0.010423335
0.039173502 -0.309603 0.26089957 -0.29943648 -0.02634579 -0.11767644 -0.08463898 -0.02987262
-0.10296871 -0.0034369272 -0.009931015 0.22852494 0.12691773 -0.05559689 0.09506662 -0.05426439

conv2.weight f4 [64, 32, 3, 3]
00000000: 4b43 8cbd a341 cf3c 9d33 253c 9d8c e7bb
00000010: d579 643d 45e4 d93b 6766 0fbc 2406 95bd
00000020: 7097 cbbd beff 68bd d07c f9bc 3076 d83c
00000030: 198a 443b 9ffe 0ebb f858 5a3b 0294 973d
00000040: 1ccb 673c e477 8dba 0fb8 96bd 8985 15be
00000050: abf7 e33a 1dca 7dbd 4994 bcbc fcd0 5a3d
00000060: 5270 72bc 4943 1b3c 6775 5bbd bc3e f53c
00000070: 2432 cebc 9c0a 64bd 1165 f33c 8c90 fabd
00000080: 980f a8bc ef98 eabc e21e 143d 4a9f 5a3c
00000090: 4a73 713c ceec af3d 95a1 aebd 9f59 93bc
000000a0: 115b 483e 2aef 07bd dbfc 93bc 8c57 6dbe
000000b0: 1840 d4bd eb99 773d 19e3 1bbd eb1b 633d
000000c0: c863 f83d 6eaa 923d 3869 71be fe1e 453d
000000d0: c473 e2bd 2531 51be fe58 f9bc 0432 22bd
000000e0: 2c4f 423d 91ab a23d 691e 933d 3de1 c0bc
000000f0: 821f ee3c fafc 8dbd 9e3e 13be ca46 85bb
00000100: fcce 393d 5786 343d f2c4 8e3d 6e3c bf3c
00000110: aa30 a3bd 60fd 883d aa82 a9bd af4e 43be
00000120: fd3f 24bd 2d0d 6f3d 7b45 803b e988 11bd
00000130: d546 19bd adc8 0b3d 2fcd 0abd 378b 4c3d
00000140: a898 8cbd 23c0 cebd e6a9 733d 7c64 ca3b
00000150: b526 b63b 20f6 fbbb 585b 43bd c2b7 9e3c
00000160: 3138 883c 67de ebbd 7fa5 abbc 1d8a 10bd
00000170: 4417 0a3d 31e4 95bc 646d b3bb 117e fa3a
00000180: 59bd d53d 42c1 2dbc 1bfd 6cba 0fb4 c1bc
00000190: a9ae f8bc f453 dbbd dbdf 59bd 992b 11be
000001a0: ccf1 eabc 17b3 ebbd 91b7 d93c 5c74 b6bd
000001b0: 771f 01bd 0e9f 45bd d5d3 aabd 6cb0 d63d
000001c0: b23d 293a 2564 d6bc 4e0a e4bc c094 7dbc
000001d0: 828c 81bd ccaf 10be 4ac9 8abd 77d7 39bd
000001e0: 7173 a4bc 247e 163d b991 8a3d 15e2 d73d
000001f0: ce43 dc3d 56ac e63d 88bf 29bd f3c6 7a3d
00000200: db89 2bbd 4d7e 82bc b5da 10bc 3bd6 0bbd
00000210: 2cb8 8dbd 38bf 823c 9b01 2cbd c414 ddbd
00000220: bd6d 16be 99ac 8bbc 871c 4cbe 9379 90ba
00000230: b277 48ba c6d3 c73c 3073 973d 4d40 9f3d
00000240: a645 e4bd e6df 5b3d 7328 783c c1f2 923d
00000250: a182 093d 3bbe 15be 226c 3abd 25dd 4fbe
00000260: aeb5 36be fbac ac3d e8b3 cd3c c0db 833d
00000270: a3db 25bd e1c3 a83d 5f50 e23b 3249 813d
00000280: 0953 47bb ff73 2abd c727 a0bd b837 15bd
00000290: e36e 2b3d 1355 cdbc 808d fe3c fddb 16bc
000002a0: e5bc 3a3d e1c9 c6bc ef2f 293d f28c af3c
000002b0: 542e e4bc d57b c93c e96e 293d f429 cf3d
000002c0: 6d5e 00bd 4cec 953c 4c93 163d 75f0 ddbd
000002d0: 8288 16be 0417 853b 69bb d43c dfef 49bd
000002e0: 97f4 ae3d 1e4f a83c e167 843d f572 bfba
000002f0: 664d 8e3c 9d84 82be 4b8a 91bd eee2 2cbe
00000300: bb9d dcbd c0f2 2abe 68e3 54bd e40b c5bd
00000310: 12bc 1abe 2afe 8cbb bacb 4abd 4311 a4bb
00000320: 3ebd b2bb 7a24 33bc 3a5b c63c 492d e2ba
00000330: 8567 45bd 8ab8 57bd 57d3 13be 5246 e4bd
00000340: ddbe e6bc a9f3 afbd c770 74bd f92d 443c
00000350: d338 f0bc 9103 bc3d 656e bc3d a543 203c
00000360: 3e07 59bc f739 493d a88d 6d3d 5be1 6d3c
00000370: 3414 653d bed1 1c3d a51f febc da6c 94bd
00000380: 7b23 c7bd 803d 08be 5417 80bd 69f1 adbd
00000390: c6e3 d2bb 3b37 90bd 2b2e 85bd 381e 0dbe
000003a0: 3d08 bebd ad5f 90bc 6193 e5bd 73bd 8dbd
000003b0: 16f0 bcbd a1ce fabc e443 4bbd bf19 c7bd
000003c0: cc5f 68bd 9869 d7bb aeab 82bc 4a05 dabd
000003d0: 019c 23be 0544 55bd 7bc1 fdbd 5e4a ddbd
000003e0: 409a 0bbe cb66 2abd 3ea0 a8bc 747f 133d
000003f0: 2f89 fbbd 24f7 b9bd e866 dfbd c00b 9ebd
-0.068487726 0.025299853 0.010083106 -0.007066323 0.05578025 0.0066495263 -0.008752442 -0.07276562
-0.09940994 -0.05688452 -0.030455023 0.026423544 0.002998954 -0.0021819246 0.003331719 0.07401277
0.014147546 -0.0010793176 -0.07359325 -0.14601721 0.0017392536 -0.06196033 -0.023019927 0.05342196
-0.014797287 0.009476491 -0.05357876 0.02993714 -0.025170393 -0.05567418 0.029711278 -0.122346014
-0.020515248 -0.028637378 0.036162265 0.013343642 0.01473696 0.08590089 -0.08526913 -0.01798707
0.19565989 -0.03318707 -0.018064907 -0.23177928 -0.103637874 0.060449522 -0.038058374 0.055446547
0.12128407 0.07161413 -0.23575294 0.04812526 -0.11057237 -0.20428903 -0.030437943 -0.03959848
0.047438785 0.0794288 0.07183535 -0.023544902 0.029067758 -0.06933017 -0.14379355 -0.0040672766
0.04536341 0.04407343 0.06971158 0.023344245 -0.07968266 0.066889524 -0.08276875 -0.19072984
-0.040100086 0.058362175 0.0039145327 -0.03553096 -0.037421066 0.034126926 -0.033887085 0.049937453
-0.06865054 -0.10095241 0.0594882 0.0061765295 0.0055588135 -0.0076892525 -0.047694534 0.019374732
0.016628357 -0.11517029 -0.020952938 -0.035287965 0.033713594 -0.018297287 -0.005475687 0.0019111057
0.10436506 -0.010605158 -0.0009040401 -0.023645429 -0.030356722 -0.10709372 -0.053192 -0.14176787
-0.02867975 -0.11508768 0.02657679 -0.089089125 -0.031524148 -0.04824739 -0.08341185 0.104828686
0.00064560317 -0.0261708 -0.027836945 -0.015477359 -0.06325628 -0.14129561 -0.06776674 -0.0453715
-0.020074578 0.03674139 0.06766076 0.105411686 0.1075512 0.11263339 -0.041442424 0.06122489
-0.041879516 -0.015929366 -0.008841206 -0.034139853 -0.069198936 0.01596032 -0.04199372 -0.10794976
-0.146903 -0.017050074 -0.19932757 -0.001102256 -0.00076472305 0.024392974 0.07395017 0.07775936
-0.11146097 0.053680323 0.015146363 0.07175208 0.033571843 -0.14623348 -0.04551328 -0.20299204
-0.17842743 0.08431431 0.0251102 0.06438398 -0.040492665 0.08240486 0.0069065536 0.06312789
-0.0030414483 -0.04161453 -0.07820087 -0.03643009 0.041853797 -0.02506498 0.031073332 -0.009207723
0.0455903 -0.024266185 0.04130548 0.021429513 -0.027854122 0.02459518 0.041365538 0.10115424
-0.03134005 0.018301152 0.036761567 -0.10836879 -0.14700511 0.0040615816 0.02596827 -0.049301025
0.085427456 0.020545539 0.06465126 -0.0014606403 0.01737089 -0.254918 -0.071064554 -0.16883442
-0.10772272 -0.16694164 -0.051974684 -0.096214086 -0.15110806 -0.0043027597 -0.049510695 -0.0050069406
-0.0054546883 -0.01093399 0.024213422 -0.0017255928 -0.048194427 -0.052666225 -0.14436089 -0.11146225
-0.028167183 -0.08591396 -0.059677865 0.011973851 -0.02932397 0.09180368 0.092007436 0.009781753
-0.013246356 0.049127545 0.057996422 0.014519061 0.05592747 0.038285963 -0.031020949 -0.07247324
-0.09723564 -0.1330471 -0.062544495 -0.08493311 -0.006435844 -0.070417844 -0.065029465 -0.13781059
-0.09278915 -0.017623747 -0.11209751 -0.069209 -0.0922548 -0.030616106 -0.049625292 -0.097217076
-0.056731984 -0.006573867 -0.015951004 -0.1064554 -0.1597748 -0.05206682 -0.12390419 -0.108052
-0.1363306 -0.041601937 -0.020584222 0.03601022 -0.12282025 -0.090803415 -0.109083 -0.07717085

conv2.bias f4 [64]
00000000: f838 dfbb 68ea 1abd d564 acbc 78df 1e3c
00000010: 9051 8ebc d2cf 04be 8dde a63c b1a0 86bd
00000020: 1cc4 d2bd 9095 b3bc d0ff ffbb bd87 29bd
00000030: 7628 523c f05b 7dbd 4b45 86bd 1c2a 09bd
00000040: 59db 3dbd 2da2 94bc d53e c2bc 41ce 83bd
00000050: 4d4c f8bc 6022 7bbb 1f60 e53c 2db6 5c3c
00000060: adf0 803c dbc8 d83c 4f34 96bd 0166 4fbd
00000070: 08e5 8fbc 9115 d8bd 484b 4cbd fc2b 61bd
00000080: 52db c9bd be92 8bbd 58c1 a1bb 4175 33bd
00000090: 057d 7bbd 0708 933c 2b7d f0bc e84b cd3c
000000a0: a3c8 e63c d16e a4bd 2b4e 69bb 549f 14bd
000000b0: 356b 77bd 974e a53c 71d8 8cbd 58f7 2ebc
000000c0: 1168 b3bc b9a3 82bd 5142 c1bc b0a7 c03a
000000d0: 079b 45bd c626 c639 5b38 04bd 58a7 f5bc
000000e0: e7f0 c1bb 0991 07bd 992d 71bd 9171 28bd
000000f0: c608 e2bc e91f 963a 945c 24bd b053 57bd
-0.006812211 -0.037821203 -0.021044174 0.009696834 -0.017372876 -0.12969902 0.020369792 -0.06573618
-0.10291311 -0.021921903 -0.0078124776 -0.041389216 0.012827029 -0.061855257 -0.06556185 -0.033487424
-0.046351764 -0.018143738 -0.023711601 -0.06435824 -0.03030982 -0.003832005 0.027999936 0.0134711685
0.015739763 0.026462963 -0.07334196 -0.050634388 -0.017565265 -0.105509885 -0.04987648 -0.054973587
-0.09856285 -0.06815098 -0.0049363784 -0.043812994 -0.061398525 0.017948164 -0.02935656 0.025060609
0.028171843 -0.08028949 -0.003559957 -0.03628476 -0.060404975 0.020179076 -0.068772204 -0.0106790885
-0.021900209 -0.06378884 -0.023591192 0.0014698412 -0.04824355 0.0003779439 -0.032280307 -0.029987022
-0.0059186104 -0.0330973 -0.058881376 -0.04112393 -0.027592074 0.0011453602 -0.040127352 -0.052570045

fc1.weight f4 [64, 3136]
00000000: ba14 6f3b d46e 53bb d669 04bc 5b7a 0cbd
00000010: 0da1 2e3d cafa f53a 2980 05bd 11c8 8c3b
00000020: ccea 703d 6c51 f4bc 0a25 853c cfe2 413d
00000030: 14ef 323c 1782 e5bb 5aef 463c 1cbd 1f3c
00000040: f485 8f3c 7c0d 30ba 74b1 933c f86e 7a3d
00000050: 38f5 063d 00bb 72bc cee7 18be 6fa5 3abd
00000060: a959 753d 9ed3 eabc f9b1 fdbd b606 5ebd
00000070: e1c7 4ebb ded8 cbbd 3124 2cbd 42d0 d03b
00000080: d726 90bd 7f05 22bc 7b22 763c 91a7 b0bc
00000090: b744 e83b 93b5 7dbc 0f86 523d 1a4f 813d
000000a0: 47a8 be3d 03cd b93d 8876 fb3c 730f 24bc
000000b0: d928 1fbd e199 b13b 218a a03b 4905 8a3c
000000c0: f030 b63b 56b4 9ebc 8444 fe3c 069a 113d
000000d0: a2ae 743d c663 823d feab 933d 3e7c 2cbc
000000e0: 193b d6bc 91d5 8fbc 44de 5b3d 9308 333c
000000f0: 0c02 a63c 233b 323d f453 003d 0f68 9ebd
00000100: 6578 0cbe 0af3 e4bd 8a3d c9bd c08f e43b
00000110: baa2 abba e6b7 1a39 51fc 73bd 15ab d4bd
00000120: 0010 a13c ae12 98bd 379e 2c3d a0c4 1c3c
00000130: 2777 9ebd eee5 303d 9e4a 02bc 3572 a7bd
00000140: 9f56 0bbe 19a2 9f3d b914 cb3c 1e1b 023d
00000150: 42c2 bb3c 1607 2dbd b5d0 8f3c 5613 93bc
00000160: 4d2a 2f3c a370 2f3d a978 a03d c65c 26bc
00000170: 6957 b73b 35b4 b8bd 9e7a 05be 700d 20bd
00000180: c687 9bbc 7265 60bc b5bf 3cbb 6187 9ebc
00000190: 03bb cbbc 2e40 673c 0c62 8a3a ffca cf3b
000001a0: c254 4d3c 6a87 ca3b df44 5e3c a555 1f3e
000001b0: 1952 273d 2068 843c b4f0 7d3c 7ac1 e439
000001c0: 873a cebc f46c 7f3d 7fc1 913d e255 c2bc
000001d0: 5df8 4dbd de5e 993c 5fc1 18bc 5c58 c9bd
000001e0: d716 1ebc 81fd b7bd 9962 97bd 482f 423d
000001f0: 6499 1d3d baa5 533d b5c3 e0bc dc22 09bd
00000200: 30d6 7c3c 7c15 d13c a8e6 133d fdba 10bd
00000210: a4dc 49bc 4acd 8b3d 2e16 8f3d 0314 ec3c
00000220: 9fa1 883c b6d2 043d 5ed7 01bc bdc5 ab3b
00000230: 79a6 adba e7a4 b63b c7f8 533d bd79 063d
00000240: 9778 17bc 8df8 913c f3ca 3c3d 827c 423c
00000250: 1b9d 533d bf7e 403d 0f44 143d 2a0f 6e3d
00000260: 7b18 d7bc faa4 843b 7dd5 b4bc 7bb0 513d
00000270: fcd8 28bc 65c8 cc3c 0ca3 0f3e f990 d63b
00000280: 764c 8f3c 50a0 cbbd 1202 e3bc 1a27 46bd
00000290: 82aa 9d3d 64fe e93c 6ab6 96bd 447a 253c
000002a0: a27d 05be 641c 3fbd 3c25 81bd 44d3 1d3d
000002b0: 63de debd 1fc0 2abe d8ff c53b 9bde 90bb
000002c0: 8c05 09bd f0dc b4bd 52bb 263d 5782 62bd
000002d0: 13ed 8c3c 8e30 a73c c87e 153d e3f2 803d
000002e0: b84b 6abc 7a56 99bd 6973 d4bd c377 e2bc
000002f0: 7769 a43d 1a39 c13b ed33 2ebd 4b5e 943c
00000300: 054e efbc 77a9 6cbd 1e5c 52bd 91aa 973a
00000310: 4244 4c3c d4c1 8b3d c86a 7b3d 4d6c ba3d
00000320: 5ca3 cf3d ac28 99bd 794d 52bb fe9d 31bb
00000330: 65b8 f73c 63ba 0e3e 3692 143d b4cb 293d
00000340: e2e0 2ebd 16c6 9e3a f332 c5bd 9e90 b9bd
00000350: b4ca e0bd f687 a1bc 3c3e 4abd f060 80bd
00000360: 8f45 f03c b9b1 a9bd ff37 9bbd c61f 1cbd
00000370: 5144 413d cd16 903d 312a f03c d194 e1bc
00000380: e96e 923d f6ca f5bb 9e8e c3bd 1039 cf3d
00000390: c2eb a43d 5e08 ec3c 4c0a 6e3d a456 a43d
000003a0: c466 af3d ffe7 273c c1ad 81bc 8320 1b3c
000003b0: 7394 2cbd ec0c 8d3d f7fb cbba 35ef 52bd
000003c0: 1080 83bc 03a1 8cbd 41f3 823c ade8 92bb
000003d0: a242 3cbb 57cb ba3c 41d3 30bc bf3c c63c
000003e0: ab1c bd3c dadd 643d 7e2b 173d 2a65 60ba
000003f0: 6498 0fbd ee0f 17bc 21c1 a9bc 9fcc 39bb
0.003648086 -0.0032262104 -0.008081874 -0.034296375 0.04263406 0.0018766758 -0.032592926 0.0042963107
0.05881767 -0.029823981 0.016253013 0.047335442 0.0109212585 -0.0070040333 0.012142027 0.009749677
0.017519929 -0.00067158765 0.018028952 0.061140984 0.032948703 -0.014815092 -0.14932176 -0.045567926
0.05989996 -0.02866536 -0.12387461 -0.05420562 -0.0031552243 -0.099534735 -0.042026702 0.0063724825
-0.07038658 -0.009889006 0.015022869 -0.021564277 0.0070882696 -0.015485185 0.05139738 0.063139156
0.0930944 0.09072306 0.030696169 -0.010013449 -0.038857315 0.005419955 0.0048992787 0.016848223
0.005560033 -0.0193731 0.03103853 0.03554728 0.059736855 0.063666865 0.07210539 -0.0105276685
-0.026151227 -0.017557891 0.053678766 0.010927337 0.020264648 0.04351343 0.031330064 -0.07734691
-0.13717802 -0.111791685 -0.09826191 0.006975144 -0.0013094761 0.00014755092 -0.0595668 -0.10384194
0.01966095 -0.07425438 0.042143073 0.009568363 -0.0773757 0.043188028 -0.00795236 -0.0817608
-0.13607262 0.077945895 0.024790155 0.031764142 0.022919778 -0.042243086 0.017555574 -0.017953556
0.010691238 0.042832028 0.07835514 -0.010153955 0.005595137 -0.09018747 -0.13035056 -0.039075315
-0.01898564 -0.013696061 -0.002880079 -0.019351663 -0.024869448 0.014114423 0.0010557785 0.0063413377
0.012532415 0.0061806934 0.013566225 0.15560015 0.04084978 0.016162932 0.015499283 0.000436317
-0.025174392 0.062359765 0.071169846 -0.023722593 -0.050285686 0.018721994 -0.009323447 -0.09831306
-0.009649 -0.08983899 -0.07391853 0.047408372 0.038476363 0.05167172 -0.02743707 -0.03348051
0.015431926 0.02552294 0.036108643 -0.035334576 -0.012320671 0.06826265 0.06986652 0.028818136
0.01667863 0.032427512 -0.007924883 0.005242078 -0.0013248465 0.005573857 0.051750924 0.032830942
-0.009245059 0.017818714 0.046091985 0.011870505 0.0516635 0.046995874 0.03619772 0.05811993
-0.02625679 0.004047987 -0.022074455 0.051193696 -0.010305639 0.0249979 0.14027041 0.006548044
0.017492514 -0.099426866 -0.027710948 -0.048377134 0.076985374 0.028563686 -0.073590115 0.010099951
-0.13036206 -0.046657935 -0.0630593 0.038531557 -0.10882261 -0.16674851 0.006042462 -0.004421068
-0.033452556 -0.08831203 0.040705986 -0.055300083 0.01720289 0.020408895 0.03649786 0.06296327
-0.014300279 -0.07487197 -0.10373575 -0.027644997 0.08027928 0.0058966996 -0.04252999 0.018111369
-0.029212007 -0.0577788 -0.05135738 0.0011571218 0.012467446 0.06824079 0.06138113 0.09102688
0.1013858 -0.07478461 -0.0032089634 -0.0027102227 0.030239293 0.13938288 0.03627225 0.041454032
-0.042694934 0.0012113478 -0.096288584 -0.09060787 -0.109761626 -0.019718152 -0.049375758 -0.06268489
0.029330043 -0.08285851 -0.0757904 -0.03811624 0.047184292 0.07035599 0.029316993 -0.027536782
0.07150061 -0.0075010015 -0.095486864 0.10118306 0.0805278 0.028812584 0.05811529 0.08024338
0.08564523 0.010248183 -0.015829923 0.009468201 -0.04213376 0.0688723 -0.0015562762 -0.051497657
-0.016052276 -0.06866648 0.015985133 -0.0044833035 -0.002872624 0.022802038 -0.010792554 0.024198888
0.023084959 0.055875637 0.03690671 -0.00085599965 -0.03505744 -0.0092201065 -0.020721974 -0.0028350723

fc1.bias f4 [64]
00000000: 76d3 903c 955b 3a3b 235d 3e3d 3314 dbb9
00000010: 833c 43bc f461 c43c ec27 14bb c57c cdbc
00000020: 2b28 1f3d 88dd 043d 4d81 87bc 978d daba
00000030: adbe 443c 4cd6 c1bc da46 45bb 433f 213d
00000040: fc2e f13c 9c8a 23bc 815a e4bb 120e d73c
00000050: e847 a93c 6e93 473c 4843 a33c f983 74bc
00000060: a905 863b e214 a2bc 1eb4 533c 3830 113d
00000070: a666 16bc 59fd a2bc dc10 ecba 8c1e 4f3c
00000080: 1ead 373d 2945 cc3c 6c92 243b 5586 2dbb
00000090: f55b 8b3c 44b4 2039 89c2 8f3c 7f27 33bc
000000a0: b318 aabc e205 853c 9d08 f33b fc98 013c
000000b0: cdf2 edbc ff5c 983c ac3e 21bd a462 d13c
000000c0: 7b04 4cbc 5b62 ac3b 66a9 e839 ea1f 7bbc
000000d0: 25ef 3d3d cc74 67bc c36f 753b a495 b33c
000000e0: 5b88 87ba 1914 1bbb 4462 13b9 d621 c83c
000000f0: cde4 843d e00f 12bd f7f9 1e3d 6b69 f73a
0.017678957 0.0028435935 0.04647554 -0.00041785985 -0.011916283 0.023972489 -0.0022606803 -0.025083909
0.038856667 0.03243783 -0.016541148 -0.0016674277 0.012008351 -0.023661755 -0.0030102045 0.03936697
0.02944135 -0.0099817775 -0.0069687967 0.026251826 0.02066417 0.012181146 0.019929543 -0.014924043
0.00409003 -0.019785348 0.012921361 0.035446376 -0.009179747 -0.019896196 -0.0018010396 0.01264156
0.04484283 0.024935322 0.0025111688 -0.0026477773 0.017011622 0.00015325943 0.017548816 -0.01093471
-0.02076373 0.016238157 0.0074167983 0.0079100095 -0.02904644 0.018599031 -0.03936641 0.02555973
-0.01245224 0.0052607483 0.000443767 -0.015327433 0.046370644 -0.014126968 0.0037450648 0.02192194
-0.001034032 -0.0023663102 -0.00014055619 0.024430197 0.06488953 -0.03565967 0.038812604 0.0018876021

fc2.weight f4 [10, 64]
00000000: da2b 01be 537d 5e3d c081 133e d6cc bd3d
00000010: 881d b53d e7b9 27be 4228 1a3d 01b0 a6bc
00000020: 1b53 18be 7a82 efbd 4fc7 c03d 090a b7bd
00000030: 3fd9 4cbe e687 07bd 5cbd db3d b498 c03d
00000040: 8b11 6fbe 5ebf 5cbe af83 53bd 0c84 c73d
00000050: 7067 81be 33f1 29bc a14d 533c 7d97 dcbb
00000060: 9287 aa3d fd7d 8b3d a4b0 cc3d 04d7 67be
00000070: be81 ab3d a58d 6ebd 593b 56be 8399 f23d
00000080: 89a7 a73b 87ac f8bd 602b 00bd 079f b7bd
00000090: bd00 1b3e 9b1e ba3c 244d a33d 3781 a9bb
000000a0: abdd b13d 7802 563d 84ed 82bb f2b9 17be
000000b0: 0677 b5bd 2b33 863b a0e0 4bbe 72d1 dabd
000000c0: ba24 85bd ed65 00bd e2cf 20bc 94d5 723c
000000d0: 11fa 83bd 6dba 0cbd 45be be3c 3fb6 113e
000000e0: 54ca 923d baa1 993d d854 3bbe d991 e93d
000000f0: efe1 ce3b 173f 863d c4ca 8abc 6c9b 363e
00000100: 859a db3d 4019 41bd 6823 583e a9c0 c13d
00000110: 8836 f2bd fd54 af3c b545 5dbe d6b0 6fbe
00000120: 73b3 a33d 26d9 1c3d c096 52bd d989 8fbc
00000130: 3486 6dbd 7138 d1bb 96fc 1ebe 241a f9bd
00000140: 24b5 253e 8140 edbd d3a3 9f3c 3f31 383e
00000150: ad42 133d 0a52 4dbd 6efd e23d 9457 e03a
00000160: cea2 12bc dda1 7aba 2860 b4bc 7828 973c
00000170: 465e c1bd 7c81 9e3d 5519 2b3c c72f 6abe
00000180: 088f 6b3d f515 2b3e b88d c9bd 0053 8c3d
00000190: 8ef4 143e 3d45 a0bd 0e64 20be 5651 9abd
000001a0: f1a4 ec3b 281b 64be f00e 95bc 55e3 83bb
000001b0: cb13 8f3d 744f 9fbd c4d1 fcbd 239d 08bc
000001c0: c77e 84bd 5dab c53d 1c2b e4bc c731 1fbe
000001d0: 6d99 313d 40dc 86bc 07f8 a23d cd4e 73bd
000001e0: 27b6 45bd 2bb2 703d 896d a8bd 208c e03d
000001f0: afee ff3d c723 4abc 6a47 9abd 3c39 f43d
00000200: 80a2 093d e3e3 40be c045 a8be e55e e6bc
00000210: d8d0 9c3d 5402 183e 8771 19be a07a d73d
00000220: 865c 84bd 13c4 1a3e 7573 f03d 0e1a 1bbd
00000230: ac93 833b 27e6 233d 63b7 fa3d 1ad7 68be
00000240: 6d5c 03be 76b8 2abe dccc bb3a 5ea6 9d3d
00000250: a4e1 a0bd fb6d a43d bdd3 33bd c2dd 093b
00000260: b8ff 1ebd 9750 c0bc 31dc 883d e34c e0bd
00000270: 3064 863d a730 7fbd a25b ebbd 8013 35be
00000280: 46b3 a33d 78ae 093e ea96 cabd 5500 113c
00000290: c603 36be 13c4 2c3e 9865 1c3e 20a0 933d
000002a0: 9961 343d 796c 2abe 2d8e 81bc 841e e73d
000002b0: e04e 55bd 284e 49be ee91 803d c06b 14be
000002c0: 5046 d83c d94c bf3c 6590 083d 465f 0e3e
000002d0: 44cd 3bbc f896 52bd 3df9 a23d 520d cb3d
000002e0: db13 a43d 77db e13c 202e d33d eff2 e43d
000002f0: de94 2ebd 0db9 2fbe 435f 0fbe 0d1e e73c
00000300: 5580 243e 9375 cf3d 78e0 20be 6ede 4bbd
00000310: 70f1 90bd 77c3 87bd 9f62 a43d d7f4 3e3d
00000320: eadb c13d 64cb 25be 882a c03d 8c90 d43d
00000330: e80c efbd 850d 79bd d404 b13d 9ae1 10be
00000340: db07 0f3e f85b 8bbc 9a52 97bd 601a 3abe
00000350: 9fd0 8c3c dd8a 21bc c708 073e e5f6 36bd
00000360: 3c77 9f3d b470 c43d 84e7 9a3d 7c8c 39bd
00000370: ae9d 993d 2328 45bd 319a 733c 3895 f6bd
00000380: 4714 b7bd fa7b 1abe 36b2 c8bb 8f4b 7c3a
00000390: a75f 19bd 4349 3cbe ed53 8d3d 24c6 b73d
000003a0: 89c0 c93c 8703 8a3c 804b b3bc c121 2c3c
000003b0: 1153 0d3c 376d c63d fb02 853c 06df 03be
000003c0: a35c 03be 49ba da3d e36a 98bd 115e 853d
000003d0: d245 84be 5495 ef3d 72ff 93bd 08a8 ecbd
000003e0: bc28 29be 2423 f5bd 45b8 e93d 2904 ac3d
000003f0: 3f9f 7abe d23b a5bd c968 d43b e8d1 d8bd
-0.12614384 0.054318737 0.14404964 0.09267585 0.08843523 -0.1637951 0.03763605 -0.020347597
-0.14875452 -0.11694808 0.09413015 -0.08937461 -0.20004748 -0.033088587 0.10729477 0.09404126
-0.23346536 -0.21557376 -0.051639255 0.09741983 -0.2527423 -0.010372448 0.012896926 -0.006731926
0.08326639 0.0681114 0.09994629 -0.22640616 0.08374356 -0.05824055 -0.20921077 0.11845686
0.0051164073 -0.12142282 -0.031291366 -0.08965879 0.15137 0.022719672 0.07973698 -0.0051728743
0.08684858 0.052248448 -0.003995599 -0.14817026 -0.088605925 0.004095455 -0.19909906 -0.1068448
-0.06501146 -0.031347204 -0.009815188 0.014821429 -0.06444181 -0.034357477 0.023284087 0.14229678
0.07167497 0.0750155 -0.18294084 0.11404771 0.0063135545 0.06555002 -0.01694239 0.17832726
0.10722832 -0.04714322 0.21107256 0.09460575 -0.11826807 0.02140283 -0.21608622 -0.23407301
0.079932116 0.038293026 -0.051413298 -0.017521786 -0.057989314 -0.006384902 -0.15526041 -0.12163189
0.16182381 -0.11584569 0.019487297 0.17987536 0.03595226 -0.050127067 0.11083494 0.0017115944
-0.0089499485 -0.00095608627 -0.022018507 0.018451914 -0.09441809 0.07739541 0.010443051 -0.22869788
0.057509452 0.16707595 -0.09841484 0.068517685 0.14546415 -0.07825706 -0.15663168 -0.07535045
0.007221811 -0.22275984 -0.0181956 -0.004024903 0.06986197 -0.07778826 -0.12344697 -0.008338246
-0.06469493 0.096518256 -0.027852587 -0.15546332 0.04335921 -0.016462445 0.07957464 -0.059401322
-0.048269417 0.058763664 -0.08224017 0.10964227 0.12496697 -0.012337632 -0.075331524 0.11924979
0.033602238 -0.18836932 -0.32865715 -0.028121421 0.07657021 0.14844638 -0.14984713 0.10521436
-0.0646296 0.15113859 0.11740772 -0.037866645 0.0040154066 0.040014412 0.122420095 -0.22738305
-0.12828226 -0.16671929 0.0014328021 0.07697748 -0.078555375 0.080287896 -0.0439031 0.002103672
-0.03881809 -0.023475928 0.06682623 -0.10952165 0.06562078 -0.062302258 -0.11492087 -0.1768322
0.07993178 0.13445461 -0.09892066 0.008850177 -0.17774877 0.16871671 0.1527313 0.07208276
0.04403839 -0.16642942 -0.015814865 0.11285117 -0.052077174 -0.1965872 0.06277834 -0.14494228
0.026400715 0.023352074 0.03334083 0.13903531 -0.011462513 -0.051413506 0.07957695 0.0991465
0.080116 0.02757047 0.10311532 0.111791484 -0.04262244 -0.17160435 -0.14001183 0.028212572
0.1606458 0.101298474 -0.15710628 -0.049772672 -0.070773005 -0.06629079 0.08026623 0.046620216
0.094657734 -0.16190869 0.09383112 0.10379133 -0.116723835 -0.06080391 0.08643499 -0.1414856
0.1396784 -0.017011628 -0.07388802 -0.18174124 0.017189322 -0.009859768 0.13186942 -0.04466905
0.07786414 0.09591809 0.07563689 -0.045299992 0.07500778 -0.04813398 0.014868305 -0.1204018
-0.089394145 -0.15086356 -0.00612476 0.0009624296 -0.037444737 -0.18387322 0.06900773 0.08973339
0.02462794 0.016847385 -0.021886587 0.010506094 0.008625762 0.096888 0.016236773 -0.12878045
-0.12828307 0.10680062 -0.07442262 0.06512082 -0.2583452 0.11698404 -0.07226457 -0.11555487
-0.16519445 -0.11969593 0.114121 0.08399231 -0.2447481 -0.080680504 0.006482218 -0.105869114

fc2.bias f4 [10]
00000000: eb85 dcbd 55fa 7d3d e638 4fbb a6a6 39bd
00000010: 7301 983d 292e 153e af55 3f3d 1f6a a0bb
00000020: 7dbc 85bd 7d4a c73d
-0.1076773 0.062006313 -0.0031619607 -0.045324944 0.074221514 0.1456839 0.046712574 -0.004895463
-0.06530092 0.097310044
